src/neuralstars/scripts/vae_model.pth (torch, 691328 bytes, 45 tensors)

encoders.0.embedding.weight f4 [64, 1]
0	0x3eb68b20	0.3565302
1	0x3f1f28d2	0.6217166
2	0x3f36b5ee	0.7137135
3	0xbe0e60de	-0.1390414
4	0x3f44106f	0.76587576
5	0xbe64b640	-0.22335148
6	0xbf0b34d6	-0.54377496
7	0x3f5ebc84	0.870064
8	0xbcb26512	-0.02177671
9	0x3efebd2d	0.49753705
10	0xbf1bf648	-0.6092267
11	0x3c8ac3a0	0.016938984
12	0x3ef2e932	0.4744354
13	0xbf00c772	-0.5030433
14	0xbee5c434	-0.44876254
15	0x3eaf2b83	0.34212884
16	0xbf0c33a6	-0.5476631
17	0xbe81737d	-0.25283423
18	0xbe28119f	-0.16412972
19	0xbec08098	-0.3759811
20	0x3e4d8fb6	0.20074353
21	0x3f4534ca	0.77033675
22	0xbeb24d28	-0.3482449
23	0xbf27dec6	-0.655743
24	0xbee88fd4	-0.45422232
25	0xbec30678	-0.38090873
26	0x3f5841ff	0.844757
27	0xbe8d0646	-0.2754385
28	0x3f02e1bf	0.5112571
29	0xbdd3a716	-0.103346035
30	0xbe44b9ae	-0.19211456
31	0xbe724c49	-0.23661913
32	0x3f35c4ec	0.71003604
33	0xbca68d37	-0.020331008
34	0x3ef9aa53	0.4876276
35	0x3dbf6304	0.093450576
36	0x3e7228dd	0.236484
37	0x3e1afcc8	0.15135491
38	0xbf263100	-0.6491852
39	0xbf1e3dd6	-0.61813104
40	0xbe370546	-0.17873105
41	0xbefbccda	-0.49179727
42	0xbd4a9022	-0.049453862
43	0xbee1bc6f	-0.44089076
44	0xbf11c954	-0.5694783
45	0x3eaa7c85	0.33298126
46	0x3eaac7c0	0.33355522
47	0x3f011108	0.5041661
48	0x3e942432	0.28933865
49	0xbe956c53	-0.29184207
50	0x3f4b4724	0.79405427
51	0xbef0e0c2	-0.47046477
52	0x3f0b6376	0.5444864
53	0xbf35a121	-0.7094899
54	0x3d8baf36	0.06820528
55	0xbf47e40d	-0.7808235
56	0xbe763b82	-0.24046138
57	0xbe9abcd6	-0.30222195
58	0x3f09279f	0.5357608
59	0xbe582b3c	-0.21110243
60	0xbeb009b5	-0.34382406
61	0x3f14e9dc	0.5816934
62	0x3e2fcc3c	0.17167753
63	0xbe821e85	-0.2541391

encoders.0.embedding.bias f4 [64]
0	0xbf044a35	-0.5167573
1	0x3e93f792	0.2889982
2	0xbf11dcc8	-0.5697751
3	0xbe08fe51	-0.13378264
4	0xbdf7f016	-0.1210634
5	0xbe42abd2	-0.19010857
6	0x3f3f02c4	0.74613595
7	0xbf301952	-0.68788636
8	0x3ee3c049	0.4448264
9	0x3f14b6d6	0.58091486
10	0xbf428675	-0.75986415
11	0x3f7138d8	0.9422736
12	0x3f11cdca	0.56954634
13	0x3ed8da13	0.42353877
14	0xbeaff383	-0.34365472
15	0xb93c439a	-0.0001795426
16	0x3e98b10a	0.2982257
17	0x3e1541e3	0.14575915
18	0xbf2ad7b6	-0.667354
19	0xbea1a6de	-0.31572622
20	0x3ec71476	0.38882798
21	0xbedc4da9	-0.43028
22	0xbedbf5fe	-0.42961115
23	0xbe96c835	-0.2944962
24	0xbf33728b	-0.70096654
25	0xbddf6b8b	-0.10909184
26	0xbe5e8adb	-0.21732657
27	0xbd575c57	-0.052578297
28	0xbf1d0968	-0.6134248
29	0xbf4a4b95	-0.7902158
30	0x3daed972	0.08537568
31	0x3ee03d71	0.43796876
32	0xbf3db7b3	-0.7410843
33	0x3f35f6d3	0.7107975
34	0x3ebc6eb0	0.36803198
35	0xbd004983	-0.031320106
36	0xbed47a92	-0.41499764
37	0xbf53ecf4	-0.82783437
38	0x3f1be03a	0.6088902
39	0x3f1000ac	0.56251025
40	0x3cadab96	0.021199983
41	0xbe0470f4	-0.12933713
42	0x3cd1bc2c	0.025602423
43	0x3f3370eb	0.70094174
44	0x3e949c6c	0.2902559
45	0xbf3bf8eb	-0.73426694
46	0xbe66242c	-0.22474736
47	0x3f37bbe2	0.7177106
48	0x3e50ca86	0.20389757
49	0x3e9db1ac	0.30799615
50	0x3cc237d9	0.02370827
51	0x3eaa4445	0.3325521
52	0x36b8e13a	5.509847e-06
53	0xbef465ba	-0.4773386
54	0xbf0e43d3	-0.5557224
55	0x3edfd082	0.43713766
56	0x3f12c57f	0.57332605
57	0xbf445eb6	-0.7670702
58	0x3e66e955	0.22549947
59	0xbe9faba6	-0.31185645
60	0xbf0e4e96	-0.5558866
61	0x3eb3ab24	0.35091507
62	0x3d821e3c	0.06353423
63	0xbf450ac9	-0.7696958

encoders.0.lstm.weight_ih_l0 f4 [256, 64]
0	0x3dcb421a	0.09924717
1	0x3cc7a682	0.02437139
2	0x3e15cfa8	0.14629996
3	0x3e0aa7d1	0.1354058
4	0x3e2ccabf	0.16874216
5	0x3e08867f	0.13332556
6	0xbdb907f4	-0.0903472
7	0x3e343056	0.17596564
8	0xbdbba92e	-0.09163128
9	0xbd8c41c0	-0.06848478
10	0x3969f82c	0.00022313063
11	0xbe0c625e	-0.13709399
12	0xbe1d4b1e	-0.15360686
13	0x3d0a618e	0.03378444
14	0x3d44b302	0.048022278
15	0xbdc9a24e	-0.0984541
16	0xbe30ef1b	-0.17278711
17	0xbd317567	-0.043324854
18	0x3e06b0c9	0.13153376
19	0x3e135880	0.14389229
20	0xbdcd16b4	-0.10014096
21	0x3e24e80d	0.16104145
22	0xbbc03eb3	-0.0058668493
23	0xbd4694ef	-0.048481878
24	0xbc4aa566	-0.012368536
25	0x3ce952ae	0.028481808
26	0xbd3df017	-0.046371546
27	0xbc817f42	-0.015807752
28	0x3df914cd	0.121621706
29	0x3db25a24	0.08708599
30	0x3d09375f	0.03350007
31	0xbdb66306	-0.08905606
32	0x3e243060	0.16034079
33	0x3c7046a1	0.014665277
34	0xbdd90a18	-0.10597628
35	0x3d96449a	0.073373035
36	0x3e2ae171	0.16687562
37	0xbcf26a9d	-0.029591853
38	0xbda06d8f	-0.07833397
39	0xbda9a367	-0.0828312
40	0x3cec3fc5	0.028839001
41	0x3dd04d1f	0.1017096
42	0xbc87c062	-0.016571227
43	0xbdd75b9f	-0.10515522
44	0x3d4366c5	0.04770543
45	0x3d85a138	0.06524891
46	0x3d9c75f4	0.07639685
47	0xbe34c339	-0.17652597
48	0xbe1522b2	-0.14564016
49	0xbdca1bc8	-0.0986858
50	0xbcbfcfca	-0.023414511
51	0xbe46cae0	-0.19413328
52	0x3d12bce1	0.03582466
53	0x3e0d79b6	0.1381596
54	0x3c0fc6ba	0.008775407
55	0xbe3c09a0	-0.18363047
56	0xbdc6b5ec	-0.097026676
57	0x3d247840	0.04015374
58	0xbe019616	-0.1265491
59	0xbcf91178	-0.030403838
60	0x3d1f59ca	0.03890399
61	0x3d01224f	0.03152686
62	0xbd0c6888	-0.034279376
63	0x3e250b26	0.16117534
64	0xbc554587	-0.013017065
65	0xbe4419a5	-0.19150408
66	0x3d1b877c	0.037971005
67	0x3e44779d	0.19186254
68	0x3d37f5a0	0.04491198
69	0x3e09cb7f	0.13456534
70	0x3cb92d34	0.022604562
71	0xbc3b5263	-0.011433217
72	0xbc85d545	-0.016337046
73	0xbdab3553	-0.0835978
74	0x3e458cd2	0.19292
75	0xbe372052	-0.17883423
76	0xbd81c9a9	-0.06337292
77	0xbe16ff34	-0.1474579
78	0x3e2905b2	0.16506079
79	0x3d7fefdd	0.06248461
80	0x3c562e2d	0.013072533
81	0xbd9a7a3f	-0.07542848
82	0xbcc7a4b8	-0.024370536
83	0x3dbcdcd5	0.09221808
84	0xbdc08143	-0.09399655
85	0x3d719c80	0.05898714
86	0x3e4b69c4	0.19864565
87	0xbce0d601	-0.027445795
88	0x3e231c04	0.15928656
89	0x3e0e64b9	0.1390561
90	0x3d58587d	0.052818764
91	0x3d7fc150	0.062440217
92	0x3ceb8261	0.028748693
93	0x3e45caa2	0.1931558
94	0xbd804637	-0.062633924
95	0xbe0a1969	-0.13486256
96	0x3d83cfa8	0.06436092
97	0xbe13b7d1	-0.14425589
98	0xbe3b898d	-0.1831419
99	0x3ce7281f	0.028217373
100	0x3d4c366f	0.0498566
101	0xba78b1e8	-0.00094869593
102	0xbd843eef	-0.06457316
103	0xbe31d61e	-0.17366835
104	0xbd3a3967	-0.0454649
105	0x3d7e4939	0.06208155
106	0xbe6840f4	-0.22681028
107	0xbc97fa90	-0.018552095
108	0xbd95ae19	-0.07308597
109	0xbc67936d	-0.01413427
110	0xbd042c4d	-0.03226881
111	0xbe1497ad	-0.14510985
112	0xbdc68bdc	-0.09694645
113	0xbcc08855	-0.023502508
114	0x3c80ea7a	0.015736807
115	0xbde5b143	-0.112154506
116	0x3c5c603d	0.013450679
117	0x3dd8ef0a	0.10592468
118	0x3e44aa4d	0.1920559
119	0xbe30f448	-0.17280686
120	0xbe5d5813	-0.21615629
121	0x3de06c3f	0.10958146
122	0xbddf911b	-0.109163485
123	0x3c32e15a	0.010917986
124	0x3d8b3c6b	0.06798633
125	0xbd28562e	-0.041097812
126	0xbd5ea30c	-0.054354712
127	0x3dfa1d0e	0.12212573
128	0x3de321b2	0.11090411
129	0xbd002a7c	-0.031290516
130	0x3d2a899e	0.04163515
131	0x3ddc66a8	0.107617676
132	0x3d9b2bdf	0.07576727
133	0x3c54357d	0.012952206
134	0xbe1e4984	-0.15457731
135	0xbcdc6be4	-0.026906915
136	0x3cac62e3	0.021043247
137	0x3c99daea	0.018781144
138	0xbcafeb8f	-0.021474628
139	0x3d63d678	0.055624455
140	0x3c8f8263	0.017518228
141	0xbe0e8b09	-0.13920225
142	0x3e0ff64e	0.14058802
143	0x3c9a3d64	0.018828101
144	0xbe0d254a	-0.13783756
145	0xbe3714ee	-0.17879078
146	0xbb832f0b	-0.0040034107
147	0x3dcc6f25	0.09982137
148	0xbe05340f	-0.1300814
149	0xbd521608	-0.051290542
150	0x3e03f618	0.12886846
151	0x3d68c0b8	0.056824416
152	0x3daac7ef	0.083389156
153	0xbd020793	-0.031745505
154	0xbd3c89f6	-0.046030007
155	0x3d19eae1	0.037577514
156	0x3e0fb355	0.14033253
157	0x3db3e325	0.08783559
158	0xbdd635de	-0.10459493
159	0xbd2a4f61	-0.041579608
160	0xbb262c54	-0.0025356011
161	0xbce4850b	-0.027895471
162	0xbde5ec40	-0.11226702
163	0x3c6e69f8	0.014551632
164	0x3e03843b	0.1284341
165	0x3e2ccad3	0.16874246
166	0xbe375ae1	-0.17905761
167	0xbde52424	-0.11188534
168	0xbc8aa2ad	-0.016923273
169	0x3e1fac9c	0.15593189
170	0x3d3c056c	0.04590361
171	0x3d3125b1	0.043248836
172	0xbbc0a025	-0.0058784657
173	0xbd6466dc	-0.055762157
174	0x3e10ebbd	0.14152427
175	0xbd190bc4	-0.037364736
176	0xbda34d71	-0.07973755
177	0xbd81930f	-0.06326877
178	0xbe120e75	-0.14263327
179	0x3d50f587	0.051015403
180	0x3cf41373	0.02979443
181	0x3e03b10f	0.12860511
182	0xbca56f11	-0.020194562
183	0x3c8bc9cc	0.017063998
184	0xbe158b9f	-0.14604042
185	0x3d906fc7	0.0705257
186	0xbe143d1a	-0.14476433
187	0x3e386b3f	0.18009661
188	0x3e244273	0.16040973
189	0xbd9912b7	-0.07474273
190	0xbdb7f6c2	-0.08982612
191	0x3e0d849e	0.1382012
192	0xbd261023	-0.040542733
193	0xbe38eba8	-0.18058646
194	0x3e10093b	0.14066021
195	0x3e1996ca	0.14998928
196	0xbc5c88d1	-0.013460354
197	0x3e26ecf6	0.16301331
198	0xbd786094	-0.06063898
199	0x3de858d3	0.11345067
200	0xbe4bcf42	-0.19903281
201	0xbd1efb4a	-0.038813867
202	0x3e3a4163	0.18189006
203	0xbd71a82c	-0.05899827
204	0xbd78c12d	-0.0607311
205	0xbd78a7f8	-0.060707062
206	0x3d87ceef	0.06631266
207	0x3d784ca3	0.06061996
208	0xbe5059a7	-0.203467
209	0xbe09d536	-0.1346024
210	0xbcc0fe7e	-0.023558851
211	0x3daff083	0.08590796
212	0xbce18e62	-0.027533714
213	0x3e4d614f	0.20056652
214	0x3d9839be	0.074328884
215	0x3def3472	0.11679925
216	0xbcb7de71	-0.022444936
217	0x3e48594f	0.19565319
218	0x3d7332d7	0.059374657
219	0x3d9b7cdd	0.07592175
220	0xbba56e12	-0.005048522
221	0x3e35850f	0.17726539
222	0xbddfb7de	-0.10923742
223	0xbcd662fb	-0.026170244
224	0x3e0bc6bf	0.13650034
225	0xbddee665	-0.10883788
226	0xbdad889b	-0.08473321
227	0x3dfdbe8f	0.12389862
228	0x3e3ff106	0.18744287
229	0x3e051c3a	0.12999049
230	0xbdd7530d	-0.105138876
231	0xbe4b0aeb	-0.19828384
232	0xbde31be0	-0.11089301
233	0x3d7275b7	0.059194293
234	0xbe34450c	-0.17604464
235	0xbdc0d0c0	-0.09414816
236	0xbd23442d	-0.03985994
237	0x3e0e1ffd	0.1387939
238	0x3bfd9fb7	0.0077399868
239	0x3ce643fa	0.028108586
240	0xbd9c503f	-0.07632493
241	0xbe0422dd	-0.12903924
242	0xbda540b4	-0.08068982
243	0x3cbadba4	0.022809811
244	0xbe2793e7	-0.16365014
245	0xbd20b6c4	-0.0392368
246	0xbbf4770b	-0.00746048
247	0xbe132ebd	-0.14373298
248	0xbda6938d	-0.08133612
249	0x3baa41a6	0.005195814
250	0x3be89617	0.00709797
251	0x3c28911a	0.010288501
252	0x3e160aaa	0.14652506
253	0x3d0dde19	0.034635637
254	0x3cdfc1de	0.027314123
255	0xbc6bd87d	-0.014394877

encoders.0.lstm.weight_hh_l0 f4 [256, 64]
0	0xbb3ceb64	-0.0028826827
1	0x3dd78509	0.10523421
2	0xbd9c0a55	-0.07619158
3	0x3de3ca9f	0.11122631
4	0x3ccb4ec4	0.024817832
5	0x3c63d1df	0.013905018
6	0xbb6c07c5	-0.0036015373
7	0x3dd9e03b	0.10638472
8	0xbe1579bf	-0.14597224
9	0xbda32511	-0.07966054
10	0x3da9cda3	0.08291175
11	0x3dc3523f	0.095371716
12	0x3dbd1572	0.09232606
13	0x3d428adc	0.047495708
14	0xbd1f55fb	-0.038900357
15	0x3e001325	0.12507303
16	0x3c9b5654	0.018962063
17	0xbd0be4ef	-0.034153875
18	0xbc7c0b8f	-0.015383615
19	0xbdc77e9b	-0.09740945
20	0xbdc2771d	-0.09495375
21	0x3dc1fbfe	0.09471892
22	0xbd8be776	-0.06831257
23	0xbdeaa478	-0.11457151
24	0x3d8d2008	0.06890875
25	0xbd28f142	-0.041245706
26	0xbe11a7e5	-0.14224203
27	0xbde2b2b8	-0.11069244
28	0xbcfcf130	-0.030876726
29	0xbdcdbd3a	-0.10045858
30	0xbdba511c	-0.09097502
31	0x3cc29d10	0.023756534
32	0xbd163780	-0.036674023
33	0xbdca9b57	-0.0989291
34	0x3d633a14	0.05547531
35	0xbd42d000	-0.047561646
36	0x3cf9d31b	0.03049617
37	0xbdc79fee	-0.09747301
38	0xbde4ae09	-0.11166007
39	0xbda0a3b2	-0.078437224
40	0xbdddc5f8	-0.10828775
41	0x3dcd407f	0.10022067
42	0xbdc0a0fa	-0.09405704
43	0xbdd07535	-0.101786055
44	0x3de84365	0.113409795
45	0x3c7fee9f	0.015620857
46	0xbcdde311	-0.027085813
47	0x3dc9527c	0.09830186
48	0x3d40b430	0.04704684
49	0xbde50fbe	-0.11184643
50	0xbc8ed522	-0.017435614
51	0xbc7be1d8	-0.01537367
52	0xbdcea078	-0.10089201
53	0x3dc96906	0.09834485
54	0xbe2f4393	-0.17115621
55	0xbd6c516b	-0.057694834
56	0x3c98d8e5	0.01865811
57	0xbd332a37	-0.04374143
58	0x3df60c36	0.12014048
59	0xbcb72bd6	-0.02235977
60	0xbd6e5ddf	-0.05819499
61	0x3c65487b	0.0139943315
62	0x3d5fab92	0.05460698
63	0x3d9b8204	0.07593158
64	0x3dff85cc	0.124766916
65	0x3dffd006	0.12490849
66	0x3da42786	0.08015351
67	0x3e1e4ec3	0.15459733
68	0xbce41873	-0.02784369
69	0xbcf6525b	-0.030068567
70	0x3d8965aa	0.06708844
71	0x3d9e4787	0.077284865
72	0xbe21ed34	-0.15813142
73	0x3d6b07e0	0.057380557
74	0xbd93d7fc	-0.0721893
75	0x3e222340	0.1583376
76	0x3e0b9b5c	0.13633484
77	0x3dcd5adb	0.10027095
78	0x3dcb577f	0.09928798
79	0xbd8ecef7	-0.06973069
80	0xbd08430c	-0.033267066
81	0xbd204692	-0.0391298
82	0xbca523ee	-0.020158734
83	0xbc6ee0eb	-0.014579992
84	0x3c2c92ce	0.010533048
85	0xbdda0a9d	-0.106465556
86	0xbca1ca73	-0.019749856
87	0xbe4294d2	-0.19002083
88	0xbdf02207	-0.1172524
89	0x3d9d4302	0.07678796
90	0x3d90dbb8	0.07073158
91	0x3dd1129b	0.10208627
92	0xbd9c2062	-0.07623364
93	0xbda3471d	-0.07972548
94	0xbdfe8b11	-0.124288686
95	0x3c4cf827	0.012510336
96	0xbd303e62	-0.043028243
97	0xbce5dec8	-0.028060332
98	0xbbeaaf8d	-0.0071620406
99	0x3d957422	0.07297541
100	0xbd0152cc	-0.031573102
101	0xbd57ace4	-0.052655116
102	0x3dd13c20	0.10216546
103	0xbdfc99c4	-0.12334016
104	0x3c602f7a	0.013683194
105	0xbde1147e	-0.10990237
106	0xbd054b08	-0.03254226
107	0xbd0389ce	-0.032113843
108	0x3adfa3e3	0.0017062392
109	0xbd4e1907	-0.050316837
110	0xbd713bc5	-0.05889489
111	0xbda05633	-0.07828941
112	0xbcf4c5de	-0.029879507
113	0x3d47643f	0.048679586
114	0x3db9552f	0.090494506
115	0xbe1f9e75	-0.1558779
116	0xbc6d357a	-0.014478082
117	0x3c268857	0.010164342
118	0xbe0263db	-0.12733404
119	0x3e1d07c6	0.15334997
120	0xbdf9d983	-0.1219969
121	0xbdc6e278	-0.09711164
122	0x3dc803eb	0.09766372
123	0xbd467b42	-0.04845739
124	0x3e05b9d5	0.1305917
125	0xbdce9c24	-0.10088375
126	0xbda80fa4	-0.08206108
127	0x3d872847	0.06599479
128	0xbcda6c96	-0.026663106
129	0xbdbb2c8b	-0.09139355
130	0x3bd2235a	0.0064129056
131	0x3be54572	0.006996804
132	0xbcbe55dd	-0.023234302
133	0x3de627f6	0.11238091
134	0x3dfec8f6	0.12440674
135	0x3e1e860b	0.15480821
136	0xbdf67095	-0.12033192
137	0xbc41e3f9	-0.011834138
138	0x3dc7830d	0.09741793
139	0x3ccdf972	0.025143359
140	0xbcf3a3ef	-0.029741256
141	0x3dcbd307	0.0995236
142	0xbcdbfb18	-0.02685313
143	0x3d42645c	0.04745899
144	0xbd2884bf	-0.04114222
145	0xbb858077	-0.004074152
146	0xbc0b6474	-0.008507837
147	0xbd50818f	-0.050904807
148	0xbccae0ce	-0.024765398
149	0x3dbd26e3	0.09235933
150	0xbdf9fe90	-0.12206757
151	0xbe45923e	-0.19294068
152	0x3da144fe	0.07874487
153	0x3b55299f	0.0032526029
154	0xbbbd5449	-0.00577787
155	0xbd90d0a0	-0.07071042
156	0x3d4d86fb	0.050177556
157	0x3ce2603d	0.02763378
158	0x3c6cfc03	0.014464381
159	0x3c5b919f	0.013401418
160	0xbd1dcbe3	-0.03852452
161	0x3dba6efc	0.091032
162	0x3dd47c02	0.10375215
163	0xbcd53699	-0.02602701
164	0x3d19ef90	0.03758198
165	0xbe182e35	-0.14861377
166	0xbde0227c	-0.109440774
167	0x3caa3ca2	0.020780865
168	0xbd9336c7	-0.07188182
169	0xbbc811ff	-0.006105661
170	0x3e12321b	0.14276926
171	0xbdf2a4a7	-0.11847811
172	0xbab34b4f	-0.001367906
173	0x3d44cfe5	0.048049826
174	0xbbc3bf06	-0.0059736995
175	0xbd07f324	-0.03319086
176	0xbda3b821	-0.07994104
177	0xbe04bbce	-0.12962267
178	0xbd91964e	-0.071087465
179	0xbe1c552b	-0.15266864
180	0xbe028c85	-0.12748916
181	0x3d34eae4	0.04416932
182	0xbd47fa52	-0.04882271
183	0xbda2fdb9	-0.0795855
184	0xbd3aeb34	-0.045634463
185	0x3de9a83e	0.11409043
186	0x3dcf67cf	0.10127222
187	0x3d979ed5	0.07403342
188	0xbda58f00	-0.08083916
189	0xbd83b907	-0.064317755
190	0xbc5ea75e	-0.013589708
191	0xbde9aaf0	-0.11409557
192	0x3e15fe64	0.14647824
193	0x3d7098c4	0.05873944
194	0x3d5ec6e1	0.054388884
195	0x3c8159cd	0.01578989
196	0xbcdc9c26	-0.026929926
197	0xbd9f6b0a	-0.07784088
198	0xbd8e7721	-0.06956316
199	0x3d808f5a	0.06277342
200	0xbce107b2	-0.02746949
201	0xbd15d049	-0.03657559
202	0x3d6f9b1a	0.058497526
203	0x3e187ffa	0.14892569
204	0x3d467a3e	0.048456423
205	0x3c9117ab	0.017711481
206	0xbc7a0d89	-0.015262016
207	0x3d901854	0.0703589
208	0xbdb24d74	-0.08706179
209	0x3d3d3b7e	0.046199314
210	0x3de1f658	0.110333145
211	0x3dbc5fe4	0.09197977
212	0x3dbf0c3f	0.09328508
213	0x3d90020e	0.07031642
214	0x3db0c527	0.08631354
215	0xbc8062cb	-0.015672108
216	0x3d34f024	0.04417433
217	0x3d864968	0.0655697
218	0xbd62f7ff	-0.05541229
219	0x3dc3fadf	0.09569334
220	0x3dae6625	0.08515576
221	0xbc8b3bc4	-0.016996272
222	0xbe0ba81c	-0.13638347
223	0xbd385b76	-0.0450091
224	0xbd442acf	-0.047892388
225	0x3d0e838c	0.03479342
226	0x3dbc90d2	0.0920731
227	0x3d3146bb	0.043280344
228	0x3bfbc036	0.0076828254
229	0xbe09b5be	-0.13448235
230	0x3d3b4984	0.045724407
231	0x3d01b4f9	0.03166673
232	0xbd8c360a	-0.06846245
233	0x3dd9cfd5	0.10635344
234	0xbd104aa8	-0.035227448
235	0xbb090a87	-0.0020910816
236	0x3d1520a7	0.036408093
237	0x3d8cc0af	0.06872689
238	0xbd249d7a	-0.040189244
239	0xbcee27af	-0.029071657
240	0x3a84fd6f	0.001014633
241	0xbe390e9a	-0.18071976
242	0xbd88e750	-0.06684744
243	0xbde845e9	-0.11341459
244	0x3c9cfdca	0.019163985
245	0xbca985be	-0.020693656
246	0xbdb2e68c	-0.087353796
247	0x3c827fc8	0.015930071
248	0xbcb18a43	-0.021672374
249	0xbca3609f	-0.019943533
250	0x3d3e6900	0.046486855
251	0xbb6d4368	-0.0036203507
252	0xb8ab5204	-8.169192e-05
253	0xbcc186eb	-0.023623904
254	0xbdd2a1e9	-0.10284788
255	0xbdc1bdb7	-0.09460013

encoders.0.lstm.bias_ih_l0 f4 [256]
0	0xbbdfcceb	-0.006829848
1	0xbdadb421	-0.084816225
2	0xbdc079bb	-0.09398218
3	0xbded9c83	-0.11602118
4	0xbda58862	-0.080826536
5	0xbe0e1a80	-0.13877296
6	0xbe6360ed	-0.22204943
7	0x3d999b1b	0.07500287
8	0xbc3d467d	-0.01155245
9	0x3ba74a29	0.005105276
10	0xbd03f49d	-0.032215703
11	0xbdf07edd	-0.11742947
12	0x3d7bcca9	0.061474476
13	0x3dd1cfcb	0.102447115
14	0xbe4b3935	-0.19846042
15	0xbe0f81ce	-0.1401436
16	0xbcdd42f9	-0.027009474
17	0xbd118b84	-0.035533443
18	0xbd59cab9	-0.053171847
19	0xbd88184e	-0.06645261
20	0x3d94e25c	0.07269737
21	0xbe051906	-0.12997827
22	0xbd6bf84d	-0.057609845
23	0xbcb405bb	-0.021975389
24	0xbe2ee435	-0.17079242
25	0xb9b1e74e	-0.00033932406
26	0x3d8bbafd	0.068227746
27	0x3c9439c2	0.018093947
28	0xbd1524ac	-0.036411926
29	0xbdd026c8	-0.10163647
30	0x3cd898f1	0.026440116
31	0xbe3e19a5	-0.1856447
32	0xbce26119	-0.02763419
33	0xbe26e833	-0.16299514
34	0xbe0503b5	-0.12989695
35	0xbe559a2c	-0.20859593
36	0xbe1cd97e	-0.15317342
37	0xbd9004c0	-0.07032156
38	0xbddf8867	-0.109146886
39	0xbdb3788d	-0.087632276
40	0xbe441a33	-0.19150619
41	0xbe22967e	-0.1587772
42	0xbdac461f	-0.08411812
43	0x3da75877	0.0817117
44	0x39ba4449	0.0003552756
45	0xbe63e1b9	-0.22254075
46	0xbdc7fbaa	-0.09764798
47	0xbbc9aad3	-0.006154397
48	0xbdd29e7d	-0.102841355
49	0xbbd085f3	-0.0063636242
50	0xbcaa994a	-0.020825047
51	0xbd4188fe	-0.047249787
52	0x3c64d761	0.013967366
53	0xbe227760	-0.1586585
54	0x3dae0105	0.08496288
55	0xbd8e63f5	-0.06952659
56	0xbe01e004	-0.12683111
57	0xbe1f8c25	-0.15580805
58	0xbe2413ee	-0.16023228
59	0xbd589892	-0.052879877
60	0xbcea86ab	-0.028628668
61	0x3d4081d1	0.046998803
62	0xbd7120b3	-0.058869075
63	0x3d2741db	0.04083429
64	0xbdacf41b	-0.08444997
65	0xbdaf46e8	-0.08558446
66	0xbb1c1de7	-0.0023821534
67	0xbde89cef	-0.11358058
68	0xbb98905c	-0.004655881
69	0xbd9f23ba	-0.07770486
70	0xbdbe9f57	-0.093077354
71	0xbe052893	-0.13003759
72	0xbd5e2d04	-0.05424215
73	0x3c9488b3	0.01813159
74	0xbe05cbb6	-0.13065991
75	0xbdadcddf	-0.084865324
76	0xbc84e874	-0.016224124
77	0x3d9e8660	0.07740474
78	0xbd12a472	-0.03580136
79	0x3d61c7a4	0.055122033
80	0x3d9ed2f8	0.07755083
81	0xbe0b27a9	-0.13589348
82	0xbd94e646	-0.07270484
83	0xbc73590c	-0.014852773
84	0xba496451	-0.000768249
85	0x3d888a51	0.06667007
86	0x3d4079a8	0.04699102
87	0xbdcdd684	-0.10050681
88	0xbc1e0c02	-0.009646418
89	0xbe0ec9b8	-0.13944137
90	0x3c863b25	0.016385624
91	0xbde3fc96	-0.11132161
92	0xbe3071fa	-0.17230979
93	0x3da17fe2	0.0788572
94	0xbe348261	-0.1762786
95	0xbe07b813	-0.13253812
96	0x3d556133	0.05209465
97	0xbe27ca6e	-0.16385815
98	0x3d76a5a5	0.060216565
99	0xbe090e98	-0.13384473
100	0xbbd5a80b	-0.0065202764
101	0xbd03483e	-0.032051317
102	0xbe083361	-0.1330085
103	0xbdf435fd	-0.1192436
104	0xbdd4fe0b	-0.10400017
105	0x3c705b24	0.014670167
106	0x3cfe77b3	0.031062936
107	0xbc86a398	-0.01643543
108	0xbdcd4995	-0.100238
109	0xbdd823c0	-0.10553694
110	0xbdfcf8c1	-0.123521335
111	0x3c0781fc	0.008270737
112	0xbd542cdd	-0.051800597
113	0x3da5e589	0.08100421
114	0x3cd40e0d	0.025885606
115	0x3d583c6f	0.05279201
116	0xbde2e08c	-0.11077985
117	0xbd36f4a0	-0.044666886
118	0xbddb09c5	-0.10695223
119	0xbb40b132	-0.0029402492
120	0x3d46f796	0.04857596
121	0x3d2d6722	0.042334683
122	0xbd3cbfa8	-0.046081215
123	0xbe43a26e	-0.19104931
124	0xbe17a24a	-0.14808002
125	0xbd9cef1c	-0.07662794
126	0xbdbb1c1f	-0.09136223
127	0xbe012e4b	-0.12615316
128	0xbd1f3082	-0.03886462
129	0x3db138cf	0.086534135
130	0x3c5c3fc5	0.013442938
131	0x3d6a8a14	0.057260588
132	0x3d33a06a	0.043854155
133	0xbc9088a5	-0.017643282
134	0x3ddef44c	0.1088644
135	0xbd56f4fa	-0.05247972
136	0x3d10712e	0.035264187
137	0xbd625158	-0.055253357
138	0x3afc08c2	0.0019228684
139	0xbca01fb2	-0.019546364
140	0x3d2236f7	0.0396032
141	0xbd18dfd3	-0.03732283
142	0xbd8d963a	-0.06913419
143	0x3df84776	0.12123005
144	0xbd5ebdd1	-0.05438024
145	0xbd4ec040	-0.050476313
146	0x3d779590	0.06044537
147	0x3d432482	0.04764224
148	0x3ce192ed	0.02753588
149	0x3dedca99	0.11610908
150	0x3deda82b	0.11604341
151	0xbd4a007b	-0.049316864
152	0xbd9193c6	-0.07108264
153	0xbdcce8f5	-0.100053705
154	0xbbeb6b3d	-0.0071844147
155	0xbd8c35b7	-0.06846183
156	0x3dc3934f	0.09549581
157	0xbda187ea	-0.07887252
158	0x3dad8aa1	0.08473707
159	0xbd8f004e	-0.0698248
160	0xbd330c99	-0.043713186
161	0xbca3825a	-0.019959617
162	0xbdcc0b97	-0.09963148
163	0x3d3d9368	0.046283156
164	0x3b931978	0.00448912
165	0xbd4ab591	-0.04948956
166	0xbc9e1544	-0.01929725
167	0xbccfe6d7	-0.025378628
168	0xbd9c56f4	-0.076337725
169	0x3caa6dd8	0.02080433
170	0x3d9e4aed	0.07729135
171	0xbd9247b5	-0.07142583
172	0x3c822b6d	0.015889848
173	0x3cbb803c	0.022888295
174	0x3dc0a15f	0.09405779
175	0x3daada6e	0.083424434
176	0x3e0ceb07	0.13761531
177	0xbd68d5cb	-0.056844514
178	0x3d2e2256	0.042513214
179	0x3dcb626e	0.09930883
180	0xbd8b295d	-0.06794999
181	0xbde860a4	-0.11346558
182	0xbc142c3f	-0.009043752
183	0xbcee5b79	-0.029096352
184	0x3dc64cad	0.096825935
185	0x3db1c0e4	0.08679369
186	0xbd863e46	-0.065548465
187	0x3d6c5266	0.05769577
188	0x3dc5380a	0.09629829
189	0xbcbbee82	-0.022940878
190	0x3c78036c	0.015137535
191	0x3d160109	0.03662208
192	0x3cd3fcd8	0.025877401
193	0xbe016859	-0.12637462
194	0xbd74f662	-0.05980528
195	0xbe105a52	-0.14096954
196	0x3d693866	0.05693855
197	0xbe22b0e9	-0.15887798
198	0xbe1d66e2	-0.15371278
199	0x3cc173f5	0.023614863
200	0x3d88a77d	0.06672571
201	0xbdf9e5e3	-0.122020505
202	0xbe3f0aca	-0.1865646
203	0xbd8ba724	-0.06818989
204	0xbe38ed3a	-0.18059245
205	0x3bf825b7	0.0075728553
206	0xbe1fac5f	-0.15593098
207	0xbe416101	-0.1888466
208	0xbe3cfb26	-0.1845518
209	0x3ca5fe8e	0.020262983
210	0x3c33bfce	0.010971023
211	0xbdde98d0	-0.108689904
212	0xbcfe7acc	-0.031064413
213	0xbe430a53	-0.19046907
214	0xbe4ae52d	-0.19813986
215	0xbe0021eb	-0.12512939
216	0xbd685acd	-0.05672722
217	0xbd58eea4	-0.05296196
218	0x3cfbf5a1	0.030756773
219	0xbdd602e3	-0.10449769
220	0xbdeb8625	-0.115001954
221	0xbc7bdfe9	-0.015373209
222	0xbd92f5dc	-0.071758
223	0xbe0116ad	-0.12606306
224	0xbe1b5383	-0.15168576
225	0xbe163101	-0.14667131
226	0xbe60e6b0	-0.21963
227	0xbd9c1c3d	-0.076225735
228	0xbe2439e2	-0.16037706
229	0xbdf36168	-0.11883813
230	0xbc15ea8a	-0.009150157
231	0xbe0b84c5	-0.13624866
232	0xbe41bda3	-0.18919997
233	0xbbd4b8de	-0.0064917644
234	0xbe569378	-0.20954692
235	0x3d01eefc	0.031722054
236	0xbb12f3bf	-0.0022423116
237	0xbdfb7d64	-0.12279776
238	0xbcd7efd9	-0.026359485
239	0xbe25d6e5	-0.16195257
240	0xbdc76305	-0.09735683
241	0xbd05f0aa	-0.03270022
242	0xbc2843bc	-0.010270055
243	0x3d99f40d	0.07517252
244	0xbdc55add	-0.096364714
245	0xbe03e774	-0.12881261
246	0xbde55977	-0.11198705
247	0xbe1009f2	-0.14066294
248	0xbe324cfb	-0.17412178
249	0xbe1910c2	-0.14947799
250	0xbe2bf2ad	-0.16791792
251	0xbe3f5406	-0.18684396
252	0xbd8cc9cd	-0.06874428
253	0xbd726b71	-0.059184495
254	0xbdce8dcc	-0.10085639
255	0xbd794591	-0.06085736

encoders.0.lstm.bias_hh_l0 f4 [256]
0	0xbd8e0080	-0.06933689
1	0xbd746a16	-0.059671484
2	0x3d26a42e	0.040683918
3	0xbdad520a	-0.08462913
4	0xbda6cc8a	-0.081444815
5	0xbdccd8b4	-0.1000227
6	0xbe2d1b99	-0.16905059
7	0xbde2b5e4	-0.11069849
8	0x3de13d38	0.10998005
9	0xbcaebd62	-0.02133054
10	0xbe1a3d22	-0.15062383
11	0xbdbada6d	-0.09123693
12	0x3cbcc625	0.023043701
13	0xbc1c88ae	-0.009554071
14	0xbe489942	-0.19589713
15	0xbe577dee	-0.21044132
16	0xbe1ceab0	-0.15323901
17	0xbdefbdd0	-0.11706126
18	0x3d1930ff	0.037400242
19	0xbd104743	-0.03522421
20	0x3d884d44	0.06655362
21	0xbca7161d	-0.020396287
22	0xbe5ad356	-0.21369681
23	0xbc5273c2	-0.012844982
24	0xbd35505b	-0.044266086
25	0xbddf56cf	-0.10905229
26	0xbd95ea98	-0.07320136
27	0xbe30a6f7	-0.17251192
28	0xbd72594d	-0.059167195
29	0xbde31d07	-0.11089521
30	0xbb36f0bd	-0.0027914487
31	0xbb3905e4	-0.002823227
32	0xbda09312	-0.078405514
33	0xbd9007d7	-0.07032745
34	0xbdf940e4	-0.1217058
35	0xbd438dda	-0.047742702
36	0xbc884cb8	-0.016638145
37	0xbdcf724a	-0.10129221
38	0xbe189dbf	-0.14903925
39	0xbd13d15f	-0.036088344
40	0xbe095974	-0.1341303
41	0xbc922aee	-0.017842736
42	0xbe177cf2	-0.14793757
43	0xbcf65853	-0.030071413
44	0x3d1ebe29	0.03875557
45	0xbd9ae49a	-0.075631335
46	0xbe2b4743	-0.16726403
47	0xbe6d1588	-0.23152745
48	0x3d60eccb	0.054913323
49	0xbe037fed	-0.12841769
50	0xbd92398b	-0.07139882
51	0x3cee6ac2	0.02910364
52	0x3d95846b	0.07300647
53	0xbe105867	-0.14096223
54	0xbd9f189a	-0.07768364
55	0xbcea0e0c	-0.028571151
56	0xbd6b19d6	-0.057397686
57	0xbe3470e8	-0.17621195
58	0xbdd72d37	-0.10506671
59	0xbc96e706	-0.018420707
60	0xbdcfd3c8	-0.10147816
61	0xbda033e2	-0.07822396
62	0xbd027732	-0.031851955
63	0xbdc8e0d3	-0.09808507
64	0xbcd9d3a5	-0.026590178
65	0xbe1772aa	-0.14789835
66	0xbb86d0cf	-0.0041142474
67	0x3bb3a2b7	0.0054820436
68	0x3d833df3	0.064083
69	0x3b95f886	0.0045767454
70	0xbde90701	-0.11378289
71	0xbe03f465	-0.12886198
72	0xbe155f4d	-0.14587136
73	0xbda223f5	-0.079170145
74	0xbe02dc0f	-0.12779258
75	0x3dcd5283	0.100255035
76	0x3d1da0c7	0.038483407
77	0x3d5282d9	0.051394317
78	0x3d7ec3e0	0.06219852
79	0x3d322d5d	0.043500293
80	0xbcba9eb5	-0.022780756
81	0xbd7942a9	-0.060854588
82	0x3de1ece0	0.110315084
83	0x3c98163d	0.018565292
84	0x3db27303	0.08713343
85	0xbd86bc5b	-0.06578895
86	0xbe02f920	-0.12790346
87	0xbcfe5249	-0.031045096
88	0xbc413112	-0.011791484
89	0xbc20a52a	-0.009805003
90	0x3c91e480	0.017809153
91	0x3d5d8a27	0.05408683
92	0xbdb19b77	-0.08672231
93	0xbe256018	-0.16149938
94	0x3d529e6e	0.05142062
95	0xbe16140a	-0.14656082
96	0xbdeaefa9	-0.11471493
97	0xbe0bc92f	-0.13650964
98	0xbda2892a	-0.07936318
99	0xbdc9012b	-0.09814676
100	0x3c43f9c2	0.011961402
101	0x3d6ba553	0.057530712
102	0x3dc7894d	0.09742985
103	0x3da01459	0.07816381
104	0xbdd0c966	-0.10194664
105	0x3d97ee91	0.0741855
106	0xbde0a971	-0.109698184
107	0x3d218a3e	0.03943848
108	0x3be6046e	0.007019571
109	0x3cc92473	0.024553513
110	0x3d34e3de	0.044162624
111	0xbd25a6e8	-0.040442377
112	0xbda470b2	-0.080293074
113	0x3d998e35	0.07497827
114	0xbdb7ed10	-0.08980763
115	0xbd3fe0a7	-0.046845105
116	0xbdae4469	-0.08509142
117	0xbdcf6f14	-0.10128608
118	0x3d8547f9	0.06507868
119	0xbd3956c6	-0.04524877
120	0xbdfa8d71	-0.12234009
121	0x3c4fb5c4	0.012677614
122	0xbdbafc56	-0.091301605
123	0x3d5178f5	0.051140744
124	0xbe067747	-0.13131438
125	0xbdaf4f40	-0.085600376
126	0xbe1c8b68	-0.15287554
127	0xbdcc80f5	-0.09985534
128	0xbc5e7f46	-0.013580149
129	0x3d32df12	0.043669768
130	0x3dad4937	0.0846123
131	0x3cebb57e	0.028773066
132	0xbd2e5e8a	-0.04257063
133	0xbdacaa2c	-0.08430895
134	0xbc397a47	-0.011320657
135	0xbcd75a60	-0.026288211
136	0x3ce8bc96	0.028410237
137	0x3cf9f340	0.030511498
138	0x3dbbd7f3	0.091720484
139	0x3b75df04	0.003751696
140	0xbd6c9847	-0.05776241
141	0x3d2078ab	0.039177578
142	0x3df079f8	0.11742014
143	0x3b0a0d61	0.0021065103
144	0xbba91f86	-0.0051612286
145	0xbda5fd51	-0.08104957
146	0x3dae13d2	0.08499874
147	0xbd68fc92	-0.056881495
148	0xbda447e7	-0.08021527
149	0x3d4ccc85	0.049999733
150	0x3dc239a7	0.094836526
151	0x3c9c17b7	0.019054277
152	0xbcd13497	-0.025537772
153	0x3d2c84c9	0.04211882
154	0xbd895aa0	-0.067067385
155	0xbd5d899a	-0.054086305
156	0x3d9d172d	0.07670436
157	0xbd17f4c7	-0.037098672
158	0x3dadd2ff	0.0848751
159	0x3d9d0646	0.07667212
160	0x3c24d644	0.0100608505
161	0x3da3eaa4	0.080037385
162	0x3dc016a7	0.093793206
163	0xbd2f78fc	-0.04283999
164	0xbd925909	-0.07145888
165	0x3de9361e	0.11387275
166	0x3d520a2a	0.051279224
167	0xbdac8fad	-0.084258415
168	0x3c6720b6	0.01410692
169	0x3d3391de	0.04384028
170	0xbd68fc8e	-0.05688148
171	0x39375de5	0.00017487218
172	0x3c19a6cf	0.009378149
173	0x3c9ce410	0.019151717
174	0xbda27a15	-0.079334415
175	0xbe039e3c	-0.1285333
176	0xbdc7e48f	-0.09760391
177	0x3db4a784	0.088210136
178	0x3c7ecd4f	0.015551879
179	0xbddc1ee0	-0.107480764
180	0xbd6533c5	-0.055957574
181	0x3dced458	0.10099095
182	0xbd758666	-0.059942625
183	0xbdef70ec	-0.1169146
184	0xbd164b73	-0.036693048
185	0x3dc4ac84	0.09603217
186	0x3de2fa80	0.11082935
187	0x3da7ab5e	0.081869826
188	0x3dc8a640	0.09797335
189	0xbcece67b	-0.028918495
190	0xbcd47d6d	-0.025938714
191	0x3c3e09e5	0.011599039
192	0xbd1754d9	-0.03694615
193	0xbe6fbf08	-0.23412716
194	0xbd14d026	-0.03633132
195	0xbe1b29f0	-0.15152717
196	0xbc339f0f	-0.0109632155
197	0xbe6a115c	-0.22858185
198	0xbd97d81b	-0.07414266
199	0x3d269b8b	0.04067568
200	0x3dd42c17	0.10359972
201	0xbd0a8067	-0.03381386
202	0xbd7bc27e	-0.06146478
203	0xbded2e40	-0.11581087
204	0x3cb8d2fa	0.022561539
205	0x3d54f6d4	0.051993206
206	0xbda81efc	-0.08209035
207	0xbe672008	-0.22570813
208	0xbbe451df	-0.0069677676
209	0x3ce3bdff	0.027800558
210	0x3cceb91e	0.025234755
211	0xbb06aea0	-0.0020550862
212	0xbe030f40	-0.12798786
213	0xbda3c3c1	-0.079963215
214	0xbc135043	-0.008991304
215	0x3d7d4c09	0.06184009
216	0xbd8e5e8e	-0.069516286
217	0xbde1b131	-0.11020125
218	0xbde6b327	-0.11264639
219	0xbdad10fc	-0.08450505
220	0xbe1e7b5a	-0.15476742
221	0xbdc74a4e	-0.09730969
222	0x3c88cd90	0.016699582
223	0xbe517795	-0.20455773
224	0xbdd0f3c1	-0.10202742
225	0x3c930220	0.01794535
226	0xbd49d3a4	-0.0492741
227	0xbd6341e0	-0.055482745
228	0xbe45544a	-0.19270435
229	0x3d09414c	0.033509538
230	0x3c75716a	0.014980653
231	0xbd510b49	-0.051036153
232	0xbd88769a	-0.066632465
233	0xbdf2dbde	-0.118583426
234	0xbe663247	-0.22480117
235	0x3d04af72	0.03239388
236	0xbdb07c44	-0.08617452
237	0xbcdebf6f	-0.027190892
238	0xbd315868	-0.0432972
239	0xbdc1b13b	-0.09457632
240	0xbdd9243b	-0.106026135
241	0x3cd08aa7	0.02545674
242	0xbe1523fd	-0.1456451
243	0x3d39f781	0.045402054
244	0xbc21813b	-0.009857471
245	0x3ba84bcb	0.0051359884
246	0x3d795c05	0.060878772
247	0xbe187bdd	-0.14891
248	0xbd6f56d2	-0.058432408
249	0x3c317dd0	0.010833219
250	0xbe09add6	-0.1344522
251	0xbe185cd5	-0.14879163
252	0xbe010c89	-0.12602438
253	0xbd38c318	-0.04510793
254	0xbbe29e44	-0.0069158394
255	0xbdb84bc5	-0.08998827

encoders.0.fc_mean.weight f4 [16, 64]
0	0x3dc679fa	0.09691234
1	0xbd28e05f	-0.041229602
2	0xb8576c5c	-5.1360912e-05
3	0x3dcdba1a	0.10045262
4	0xbbe64873	-0.0070276796
5	0x3cd8f43c	0.026483648
6	0xbc7082d8	-0.014679633
7	0x3d83c181	0.06433392
8	0xbd9637cf	-0.073348634
9	0x3b85db7f	0.004085004
10	0x3c0dcdf7	0.008655063
11	0x3d94de6c	0.07268986
12	0xbbad8699	-0.0052955863
13	0xbdbdd3af	-0.09268891
14	0xbd34dd46	-0.044156335
15	0x3d2685e2	0.040655024
16	0x3ab02b82	0.0013440701
17	0x3dea2249	0.114323206
18	0x3d8d9a5a	0.06914206
19	0x3c310170	0.010803565
20	0xbb39b072	-0.002833393
21	0x3b66be46	0.0035208627
22	0xbcc272cd	-0.023736382
23	0xbd8e2cd9	-0.06942148
24	0x3d457769	0.04820958
25	0xbd6ca27d	-0.05777215
26	0xbdd5889c	-0.10426447
27	0xbc8c27e9	-0.017108874
28	0xbd8dc08a	-0.069214895
29	0x3ac619ef	0.001511393
30	0x3d8527fb	0.06501766
31	0xbcde08a2	-0.027103726
32	0xbbca6752	-0.0061768675
33	0xbcbf4bff	-0.023351667
34	0xbc79293c	-0.015207585
35	0xbd68241d	-0.056675065
36	0x3d8e6cea	0.069543675
37	0x3d87f6d7	0.06638878
38	0x3b4fbc50	0.0031697936
39	0xbb9761da	-0.004619819
40	0xbdacd163	-0.08438375
41	0x3d3d948f	0.046284255
42	0x3db7b600	0.089702606
43	0xbd2538b9	-0.040337298
44	0xbc4078cb	-0.011747549
45	0xbd40722c	-0.046983883
46	0xbd0ad119	-0.033890817
47	0xbd6b00d3	-0.057373833
48	0xba2ac53e	-0.0006514377
49	0xbdaaa4f6	-0.08332245
50	0xbdb7d6b2	-0.08976497
51	0xbe0d6aa0	-0.13810205
52	0xbc79402a	-0.015213052
53	0xbd302013	-0.04299934
54	0xbd9f4e9d	-0.07778666
55	0xbd737ec7	-0.059447076
56	0xbdba14f1	-0.090860255
57	0xbc205d28	-0.009787835
58	0xbcdaf81e	-0.02672964
59	0x3c6b93b4	0.014378477
60	0xbcd70f54	-0.026252426
61	0xbc1706e3	-0.0092179505
62	0x3cd2383d	0.025661582
63	0x3b45db11	0.0030190388
64	0x3d8d0094	0.06884876
65	0xbcda7b5a	-0.026670147
66	0x3db32536	0.08747332
67	0x3c5f38b2	0.013624357
68	0xbb7a0a33	-0.0038153052
69	0x3d2877d5	0.041129906
70	0xbd6504ce	-0.055912785
71	0x3d0cf0a7	0.03440919
72	0x3c9e7a0c	0.019345306
73	0xbb4fbd52	-0.0031698537
74	0xbc11b006	-0.008892065
75	0xbd73fc1a	-0.059566595
76	0xbd10c232	-0.03534145
77	0xbe087d28	-0.13328993
78	0x3db9ab62	0.09065892
79	0x3d088d12	0.03333766
80	0xbbf5f61f	-0.0075061466
81	0xbd574b5e	-0.05256211
82	0x3d89a895	0.067216076
83	0xbc9817ee	-0.018566098
84	0xbbbf4d68	-0.005838085
85	0xbd19075a	-0.037360527
86	0xbd3e990f	-0.046532687
87	0x3cf91134	0.03040371
88	0x3cafc301	0.02145529
89	0xbda4a8ac	-0.08039984
90	0x3d2fb161	0.04289377
91	0x3c948521	0.018129887
92	0xbd2ce7cf	-0.042213257
93	0x3a63666e	0.0008674626
94	0x3ccbf219	0.024895715
95	0xbda69582	-0.08133985
96	0x3d18a52c	0.037266895
97	0xbd89e27b	-0.06732651
98	0x3d8fc585	0.07020096
99	0xbd50f36e	-0.051013403
100	0x3cb33c4d	0.02187934
101	0xbd102497	-0.035191145
102	0x3a7a3073	0.00095439627
103	0xbd05e0e1	-0.032685164
104	0xbdee8280	-0.11645985
105	0xbd372308	-0.044711143
106	0xbc4a9afe	-0.012366055
107	0x3d44f726	0.04808726
108	0xbbc9f525	-0.0061632567
109	0xbd411b98	-0.047145456
110	0x3d72b024	0.059250012
111	0xbd061d44	-0.032742754
112	0x3c15092f	0.009096428
113	0x3c8d8e2d	0.017279709
114	0xbbb8aeaa	-0.005636056
115	0xbc9a9c7c	-0.018873446
116	0x3dfd4cca	0.12368162
117	0xbd9cc4e4	-0.076547414
118	0x3cbab4a7	0.02279122
119	0xbdc72094	-0.09723011
120	0x3da3f1b8	0.080050886
121	0x3da1d971	0.07902802
122	0x39d5184a	0.00040644623
123	0x3ce680ab	0.028137526
124	0xbdb8d9e8	-0.09025937
125	0xbb89e9a4	-0.0042087603
126	0x3d7a8b49	0.06116799
127	0x3c116a62	0.008875461
128	0x3d831fe6	0.064025685
129	0xbd714dbb	-0.05891202
130	0x3d7b7f23	0.061400544
131	0x3d3fcd7e	0.046826832
132	0xbaffbcf8	-0.0019511273
133	0xbca7dc7e	-0.020490881
134	0x3ca009cf	0.019535927
135	0x3dae14f0	0.08500087
136	0xbd423b89	-0.04742006
137	0x3b5177f2	0.0031962362
138	0x3b36b23a	0.0027877227
139	0x3c93d9a8	0.018048123
140	0xbd00f075	-0.031479318
141	0xbd066ae9	-0.0328168
142	0x3cfa65d5	0.030566135
143	0xbd95b53f	-0.073099606
144	0x3a005457	0.000489538
145	0xbcc63898	-0.024196908
146	0x3cb2cfcf	0.021827606
147	0x3d9e2c03	0.07723238
148	0xbad7977a	-0.0016448342
149	0x3d7c3139	0.06157038
150	0xbd9c65f9	-0.07636637
151	0xbd747791	-0.05968434
152	0x3d573427	0.05253997
153	0xbd370c60	-0.044689536
154	0xbd60158f	-0.05470806
155	0xbb2e12a2	-0.00265614
156	0xbdcf54de	-0.10123609
157	0xb896290a	-7.1602015e-05
158	0x3dd8ed10	0.10592091
159	0x3d0132aa	0.031542458
160	0xbdef2e90	-0.11678803
161	0xbc94003a	-0.018066514
162	0x3d6dc578	0.05804965
163	0x3db23d31	0.087030776
164	0xbda0863c	-0.07838103
165	0x3d51ce8e	0.051222377
166	0xbb5bea3b	-0.003355636
167	0x3d076f63	0.03306521
168	0xbd78508f	-0.0606237
169	0x3d6beb21	0.057597283
170	0xbc8a61c6	-0.016892325
171	0xbdd45362	-0.103674665
172	0xbcb16f8c	-0.021659635
173	0x3db3f443	0.087868236
174	0xbd8f6695	-0.07001988
175	0x3db50127	0.088381104
176	0x3ba39cb7	0.004993047
177	0x3d80212d	0.06256328
178	0x3ce78e3e	0.028266069
179	0x3de192d1	0.11014331
180	0xbda209df	-0.07912039
181	0x3d70996b	0.05874006
182	0x3cf63b20	0.03005749
183	0xbada099f	-0.0016634947
184	0x3d4bcc34	0.04975529
185	0x3d501131	0.050797645
186	0xbd3865d9	-0.045019004
187	0x3d5d000e	0.05395513
188	0x3cc30992	0.023808274
189	0xb8ffda48	-0.000122000056
190	0x3c96097c	0.01831507
191	0x3bc46cb5	0.005994404
192	0x3dc0611b	0.093935214
193	0x3d965559	0.073404975
194	0xbb178071	-0.0023117329
195	0x3d8b6728	0.06806785
196	0x3b28baaa	0.0025746026
197	0x3d9ba3c2	0.07599594
198	0xbdad6e28	-0.08468276
199	0x3d08bc01	0.03338242
200	0xbdc44337	-0.09583133
201	0x3c8b46cf	0.017001538
202	0x3b5abd1c	0.0033376878
203	0xbd77290a	-0.060341872
204	0x3c0cd040	0.008594573
205	0x3df5e055	0.120056786
206	0xbc8643f4	-0.016389824
207	0x3debce26	0.11513929
208	0x3b7a4c7f	0.0038192568
209	0x3d19e554	0.03757222
210	0xbd833481	-0.06406499
211	0x3d0b1766	0.03395786
212	0xbc2cdee6	-0.01055119
213	0xbd63f6ff	-0.055655476
214	0xbd35fb9b	-0.044429403
215	0xbdd91669	-0.105999775
216	0xbc4f9d1c	-0.012671735
217	0x3d7b3930	0.061333835
218	0x3cdc148f	0.026865272
219	0xbd24c4ab	-0.04022662
220	0xbdd6de3b	-0.10491606
221	0x3c20c768	0.009813167
222	0x3dc1ebd4	0.09468809
223	0xbde9e2c1	-0.11420203
224	0x3c48756c	0.012235027
225	0x3c9a56f7	0.018840296
226	0xbdb6303f	-0.08895921
227	0x3d61abea	0.05509559
228	0x3c25a29b	0.010109569
229	0xbca544ff	-0.020174501
230	0xbc8071f0	-0.01567933
231	0x3c231f48	0.0099561885
232	0xbcd875b7	-0.026423318
233	0xbdb78e88	-0.089627326
234	0xbd1e91e7	-0.038713362
235	0x3db72276	0.0894212
236	0xbc8171b7	-0.015801294
237	0xbd9a495f	-0.07533526
238	0x3b4b3f16	0.0031012944
239	0x3d203069	0.039108668
240	0xbb715364	-0.0036823386
241	0xbdd9352d	-0.106058456
242	0xbdba67b7	-0.09101813
243	0xbd927ed7	-0.07153099
244	0xbddfc252	-0.109257355
245	0xbd479dd4	-0.0487345
246	0x3d709856	0.05873903
247	0xbd8c27b5	-0.06843511
248	0x3d5ad8c7	0.05342939
249	0x3b6585f9	0.003502248
250	0xbdc7815b	-0.097414695
251	0xbd5d291e	-0.05399429
252	0xbaced4ab	-0.0015779933
253	0xbbfe4e06	-0.007760766
254	0x3d696ed4	0.05699046
255	0x3d05e58f	0.032689627

encoders.0.fc_mean.bias f4 [16]
0	0x3d7bab12	0.061442442
1	0xbd0e9751	-0.034812275
2	0xbb011a33	-0.0019699454
3	0x3d1baede	0.038008563
4	0xbd85db74	-0.06535998
5	0x3cb2c9f6	0.021824818
6	0xbce29f8d	-0.02766397
7	0xbc8dbc71	-0.01730177
8	0xbdaa6a98	-0.083211124
9	0xbcdc3ba9	-0.026883917
10	0x3da76a04	0.08174518
11	0x3d45622f	0.04818934
12	0x3ccb96b1	0.024852129
13	0xbc9e1fd4	-0.019302286
14	0xbd0b2c04	-0.033977523
15	0x3d1a458f	0.037663992

encoders.0.fc_logvar.weight f4 [16, 64]
0	0xbd707867	-0.058708575
1	0xbcaf2797	-0.021381183
2	0x3dc274fa	0.09494968
3	0xbd9c9ba2	-0.07646872
4	0x3ba1692a	0.0049258666
5	0xbd985ed2	-0.074399605
6	0xbdc1eb1e	-0.09468673
7	0xbccbb752	-0.024867687
8	0x3e0a83d4	0.13526851
9	0xbc04c7b8	-0.008104257
10	0xbabb18a5	-0.0014274312
11	0xbd9c4cf0	-0.07631862
12	0xbb73d106	-0.0037203445
13	0xbdf1921a	-0.11795445
14	0x3d61c689	0.05512098
15	0xbcb5b43e	-0.022180673
16	0xbc360ae8	-0.011110999
17	0xbde8b6e8	-0.113630116
18	0xbce2f4ba	-0.027704585
19	0x3c56f10b	0.013118993
20	0xbbd12ac7	-0.0063832733
21	0xbc949df2	-0.01814172
22	0xbd415647	-0.04720142
23	0x3dd3a7c8	0.10334736
24	0xbc3b0a5b	-0.011416043
25	0x3d1f0775	0.03882547
26	0xbb6ce9d3	-0.0036150112
27	0x3c0cad28	0.008586206
28	0xbd4a715a	-0.049424507
29	0x3b439f57	0.0029849613
30	0x3c5fa056	0.013649067
31	0x3d8aa5c1	0.06769896
32	0x3d0aaf38	0.033858508
33	0x3c5efa1b	0.0136094345
34	0x3d510efc	0.05103968
35	0x3d40da74	0.047083333
36	0x3ca80cca	0.02051391
37	0xbd92681d	-0.07148764
38	0x3a231cb4	0.00062222336
39	0x3cf8ae7c	0.030356638
40	0x3bdfffbe	0.0068359068
41	0x3c93acd7	0.018026752
42	0xbd02e77f	-0.031959053
43	0x3db38352	0.08765282
44	0xbbd82185	-0.0065957927
45	0xbc42f1b1	-0.011898444
46	0x3c86b42d	0.016443336
47	0xbd82bfbd	-0.063842274
48	0x3c2732a9	0.010204949
49	0xbcac6146	-0.021042477
50	0x3b9dc040	0.0048141778
51	0x3d9b1457	0.07572239
52	0x3dac881b	0.084243976
53	0x3c4345b2	0.011918472
54	0x3dec070e	0.11524783
55	0xbda7b14b	-0.08188113
56	0xbcfb14da	-0.030649591
57	0x3d6d072f	0.05786818
58	0xbd316d9b	-0.04331742
59	0xbc366c7e	-0.011134265
60	0xbbce106b	-0.0062885783
61	0xba3f5131	-0.000729817
62	0xba51694a	-0.00079884066
63	0x3b92fcbc	0.0044856947
64	0x3bf291a6	0.0074026166
65	0xbbee4244	-0.007271083
66	0xbd79fd97	-0.061032858
67	0x3d714581	0.058904175
68	0x3ae14d91	0.0017189254
69	0xbc07357c	-0.008252498
70	0xbd550ecd	-0.05201607
71	0x3d0cefef	0.034408506
72	0x3db4c5ab	0.08826765
73	0xbc158c09	-0.009127625
74	0xbbcae53d	-0.006191878
75	0xbddcbca8	-0.10778171
76	0x3bc73a7d	0.0060799704
77	0x3d01d2cf	0.031695183
78	0x3c9402d2	0.018067751
79	0x3db521a3	0.08844306
80	0xbc1c9fd6	-0.009559592
81	0xbc5ade94	-0.013358731
82	0xbb0460fb	-0.0020199406
83	0xbd0c2b20	-0.034220815
84	0xbafc6f82	-0.0019259306
85	0xbba2173c	-0.0049466174
86	0xbdb1c7e0	-0.08680701
87	0xbd4d0ca6	-0.05006089
88	0xba2c92ba	-0.0006583143
89	0xbd6f4d20	-0.05842316
90	0xbc1770df	-0.009243219
91	0x3ad103a4	0.001594652
92	0x3d72c005	0.059265155
93	0xbaee8111	-0.0018196424
94	0xbd9d3dfd	-0.07677839
95	0xbc66292f	-0.014047905
96	0x3d6c2fe1	0.05766285
97	0xbd3aaf1d	-0.045577157
98	0x3ca8fbb9	0.020627843
99	0x3bc964e2	0.0061460594
100	0x3d96b517	0.07358759
101	0x3bdf7465	0.006819295
102	0xba08d41e	-0.0005219596
103	0xbb95ce87	-0.004571739
104	0xbd85d836	-0.065353796
105	0xbc677681	-0.014127375
106	0x3b190f77	0.0023355165
107	0xbde055a2	-0.10953833
108	0xbbf0093b	-0.007325319
109	0xbd2692e6	-0.040667437
110	0xbd098ca2	-0.033581384
111	0xbc3c5612	-0.01149513
112	0x3a6af8d0	0.00089634676
113	0x3bd938e2	0.0066290954
114	0x3c141bd4	0.009039838
115	0xbb5f93b2	-0.0034115133
116	0x3dc3eb68	0.095663846
117	0xbd0a19ce	-0.033716016
118	0x3d9918f2	0.07475461
119	0x3dcc15bc	0.09965083
120	0xbd4492c3	-0.047991525
121	0x3b30a576	0.002695409
122	0xbdb30c67	-0.087426
123	0xbd8d68bb	-0.069047414
124	0xbc3e083c	-0.011598643
125	0x3b7c0ffa	0.0038461671
126	0xbbe86961	-0.0070926403
127	0x3925fc56	0.00015829629
128	0xbdeb4300	-0.114873886
129	0xbd9077f8	-0.07054132
130	0xbd2ab5cd	-0.041677285
131	0xbdc535d4	-0.096294075
132	0xbb930f98	-0.004487943
133	0x3d02375f	0.031791087
134	0x3dbfba71	0.09361733
135	0x3d836f2b	0.06417688
136	0xbd7352dd	-0.059405196
137	0xbc09116a	-0.008365968
138	0xba23db0d	-0.00062505977
139	0xbd8cd062	-0.06875683
140	0xbc46ec2a	-0.012141267
141	0xbdfcc726	-0.12342672
142	0x3c2d3f5e	0.01057419
143	0xbda640e8	-0.08117849
144	0xbb8eb90d	-0.004355556
145	0xbd4c857b	-0.049931984
146	0x3d8ce082	0.06878759
147	0xbd679047	-0.056534078
148	0xbbcdbbe0	-0.0062785
149	0x3be7c267	0.007072735
150	0x3bfa43fc	0.007637499
151	0x3dc803f2	0.097663775
152	0xbd85c145	-0.06531004
153	0xbd99103e	-0.07473801
154	0x3cdbd1ad	0.02683338
155	0x3c54ddc7	0.012992329
156	0xbdbac105	-0.09118847
157	0x3ab77b25	0.0013998492
158	0x3dd9767e	0.10618304
159	0xbd9e2fa9	-0.07723934
160	0x3a372d5a	0.0006987654
161	0x3dac06e1	0.083997495
162	0xbd9f4fe3	-0.07778909
163	0xbd606d6e	-0.05479186
164	0x3d73f1b9	0.059556697
165	0xbd21fc3e	-0.039547198
166	0xbb1fbff2	-0.0024375883
167	0x3c398fdb	0.011325802
168	0x3dae0b45	0.08498243
169	0x3c9f8ff4	0.019477822
170	0x3d0dd4e5	0.03462686
171	0xbda59f48	-0.08087021
172	0x3d12cec3	0.035841715
173	0xbc46fc22	-0.012145074
174	0x3d1f1f40	0.03884816
175	0xbd87c294	-0.0662891
176	0x3c51a95f	0.012796729
177	0x3d019bc4	0.03164269
178	0x3d236640	0.039892435
179	0x3dad7df3	0.084712885
180	0xbcfb8500	-0.030703068
181	0xbd46c2ec	-0.048525736
182	0x3ddc9f11	0.10772527
183	0x3dafa927	0.08577185
184	0xbd88a435	-0.06671945
185	0xbd0a559b	-0.033773046
186	0x3c4e0f28	0.012576856
187	0x3cdedbbb	0.027204385
188	0x3cb259c7	0.021771325
189	0x3b7c0111	0.0038452784
190	0x3d13762f	0.03600138
191	0x3b1bacd3	0.0023754134
192	0x3d9370b2	0.07199229
193	0x3d0f7d43	0.03503157
194	0xbdb872dc	-0.09006283
195	0x3c15a43c	0.009133395
196	0xb992fa44	-0.00028033752
197	0xbd337782	-0.043815143
198	0x3dafbe98	0.08581275
199	0x3d31ae54	0.043379143
200	0xbd978e27	-0.0740016
201	0xbb8040a8	-0.0039139576
202	0xb9efcb22	-0.00045736978
203	0xbd26db8f	-0.04073673
204	0x3b88614c	0.0041619893
205	0xbdac7900	-0.084215164
206	0xbcfab77d	-0.030605072
207	0xbdbf2cb2	-0.09334697
208	0x3b41f0bb	0.002959295
209	0x3b18a6b2	0.0023292718
210	0xbc572414	-0.01313116
211	0x3c1252b1	0.008930848
212	0xbacfe2d3	-0.0015860446
213	0xba09530d	-0.0005238511
214	0xbd9aa154	-0.07550302
215	0xbd5c5832	-0.053795047
216	0xbc250501	-0.010071994
217	0x3d6f27da	0.058387615
218	0x3d8ac467	0.06775742
219	0x38b1c7a8	8.4772066e-05
220	0xbdaee72e	-0.08540188
221	0xbb5fa3e6	-0.003412479
222	0x3d9d99a3	0.076953195
223	0xbd922ea0	-0.07137799
224	0xbda0d313	-0.07852759
225	0x3d807797	0.0627281
226	0xbc4b1614	-0.012395401
227	0xbd275b17	-0.040858354
228	0xbcb95d2b	-0.022627434
229	0x3dc96a82	0.09834768
230	0xbb75c5f9	-0.0037502034
231	0x3d2a5d52	0.041592903
232	0xbd3d1036	-0.046158038
233	0x3d57916f	0.05262893
234	0x3cbd8350	0.023133904
235	0xbd095b1f	-0.033534165
236	0x3c1e6f54	0.009670097
237	0xbc528f4a	-0.012851546
238	0x3b816be0	0.0039496273
239	0x3d89904c	0.067169756
240	0x3c165850	0.009176329
241	0x3dbc050a	0.091806486
242	0x3c63434d	0.013871026
243	0x3d4c9b3b	0.049952727
244	0xbcabe98a	-0.020985384
245	0xbd435582	-0.04768897
246	0x3d9bdd2f	0.07610547
247	0x3dd1ffb8	0.102538526
248	0xbdb3ebd9	-0.08785219
249	0xbcd440de	-0.025909837
250	0xbc4c14d5	-0.012456139
251	0x3d743559	0.05962119
252	0xbc88acdf	-0.016683994
253	0x3ad840ef	0.0016498844
254	0xbbcb2c26	-0.0062003313
255	0xba2fda32	-0.0006708234

encoders.0.fc_logvar.bias f4 [16]
0	0xbdba2b58	-0.090902984
1	0xbcd2e4d3	-0.025743878
2	0xbcc014be	-0.02344739
3	0xbcb81bdb	-0.02247422
4	0xbd953d13	-0.072870396
5	0xbd2608d4	-0.040535763
6	0xbd86e6e5	-0.065870084
7	0xbda8ee71	-0.08248604
8	0x3d727cc9	0.059201036
9	0xbd48d126	-0.049027584
10	0x3b48969b	0.0030607346
11	0x3cea8864	0.02862949
12	0x3cef9bab	0.029249033
13	0xbd099981	-0.03359366
14	0xbd364eaa	-0.044508614
15	0xbd46116c	-0.04835646

encoders.1.embedding.weight f4 [64, 1]
0	0x3da1d076	0.07901089
1	0xbebd1c39	-0.36935595
2	0x3ed3a9fe	0.4134063
3	0xbdd36d71	-0.10323609
4	0xbe39fa63	-0.18161921
5	0x3eda10c6	0.42590922
6	0xbcf390ad	-0.029732073
7	0x3dcb7fb3	0.09936466
8	0xbe3e69b4	-0.1859501
9	0x3cb56a63	0.022145456
10	0x3dc22889	0.09480388
11	0x3d98e062	0.074646726
12	0xbd1908b1	-0.037361804
13	0xbe485533	-0.19563751
14	0xbe12a2a1	-0.1431985
15	0xbd792375	-0.06082483
16	0xba1d3ee8	-0.00059984485
17	0xbe721e53	-0.2364438
18	0x3e7279b8	0.23679245
19	0xbce0cd42	-0.027441625
20	0xbee0a567	-0.43876192
21	0x3e9ce11e	0.306405
22	0xbf2a77d5	-0.665891
23	0x3e8ff98e	0.28120083
24	0x3e9251c4	0.28578007
25	0x3e3ae86d	0.18252726
26	0x3ed4aa78	0.41536307
27	0x3dbf445b	0.0933921
28	0xba2a39c9	-0.0006493596
29	0x3a9f6890	0.0012161899
30	0xbf049ec2	-0.51804745
31	0x3ec14fd0	0.37756205
32	0x3d57a5e6	0.052648447
33	0xbcbc06d7	-0.02295248
34	0xbde0fed8	-0.109861076
35	0xbd38b386	-0.045093082
36	0xbe7ec1e9	-0.24878658
37	0x3c932170	0.01796028
38	0x3d03e68b	0.032202285
39	0x3dbd16c7	0.0923286
40	0x3e931aea	0.2873147
41	0xbef5ba41	-0.47993663
42	0xbec1289d	-0.37726298
43	0x3eb69b47	0.35665342
44	0xbe9758bf	-0.29559895
45	0xbab2477c	-0.0013601626
46	0xbe9165c9	-0.28397968
47	0x3dc2bb9b	0.09508439
48	0xbcccd4de	-0.025003847
49	0xbf24acae	-0.6432599
50	0xbee2321a	-0.4417885
51	0xbf170f9a	-0.5900818
52	0x3e2c5287	0.16828357
53	0x3ceacd95	0.028662482
54	0x3de850a4	0.11343506
55	0x3e8125a4	0.2522403
56	0x3dc0e97b	0.09419533
57	0x3d18a43a	0.037265994
58	0xbe6e9c1b	-0.23301737
59	0xbd07c4ff	-0.033146854
60	0x3f0ce1b5	0.550319
61	0x3e5dd099	0.21661605
62	0xbf37b01f	-0.71753114
63	0xbaeb4d9b	-0.0017952205

encoders.1.embedding.bias f4 [64]
0	0x3ebf69b4	0.37385333
1	0xbf2f81d8	-0.685575
2	0xbfa4043b	-1.2813791
3	0xbee9cb5b	-0.4566296
4	0x3ed094f6	0.40738648
5	0x3d03e8cc	0.032204434
6	0x3f3dff1d	0.74217397
7	0xbf64dbc6	-0.8939785
8	0xbe8d7a7f	-0.2763252
9	0xbf095631	-0.5364714
10	0x3f399290	0.7248926
11	0x3f87ab83	1.0599216
12	0x3f6d524a	0.9270369
13	0x3f7e62e0	0.9936962
14	0x3f9d8975	1.2307574
15	0x3f2b1cc0	0.66840744
16	0x3cd9224a	0.026505608
17	0x3f76044e	0.9610032
18	0xbf22b76b	-0.63561124
19	0x3e0d452b	0.13795917
20	0x3f621353	0.88310736
21	0x3e08c35a	0.1335577
22	0x3fab7f2c	1.3398185
23	0xbe239bf3	-0.15977459
24	0x3ea4e9fd	0.3220977
25	0x3e3a9d29	0.18224014
26	0x3dbbeca2	0.091759935
27	0xbf541c0e	-0.8285531
28	0x3da78ee7	0.08181553
29	0x3e4d84bb	0.20070164
30	0x3e931613	0.2872778
31	0x3dd784e0	0.10523391
32	0xbf2b4e76	-0.66916597
33	0x3f205863	0.6263487
34	0x3f2cbe5f	0.67477983
35	0xbf97d47e	-1.1861722
36	0x3f4a654f	0.79060835
37	0xbefd046f	-0.49417445
38	0xbe095002	-0.13409427
39	0xbf682e34	-0.906955
40	0xbed8dbd7	-0.42355224
41	0xbeba1521	-0.36344245
42	0xbf40a83d	-0.7525671
43	0xbfa0d1a0	-1.2563972
44	0xbf337119	-0.7009445
45	0xbf66024e	-0.89847267
46	0x3efe2f10	0.4964528
47	0x3f46f9b0	0.7772474
48	0xbf2b9a9b	-0.67032784
49	0x3ec4c4c6	0.38431376
50	0x3fa41e58	1.282176
51	0xbf5246c9	-0.8213926
52	0xbbb64781	-0.005562723
53	0xbf3eae1e	-0.7448443
54	0xbfa1a272	-1.2627699
55	0xbf9325fd	-1.1495968
56	0xbf6f392f	-0.9344663
57	0xbf0df604	-0.55453515
58	0xbe2de2fd	-0.1698112
59	0x3f16b273	0.5886604
60	0xbf6b5628	-0.9192834
61	0xbf3ab5b3	-0.729335
62	0x3fa389ec	1.2776465
63	0x3ccc822d	0.024964416
