src/neuralstars/benchmarks/lstm_vae_model.pth (torch, 480916 bytes, 21 tensors)

encoder_lstm.weight_ih_l0 f4 [256, 1]
0	0x3d2920c3	0.04129101
1	0xbcd76ff0	-0.026298493
2	0x3dd58dae	0.10427414
3	0xbd504574	-0.050847486
4	0x3dc0256d	0.093821384
5	0x3d9410f4	0.07229796
6	0x3c59b000	0.013286591
7	0xbdb7af2c	-0.08968958
8	0xbdea7031	-0.1144718
9	0xbdbbe321	-0.09174181
10	0xbd906404	-0.070503265
11	0xbdcebc13	-0.10094466
12	0x3d922541	0.07136012
13	0xbd915d4c	-0.07097873
14	0xbdd6f0f5	-0.10495178
15	0xbc12631e	-0.008934764
16	0x3d833e81	0.06408406
17	0xbcaf104c	-0.021370076
18	0xbdb62c3c	-0.08895156
19	0x3d9a02eb	0.07520088
20	0xbc30af17	-0.010783932
21	0x3c0cd4fc	0.008595701
22	0xbdc1ab97	-0.09456556
23	0x3d5e29bd	0.054239023
24	0xbd0c8ed6	-0.034315906
25	0xbd976fee	-0.07394396
26	0x3d8cd854	0.06877199
27	0xbd6d2b6c	-0.05790274
28	0x3d5097c3	0.05092598
29	0x3e0098be	0.12558267
30	0x3d8913f4	0.06693259
31	0xbd14ed0c	-0.036358878
32	0xbe029bfa	-0.12754813
33	0x3ca5f9f9	0.020260798
34	0xbdabe7bd	-0.0839381
35	0xbdbc0d34	-0.09182206
36	0x3dd96515	0.10614983
37	0x3d01297b	0.0315337
38	0xbdb0ed2f	-0.08638989
39	0xbdd29f9c	-0.10284349
40	0xbd2da1d4	-0.04239066
41	0xbddb4c32	-0.107078925
42	0xbe04b07c	-0.12957948
43	0x3d3e39e0	0.046441913
44	0xbdc36b5f	-0.09541964
45	0x3dc4ba73	0.09605875
46	0x3c732ef3	0.014842737
47	0xbdfd3dc7	-0.12365299
48	0xbde5b6e8	-0.11216527
49	0xbd04424c	-0.032289788
50	0x3b99cc58	0.004693549
51	0x3cd87bed	0.02642628
52	0xbdc21f78	-0.094786584
53	0xbdd36a84	-0.103230506
54	0x3be2d8ee	0.0069228327
55	0xbdad3548	-0.08457428
56	0x3e07e89b	0.13272326
57	0xbc0938aa	-0.008375326
58	0xbd56a23d	-0.052400816
59	0x3c3de34b	0.011589835
60	0x3d30a792	0.043128558
61	0x3dc12fda	0.09432955
62	0xbdbfff56	-0.09374873
63	0x3cb81085	0.022468815
64	0x3c635434	0.013875056
65	0x3d723d5e	0.059140556
66	0xbd915222	-0.07095744
67	0xbd2234e8	-0.039601237
68	0x3c941435	0.018076042
69	0x3ca3245a	0.019914795
70	0x3dba567a	0.09098525
71	0xbdf2bc6d	-0.118523456
72	0x3dc7e26b	0.09759983
73	0xbd090dbc	-0.033460364
74	0x3d5777c9	0.05260447
75	0xbccec1d1	-0.025238903
76	0x3bc64210	0.0060503557
77	0x3dd02316	0.10162942
78	0xbd4943eb	-0.049137037
79	0x3cb01789	0.021495597
80	0x3d9a75b2	0.0754198
81	0x3add3212	0.0016875884
82	0xbdc6b4d8	-0.09702462
83	0xbbcce0db	-0.006252391
84	0xbcdac547	-0.026705397
85	0xbdd46cd7	-0.10372322
86	0x3d83edd0	0.064418435
87	0x3d52cdce	0.051465802
88	0xbcd7b52e	-0.02633151
89	0xbd843dc1	-0.06457091
90	0xbcdcc8bb	-0.026951184
91	0x3d42921e	0.04750263
92	0xbdc2eb3c	-0.09517524
93	0x3da0a8c1	0.07844687
94	0x3d8e1ebe	0.06939457
95	0x3d59b0bb	0.05314706
96	0xbd0a47cf	-0.03375989
97	0x3d0b88d6	0.034066044
98	0xbccd78fd	-0.025082106
99	0xbc8e45dd	-0.017367298
100	0x3da207f0	0.0791167
101	0xbcda2a11	-0.026631387
102	0xbdcef6d6	-0.10105674
103	0x3d044b41	0.03229833
104	0xbdf5e407	-0.120063834
105	0x3d831b21	0.06401659
106	0x3dcc94c8	0.09989315
107	0x3de3a132	0.1111473
108	0xbd748e69	-0.059706125
109	0x3dae1398	0.08499831
110	0x3d94067b	0.072277986
111	0x3dd543e9	0.104133435
112	0xbd9c58fa	-0.076341584
113	0x3db5be24	0.08874157
114	0x39db2c3c	0.00041803892
115	0xbd83b50d	-0.06431017
116	0xbd1e35e3	-0.03862561
117	0x3dc62591	0.09675134
118	0xbd825d38	-0.06365436
119	0x3da8a0f9	0.08233828
120	0xbcc669fc	-0.02422046
121	0xbd93fdba	-0.07226129
122	0x3dc34a69	0.09535677
123	0x3de299f9	0.11064524
124	0x3da31774	0.07963458
125	0xbd11cd52	-0.0355962
126	0xbe068456	-0.1313642
127	0xbdb806ba	-0.08985658
128	0x3b533957	0.0032230222
129	0x3df71335	0.1206421
130	0x3de877e4	0.11350992
131	0x3cc008b3	0.023441648
132	0xbdefacbd	-0.11702869
133	0xbdffe385	-0.12494568
134	0xbcff8997	-0.031193538
135	0x3ca30aa1	0.01990253
136	0x3dd08bbc	0.10182902
137	0xbdefd2c4	-0.11710122
138	0x3db181a2	0.086673036
139	0x3cd57626	0.026057314
140	0xbd8aafe0	-0.06771827
141	0x3c97d344	0.018533356
142	0xbcda02d2	-0.026612673
143	0xbd63b740	-0.055594683
144	0x3c9d06d3	0.019168293
145	0xbdc4217f	-0.095767014
146	0x3d205cdf	0.03915107
147	0x3db2d2fa	0.08731647
148	0x3d4e354e	0.050343804
149	0x3dd14b75	0.102194704
150	0xbda591a0	-0.080844164
151	0x3d51b0b1	0.051193897
152	0xbd1b3a97	-0.037897673
153	0xbd56c241	-0.05243135
154	0xbcaf5e0b	-0.021407148
155	0x3db87f55	0.09008662
156	0x3bfab0a9	0.007650454
157	0xbc8a1d44	-0.016859658
158	0xbc107c42	-0.008818688
159	0x3c721343	0.0147751
160	0x3d68db4b	0.05684976
161	0xbdfb3764	-0.12266424
162	0xbd63b3b7	-0.05559131
163	0xbc9e9746	-0.019359242
164	0x3da6d5bd	0.08146236
165	0xbc06590e	-0.008199943
166	0xbd83c4d8	-0.06434029
167	0xbd18a257	-0.037264194
168	0xbd4fca42	-0.050729997
169	0x3dffeba5	0.124961175
170	0x3d5ec7e4	0.05438985
171	0xbd6c31f9	-0.057664845
172	0x3db9c6bb	0.09071108
173	0xbc28ae19	-0.010295414
174	0x3b853926	0.0040656505
175	0x3d93bd83	0.07213881
176	0x3da2435c	0.07923004
177	0xbc1af8b3	-0.009458709
178	0xbd333f29	-0.043761406
179	0x3dbc3b00	0.09190941
180	0xbcccfd9b	-0.025023272
181	0xbe0cfaed	-0.13767596
182	0xbd23e9d5	-0.04001792
183	0xbdd6a980	-0.10481548
184	0x3d1754a8	0.03694597
185	0xbd928fbb	-0.07156321
186	0x3cbf1663	0.023326105
187	0xbc988c97	-0.018621726
188	0xbca33ed7	-0.019927425
189	0xbda53b5c	-0.080679625
190	0xbcba0c41	-0.022710921
191	0xbcb6248f	-0.02223423
192	0x3c98330f	0.018579034
193	0xbdabdaba	-0.08391328
194	0x3da2659a	0.07929535
195	0x3c84e0e6	0.016220521
196	0x3b4e65b2	0.003149372
197	0x3dc7de00	0.0975914
198	0x3d29a8fa	0.041420914
199	0x3abc2bca	0.0014356312
200	0x3cf48b33	0.029851532
201	0xbd9e9c53	-0.0774466
202	0xbdf1ddda	-0.11809893
203	0xbd0e423d	-0.03473114
204	0x3d0ecce1	0.034863357
205	0x3d3292cf	0.04359704
206	0xbc4af435	-0.012387325
207	0xbdb424e6	-0.087961
208	0xbd61c7ad	-0.055122066
209	0xbd99b72d	-0.07505641
210	0x3dbb9451	0.091591485
211	0xbd5a1e41	-0.05325151
212	0xbbe486e8	-0.00697409
213	0x3d9f4f0b	0.07778748
214	0x3d8fbcfa	0.07018466
215	0xbce813c5	-0.02832974
216	0x3c3752e9	0.011189201
217	0x3c8dc0cf	0.017303852
218	0x3dcdd6fd	0.100507714
219	0x3d5e9f54	0.054351166
220	0xbd8d3d58	-0.06896466
221	0xbd5d98c7	-0.054100778
222	0xbdc346ea	-0.0953501
223	0x3cb8421e	0.022492465
224	0x3d9ae2d6	0.07562797
225	0xbde6fd10	-0.112787366
226	0xbd3a4384	-0.045474544
227	0xbd2b89e7	-0.04187956
228	0x3d5cc991	0.053903166
229	0xbdf9f516	-0.122049496
230	0x3c3bc4ef	0.011460527
231	0xbe2595ce	-0.16170427
232	0x3d20cd26	0.039258145
233	0x3dcd5858	0.10026616
234	0xbd4fccf1	-0.050732557
235	0xbdc1c821	-0.09462
236	0x3d67e108	0.05661109
237	0xbd0aa1fb	-0.033845883
238	0x3d210449	0.039310727
239	0xbd64af7b	-0.055831414
240	0xbc3afe08	-0.011413105
241	0xbd87df23	-0.06634357
242	0x3d6698a5	0.056297917
243	0x3df82863	0.12117078
244	0xbdffcd3e	-0.12490319
245	0xbc8a270f	-0.016864328
246	0xbd9577ba	-0.07298227
247	0x3c2d1cf8	0.010565989
248	0xbd46a7ea	-0.04849998
249	0xbcaadd5a	-0.020857502
250	0xbdc8e250	-0.09808791
251	0xbddec2d7	-0.108770065
252	0x3c447518	0.011990808
253	0x3d571c53	0.052517246
254	0xbdbc3763	-0.09190252
255	0x3b7f5dfb	0.0038965929

encoder_lstm.weight_hh_l0 f4 [256, 64]
0	0x3d1c4b0b	0.038157504
1	0xbd2cb581	-0.042165283
2	0x3d770b7c	0.060313687
3	0xbd4033e1	-0.046924476
4	0xbe07abed	-0.13249178
5	0x3d8d2a59	0.06892843
6	0x3dcb9a1a	0.09941502
7	0x3d0c5660	0.03426206
8	0xbdb86f90	-0.09005654
9	0xbd6dd21a	-0.058061697
10	0x3b73f13c	0.0037222644
11	0x3d1efa53	0.038812947
12	0xbd4745f6	-0.048650704
13	0x3de09c06	0.10967259
14	0xbc2d37a2	-0.010572346
15	0xbc0e700e	-0.008693708
16	0x3ca5d4c0	0.020243049
17	0x3c1e911d	0.009678152
18	0xbd40d442	-0.047077425
19	0x3ddfa1c3	0.109195255
20	0x3cd4e446	0.025987756
21	0xbda910e7	-0.08255177
22	0x3d550a34	0.052011684
23	0xbd03d08c	-0.032181308
24	0xbc58227b	-0.013191815
25	0x3da8472a	0.082166985
26	0xbe037b45	-0.12839992
27	0x3db8beb9	0.090207525
28	0xbd1ad0e1	-0.03779686
29	0xbc36fc42	-0.011168541
30	0xbc88a2bc	-0.01667916
31	0xbd07baaf	-0.03313702
32	0xbddb16ee	-0.10697733
33	0xbdb4d68a	-0.088299826
34	0x3d08fdde	0.03344523
35	0xbc697875	-0.014249911
36	0xbdd349b7	-0.10316794
37	0xbcae923e	-0.021309968
38	0xbd96ff3b	-0.073729
39	0xbdad8c2c	-0.08474001
40	0xbdf99256	-0.121861145
41	0xbd442523	-0.04788698
42	0xbe0a9379	-0.13532819
43	0xbb54f190	-0.0032492615
44	0x3c3b3e6f	0.01142846
45	0xbd90f345	-0.0707765
46	0x3dec8394	0.11548534
47	0xbd0ed77e	-0.034873478
48	0xbe093aef	-0.13401388
49	0xbddee0a7	-0.10882693
50	0xbc4150e8	-0.011799075
51	0x3da5ec17	0.08101671
52	0xbdabec93	-0.08394732
53	0xbdcd0018	-0.100097835
54	0x3c1c5b19	0.009543204
55	0x3dc7d9ef	0.097583644
56	0x3c2c9fca	0.010536144
57	0xbe09be66	-0.13451537
58	0x3c46456d	0.012101513
59	0xbd13d362	-0.036090262
60	0x3dfe06a5	0.12403611
61	0x3d04ba5b	0.032404285
62	0x3dbe69db	0.09297534
63	0x3e0d1278	0.13776577
64	0x3ddb882c	0.10719332
65	0x3d89fadd	0.067373015
66	0xbd42340f	-0.04741293
67	0xba35c23d	-0.0006933546
68	0x3d9a26a0	0.075268984
69	0x3d531fc0	0.05154395
70	0x3d3d9403	0.046283733
71	0xbd391ed5	-0.04519542
72	0x3dfd9fa2	0.12383963
73	0x3dc71031	0.09719885
74	0xbdf1c6b8	-0.11805481
75	0x3c905c4f	0.017622141
76	0xbcf2e81c	-0.029651694
77	0xbdf216bb	-0.11820742
78	0x3d672bc7	0.056438234
79	0x3c1004f9	0.008790248
80	0xbd846829	-0.064651795
81	0x3d2fb8f1	0.042900983
82	0x3db41a18	0.087940395
83	0x3d7c94db	0.061665397
84	0x3d93274f	0.07185232
85	0x3db28f56	0.087187454
86	0xbbb0f604	-0.005400421
87	0x3c57e674	0.013177503
88	0x3bfc8ccb	0.0077072135
89	0x3df87c4a	0.12133081
90	0x3d5a264e	0.053259186
91	0xbdb3b1a5	-0.087741174
92	0x3db2fce6	0.08739643
93	0x3ddbdecc	0.107358545
94	0xbdde9de6	-0.108699605
95	0xbc25bb8b	-0.0101155145
96	0x3d46088d	0.048348
97	0x3e0c7f64	0.1372047
98	0xbc925bd7	-0.017866058
99	0x3df7e5ed	0.12104402
100	0xbd81d229	-0.06338913
101	0xb9457182	-0.00018829669
102	0x3db10442	0.0864339
103	0xbdce054c	-0.10059604
104	0xbe01365a	-0.1261839
105	0x3c6f97a3	0.014623555
106	0x3d92b568	0.07163507
107	0xbc1f2ef3	-0.009715783
108	0xbd818b88	-0.063254416
109	0xbd11a6ac	-0.03555934
110	0xbd55fec1	-0.052244905
111	0x3d7ec26c	0.062197134
112	0x3d8bc007	0.06823736
113	0xbd9fdd6d	-0.078059055
114	0x3dcf22da	0.10114069
115	0x3c812d22	0.015768591
116	0xbcb3b002	-0.021934513
117	0xbc869b39	-0.016431438
118	0xbdc9a650	-0.09846175
119	0xbdcde18e	-0.10052787
120	0xbb5af669	-0.0033411032
121	0xbdfc812e	-0.123293266
122	0x3ccc18a0	0.024914086
123	0xbd613c1c	-0.054988965
124	0xbdc76cb6	-0.09737532
125	0xbda677ef	-0.08128344
126	0xbcb03df2	-0.021513913
127	0xbc4005d1	-0.011720137
128	0xbd1143b5	-0.03546496
129	0x3df1c0c5	0.11804346
130	0x3e063666	0.13106689
131	0x3d01c397	0.03168067
132	0xbd8dedb8	-0.06930107
133	0x3d865e4d	0.06560955
134	0x3cd521e4	0.026017137
135	0x3d567d12	0.05236537
136	0xbdd5e5b3	-0.10444202
137	0xbd46afdd	-0.04850756
138	0xbd48d6f3	-0.049033117
139	0x3da0daad	0.07854209
140	0x3dbe556b	0.09293636
141	0xbd5b0797	-0.053474035
142	0x3db28c0d	0.08718119
143	0x3de41ac8	0.111379206
144	0xbd939057	-0.07205265
145	0xbd615bcd	-0.05501919
146	0x3df91111	0.12161458
147	0x3e093d16	0.13402209
148	0xbd2780e4	-0.040894404
149	0xbdc28a81	-0.09499074
150	0x3c8dec89	0.017324703
151	0x3dde1f9b	0.10845872
152	0x3dae0f03	0.08498957
153	0x3e06efa5	0.13177355
154	0x3dd6695f	0.10469317
155	0x3cbd61b8	0.023117885
156	0x3d75cec6	0.060011648
157	0xbd814813	-0.06312575
158	0x3de64c81	0.11245061
159	0x3dc6b753	0.09702935
160	0xbd1aec29	-0.037822876
161	0xbb7214a3	-0.003693857
162	0xbd992db7	-0.074794225
163	0x3e038331	0.12843014
164	0x3cce8a91	0.025212558
165	0x3d9b2562	0.075754896
166	0xbcb5ee6e	-0.022208419
167	0xbd059431	-0.03261203
168	0xbdd7fefe	-0.10546683
169	0xbd8cc4aa	-0.06873448
170	0x3d271652	0.04079277
171	0x3cacb659	0.021083044
172	0x3e05cdad	0.1306674
173	0xbdd09bfa	-0.10186
174	0x3df6ffcd	0.12060509
175	0x3dc42aba	0.09578462
176	0xbe047c6e	-0.12938091
177	0x3d679b90	0.05654484
178	0xbcfea866	-0.031086158
179	0x3ddfe6d1	0.109326966
180	0x3cfcc446	0.03085531
181	0xbbaab7f3	-0.0052099167
182	0x3cbfd6aa	0.02341779
183	0x3dd46061	0.10369945
184	0xbddf3e4d	-0.10900555
185	0xbdd9a9cb	-0.106280886
186	0x3c750913	0.014955777
187	0xbc85b389	-0.01632096
188	0x3d4875ce	0.048940472
189	0x3da21d9b	0.07915803
190	0x3da27fd0	0.079345345
191	0x3db5c801	0.08876038
192	0xbc4841b0	-0.012222692
193	0xbd4cb7c4	-0.04997994
194	0x3e06af31	0.13152768
195	0xbd1878a3	-0.037224423
196	0xbd9c39db	-0.076282226
197	0x3d1fa69a	0.038977243
198	0x3dcf11b0	0.101107955
199	0xbda981a8	-0.08276683
200	0xbd535617	-0.051595774
201	0xbddecd7a	-0.10879035
202	0xbcd4c344	-0.025972016
203	0xbd8afad7	-0.06786125
204	0x3cd16c04	0.025564201
205	0x3d825334	0.06363526
206	0xbd8fd1d6	-0.07022445
207	0xbd00fca1	-0.031490926
208	0xbda2d8bd	-0.07951496
209	0x3de0438a	0.10950382
210	0x3d99e78f	0.075148694
211	0x3e0a89f7	0.13529192
212	0xbdeec025	-0.116577424
213	0x3cddd0df	0.027077137
214	0x3dfb167d	0.12260149
215	0xbdaa8005	-0.08325199
216	0xbd170849	-0.036873136
217	0x3dbd62c5	0.092473544
218	0xbd168ec3	-0.036757242
219	0xbdc24126	-0.09485082
220	0x3cc12fbd	0.023582334
221	0xbd59a6fd	-0.053137768
222	0x3d32bcc3	0.04363705
223	0x3c235796	0.009969613
224	0xbcc8e30d	-0.024522329
225	0x3e10e771	0.14150788
226	0x3ddfd6ac	0.10929617
227	0xbdb79fe0	-0.089660406
228	0x3d940134	0.07226792
229	0x3d3a3e80	0.04546976
230	0xbd31c179	-0.0433974
231	0xbcc9252a	-0.024553854
232	0xbe0ca3c1	-0.13734342
233	0x3dbb403d	0.09143112
234	0x3dbfaba8	0.09358913
235	0x3d9a170e	0.075239286
236	0x3dc4a50f	0.09601795
237	0x3de0da53	0.10979142
238	0xbc0ba767	-0.008523799
239	0x3dcdd1da	0.10049792
240	0xbd318976	-0.043343984
241	0xbc4ec7e3	-0.012620899
242	0xbe065543	-0.13118462
243	0x3e154c57	0.14579903
244	0x3db1032e	0.086431846
245	0xbdb886fa	-0.0901012
246	0xbd98cbe6	-0.074607655
247	0x3d284b48	0.04108742
248	0x3e189997	0.1490234
249	0xbd861a1d	-0.065479495
250	0xbd15d0bc	-0.036576018
251	0xbd1fef67	-0.03904667
252	0x3d7a9c79	0.06118438
253	0x3e01a807	0.12661754
254	0x3d4f2b79	0.050578568
255	0xbdae8082	-0.08520605

encoder_lstm.bias_ih_l0 f4 [256]
0	0xbd851d12	-0.06499685
1	0xbc9742e4	-0.018464513
2	0x3b7d25bb	0.0038627225
3	0xbd426d8e	-0.04746776
4	0xbd319b73	-0.04336114
5	0xbcc254f5	-0.023722151
6	0x3dcd37b9	0.10020394
7	0x3d902b32	0.07039489
8	0xbb9a5af4	-0.0047105495
9	0xbda25dc5	-0.07928041
10	0x3d6f3cd4	0.05840762
11	0x3c5d9519	0.013524317
12	0xbdc82b94	-0.09773937
13	0x3d831e67	0.06402283
14	0x3dc695a3	0.0969651
15	0xbdb9a084	-0.09063819
16	0xbe054cc6	-0.13017568
17	0xbcbd1f48	-0.023086205
18	0xbbfba3f6	-0.007679458
19	0xbd941a3c	-0.07231566
20	0x3d9f02fa	0.077642396
21	0x3dd5dbc0	0.104423046
22	0x3d823543	0.06357815
23	0x3d6ece54	0.05830224
24	0xbd0bd2ea	-0.03413669
25	0x3d4b6e6f	0.049665865
26	0x3dc62018	0.0967409
27	0xbde4c1bb	-0.11169764
28	0xbd0e58c9	-0.03475264
29	0xbddc1dd9	-0.107478805
30	0xbd2b6d74	-0.04185243
31	0x3cdb47ef	0.026767699
32	0x3c3b9fe5	0.011451696
33	0x3d90f8cd	0.07078705
34	0x3d2369ed	0.03989594
35	0xbbf0ada4	-0.0073449183
36	0x3c041582	0.0080617685
37	0xbe09700d	-0.1342165
38	0xbb3ee05f	-0.0029125435
39	0xbdcd5b73	-0.10027208
40	0x3cc03331	0.02346191
41	0xbdcb21b6	-0.09918539
42	0x3d09849e	0.03357374
43	0x3d94b988	0.0726195
44	0x3c1b1b2f	0.00946693
45	0xbbca6a6d	-0.0061772377
46	0x3d380881	0.044929985
47	0xbde20a77	-0.11037152
48	0x3d58c128	0.052918583
49	0x3d26ac4b	0.040691655
50	0xbcb49462	-0.02204341
51	0xbda2125e	-0.079136595
52	0xbd5a1859	-0.053245876
53	0x3d113637	0.035452094
54	0xbda238d5	-0.07920996
55	0x3ddca2e4	0.107732564
56	0x3dd5f0c9	0.10446317
57	0xbd50c281	-0.050966743
58	0x3da569b1	0.080768
59	0x3db5d2db	0.08878108
60	0xbe170bd6	-0.14750609
61	0x3db21124	0.086946756
62	0xbc6a15b9	-0.014287406
63	0x3d9342b4	0.07190457
64	0x3da09457	0.078407936
65	0x3dd9eea7	0.106412224
66	0x3d068554	0.032841995
67	0x3bb693c4	0.0055718143
68	0xbb538ffb	-0.0032281864
69	0x3d107d7a	0.035275914
70	0x3d11e757	0.035621013
71	0x3dee7ff9	0.116455026
72	0xbd814528	-0.06312019
73	0xbd19e46d	-0.03757136
74	0xbdeea1f4	-0.11651984
75	0xbda68162	-0.081301466
76	0xbd5a5c03	-0.053310405
77	0xbd20fec3	-0.03930546
78	0x3dbb46f2	0.09144391
79	0x3d80fb76	0.06297962
80	0x3dd299b4	0.10283223
81	0xbbcf45ce	-0.00632546
82	0xbde96f9d	-0.11398242
83	0xbd6d4759	-0.05792937
84	0x3d85f640	0.06541109
85	0xbc78f15a	-0.015194261
86	0x3b3af8c0	0.0028529614
87	0xbcfdb3b9	-0.030969488
88	0x3c5418c7	0.0129453605
89	0x3dc4258e	0.095774755
90	0x3d7221f7	0.059114423
91	0x3dc56c10	0.09639752
92	0xba8a4e12	-0.0010551831
93	0xbdecb80b	-0.11558541
94	0xbbe45e6d	-0.0069692642
95	0xbcaa3b0a	-0.020780105
96	0xbdf538a1	-0.11973692
97	0x3d3aefee	0.04563897
98	0xbb98443e	-0.004646807
99	0x3ce324d8	0.02772753
100	0xbdff7c19	-0.124748416
101	0xbcb16d2b	-0.0216585
102	0xbde2553a	-0.11051412
103	0xbd262f01	-0.04057217
104	0xbd02b644	-0.031912103
105	0xbc018f07	-0.0079076355
106	0x3ca11d76	0.019667368
107	0xbdfcee01	-0.12350083
108	0xbdbaa8b6	-0.0911421
109	0x3d311c30	0.043239772
110	0x3c8fd2bc	0.01755654
111	0xbde3ec7a	-0.11129089
112	0x3d6f8367	0.058474924
113	0xbd522694	-0.051306322
114	0x3dd92675	0.10603038
115	0x3c991795	0.018688003
116	0x3db248ff	0.08705329
117	0xbe1b18a6	-0.15146121
118	0x3d97e788	0.07417208
119	0xbda5f801	-0.081039436
120	0xbd15919e	-0.036515824
121	0xbca6c0d4	-0.02035562
122	0xbdf9cdda	-0.12197466
123	0x3cb188c6	0.021671664
124	0xbc0eca9b	-0.008715297
125	0xbd7cc79e	-0.061713807
126	0x3de8728a	0.113499716
127	0xbd69a9fa	-0.057046868
128	0x3dc1a6e8	0.09455663
129	0xbd8cf661	-0.068829305
130	0x3c9b80cd	0.018982315
131	0x39cbad65	0.00038848366
132	0xbdd65f0d	-0.10467348
133	0xbd9c658d	-0.07636557
134	0xbd2d5d61	-0.04232538
135	0xbd4bc652	-0.04974968
136	0xbd746d28	-0.059674412
137	0x3d4c8a98	0.04993686
138	0x3dab448c	0.08362684
139	0xbd0a475c	-0.03375946
140	0x3d56b6ba	0.052420355
141	0x3deba3fb	0.11505886
142	0xbdebdf96	-0.11517255
143	0x3d0b7a52	0.0340522
144	0xbda8c159	-0.08240003
145	0xbdd3339e	-0.103125796
146	0x3d4b559e	0.049642198
147	0xbcff9b8c	-0.0312021
148	0x3dbfbf3c	0.09362647
149	0x3d8d3e67	0.06896668
150	0xbc8ce567	-0.017199231
151	0xbd81a4d2	-0.06330265
152	0xbd34da64	-0.044153586
153	0xbdbcea40	-0.09224367
154	0x3d3a0f25	0.0454246
155	0xbcacbc77	-0.02108596
156	0x3d2d660a	0.04233364
157	0xbdbe8109	-0.09301955
158	0xbce3ff0e	-0.02783158
159	0xbcacb92a	-0.021084387
160	0x3ddfc284	0.10925773
161	0xbdfc65d8	-0.12324113
162	0xbc1d77e6	-0.009611106
163	0xbd704b43	-0.058665525
164	0xbd867e80	-0.06567097
165	0x3dff599d	0.12468264
166	0xbcacb3e6	-0.021081876
167	0xbdbdb258	-0.09262532
168	0x3db5c2eb	0.08875068
169	0x3dae6441	0.08515216
170	0x3cde58ed	0.027142012
171	0xbc6cb037	-0.01444631
172	0xbd8ec92a	-0.06971963
173	0x3cc7358d	0.024317527
174	0xbcfa68cf	-0.030567555
175	0x3d402d50	0.046918213
176	0x3d3cf9cc	0.046136662
177	0x3dd534ff	0.10410499
178	0x3da11fa7	0.07867365
179	0xbccff595	-0.025385657
180	0xbc8e6c0f	-0.01738551
181	0xbd97dcb1	-0.074151404
182	0x3d316498	0.043308824
183	0xbc4b945d	-0.012425509
184	0xbd82e966	-0.063921735
185	0x3d367c46	0.04455211
186	0xbbeacce0	-0.0071655363
187	0x3cd8c5dc	0.026461534
188	0xbdbbb1f6	-0.09164803
189	0xbd2dcc0b	-0.04243092
190	0x3ce57f91	0.02801493
191	0xbdd537d1	-0.10411037
192	0x3dc98ea6	0.09841661
193	0xbdd5a203	-0.10431292
194	0xbdfff4c9	-0.12497861
195	0xbb1ea0b2	-0.0024204669
196	0xbcd9fd0f	-0.026609926
197	0xbd2a7dc1	-0.041623835
198	0x3d16b94c	0.036797807
199	0xbd7875dc	-0.060659274
200	0xbda51233	-0.08060112
201	0xbdf333fe	-0.11875151
202	0xbd224df1	-0.039625112
203	0x3cbf800e	0.02337649
204	0x3c945444	0.018106587
205	0x3d892319	0.066961475
206	0x3cbcbb2c	0.02303847
207	0x3cef271a	0.02919345
208	0x3d9f99ca	0.07793005
209	0xbc93f710	-0.018062145
210	0xbd86af9a	-0.06576462
211	0xbdb8ae20	-0.09017587
212	0x3d74b83a	0.059746005
213	0x3cd349af	0.025791971
214	0x3dedca65	0.11610869
215	0xbd08c72e	-0.033393078
216	0x3c91eeb7	0.017814023
217	0xbc5a3f94	-0.013320822
218	0x3dbf818e	0.093508825
219	0xbdf96173	-0.1217679
220	0xbdb27f73	-0.08715715
221	0xbd2473cb	-0.04014949
222	0xbd4e89e1	-0.05042446
223	0xbd012aaa	-0.03153483
224	0xbdf7be27	-0.120968156
225	0x3d375a47	0.04476383
226	0x3cb7a95a	0.02241962
227	0xbe051dfb	-0.12999718
228	0xbcb16e44	-0.021659024
229	0xbda6834a	-0.0813051
230	0xbd8b4bad	-0.068015434
231	0xbdb7e830	-0.08979833
232	0xbdcf092a	-0.1010917
233	0xbc5f47ce	-0.013627959
234	0x3d1ff073	0.03904767
235	0x3cb79cef	0.022413699
236	0xbdf1a1d6	-0.11798446
237	0xbd0b4f38	-0.034011096
238	0x3dd5f6b3	0.10447445
239	0xbd30015b	-0.042970043
240	0x3cc27e70	0.02374193
241	0xbda017b8	-0.07817024
242	0xbd660f71	-0.05616707
243	0x3dd9fa0b	0.10643395
244	0xbc441d8c	-0.011969935
245	0x3bcb4fd4	0.0062045846
246	0xbd9c0faf	-0.07620179
247	0x3c0f2970	0.008737907
248	0x3d9af346	0.07565932
249	0xbdad48ef	-0.084611766
250	0xbbf41cc1	-0.007449717
251	0xbd371eda	-0.044707157
252	0xbdf1b027	-0.118011765
253	0x3dcaa1fb	0.098941766
254	0xbcfac967	-0.030613614
255	0x3dc2fea7	0.09521227

encoder_lstm.bias_hh_l0 f4 [256]
0	0x3a6641e0	0.000878362
1	0xbd0e69d6	-0.0347689
2	0xbd2392ea	-0.03993503
3	0xbc3e7256	-0.0116239395
4	0xbe0ea03d	-0.13928314
5	0xbdefa16e	-0.11700712
6	0xbd584228	-0.052797467
7	0x3dc11e2c	0.09429583
8	0x3cf78e1b	0.030219128
9	0x3dbf3143	0.09335568
10	0xbdd1392b	-0.10215982
11	0xbdf4ccc7	-0.11953121
12	0xbde65c88	-0.11248118
13	0xbdd39ea5	-0.103329934
14	0xbd834589	-0.06409747
15	0xbca4e10e	-0.020126846
16	0xbd873cb2	-0.066033736
17	0xbc418188	-0.011810668
18	0xbd7be860	-0.061500907
19	0xbb880b16	-0.004151712
20	0xbe040655	-0.1289304
21	0xbe055e95	-0.13024361
22	0xbc8e7d2a	-0.017393667
23	0x3b296fe0	0.0025854036
24	0xbe0c0df3	-0.13677196
25	0xb8f9e428	-0.00011915743
26	0xbdf41ef8	-0.11919969
27	0xbdf01711	-0.117231496
28	0xbd7d1cfa	-0.061795212
29	0x3d20f663	0.039297473
30	0x3ccd4a57	0.025059862
31	0x3d86f2bf	0.06589269
32	0xbd35cd7d	-0.044385422
33	0x3d6f5373	0.058429193
34	0x3dbd4c4c	0.09243068
35	0xbdc05574	-0.09391299
36	0x3ca3f023	0.020011967
37	0xbdef5a36	-0.11687128
38	0x3d650613	0.055913996
39	0x3d962f5d	0.073332526
40	0x3d03f4e8	0.032215983
41	0xbdf54574	-0.11976138
42	0x3cc5182d	0.02405938
43	0xbb386ffc	-0.002814292
44	0xbb146101	-0.0022640827
45	0xbdc54ebc	-0.09634158
46	0xbd80ce55	-0.06289355
47	0x3c8dbe3c	0.017302625
48	0x3d26e453	0.04074509
49	0xbd935ee0	-0.0719583
50	0x3d7ff87b	0.06249283
51	0x3dadb1bc	0.08481166
52	0xbd6a1ead	-0.05715816
53	0xbd2740b0	-0.040833175
54	0x3db202b7	0.08691924
55	0x3dda744c	0.10666713
56	0xbde7c2c7	-0.11316448
57	0xbdede180	-0.11615276
58	0x3da218f9	0.079149194
59	0x3dba8695	0.09107701
60	0xbe09d78a	-0.13461128
61	0x3d3956a1	0.04524863
62	0xbdb6ea45	-0.08931402
63	0x3d120878	0.035652608
64	0xbcbf65b9	-0.023363935
65	0xbaf6633f	-0.0018797888
66	0xbd3073ef	-0.043079313
67	0xbd61f888	-0.05516866
68	0xbd5c84c5	-0.053837556
69	0x3d529f42	0.05142141
70	0x3d22e3a3	0.039767873
71	0x3d8ce39e	0.06879352
72	0x3d6dfb85	0.058101196
73	0xbdf4298e	-0.119219884
74	0xbdf77668	-0.12083131
75	0xbdd2b424	-0.10288265
76	0xbda3c5bd	-0.079967
77	0xbdd7dec0	-0.10540533
78	0x3d7d25a3	0.06180347
79	0xbe0ae033	-0.13562088
80	0x3db9428c	0.09045896
81	0xbdd05c28	-0.101738274
82	0x3dc93e11	0.09826291
83	0x3d57f71d	0.0527259
84	0xbd22c650	-0.039739907
85	0x3db8420c	0.089969724
86	0x3da3f46b	0.080056034
87	0xbd1901fe	-0.037355416
88	0xbdfb6d8b	-0.12276753
89	0x3dd60000	0.10449219
90	0xbdb2123b	-0.086948834
91	0xbdb66bcc	-0.08907279
92	0xbd2d89ee	-0.042367868
93	0xbda45a68	-0.08025056
94	0xbd5f1fb3	-0.05447359
95	0xbd0667cb	-0.03281383
96	0x3cfba7a2	0.030719582
97	0xbd136f50	-0.035994828
98	0x3d727a15	0.059198458
99	0x3dafc7f9	0.08583064
100	0x3d6d34b6	0.057911597
101	0xbde51474	-0.11185542
102	0x3d3b419d	0.04571687
103	0xbc9bffa1	-0.019042792
104	0x3d490766	0.04907932
105	0xbdc2a9e8	-0.09505063
106	0x3dbc6b4a	0.09200151
107	0xbdee6725	-0.11640767
108	0x39d82370	0.00041225133
109	0xbd142901	-0.036171917
110	0xbdaf1654	-0.085491806
111	0xbe063cd3	-0.1310914
112	0xbcba9435	-0.022775749
113	0xbca8d3b2	-0.020608757
114	0x3b3f57ad	0.0029196546
115	0xbdc2a251	-0.09503616
116	0x3dcf8ec3	0.101346515
117	0x3d40cac5	0.047068376
118	0x3d77b71f	0.060477372
119	0xbcb0a685	-0.021563778
120	0x3ca3f72f	0.020015327
121	0x3ce16de0	0.027518213
122	0xbbedf862	-0.0072622756
123	0x3d88ecb8	0.066857755
124	0xbd5067f6	-0.050880395
125	0x3bd2558a	0.0064188885
126	0xbd07c81e	-0.03314983
127	0xbd65e3ea	-0.05612556
128	0x3dd1854a	0.10230501
129	0xbdca9025	-0.09890775
130	0xbdc8625a	-0.09784384
131	0xbcc9a8c0	-0.0246166
132	0x3dec2a11	0.11531461
133	0xbd8b49f3	-0.06801214
134	0xbe035c9b	-0.12828295
135	0xbb18c709	-0.0023311994
136	0xbdbcf0b4	-0.09225598
137	0xbddacde4	-0.10683802
138	0xbdab1e80	-0.08355427
139	0xbc991799	-0.01868801
140	0x3dd0dc7b	0.10198303
141	0x3dbc617b	0.091982804
142	0xbdb4a1c2	-0.08819915
143	0x3cf0dbd0	0.02940169
144	0xbc885e14	-0.016646422
145	0x3dbc67e6	0.091995046
146	0xbd47186e	-0.048607282
147	0xbd331aa2	-0.04372657
148	0xbd40d284	-0.047075763
149	0xbdc05116	-0.09390466
150	0xbddcc91c	-0.10780546
151	0xbdf03a74	-0.11729899
152	0x3dac3bb9	0.08409829
153	0xbd8f7142	-0.07004024
154	0x3da4db97	0.08049696
155	0x3d639a8e	0.055567317
156	0xbddfc16d	-0.10925565
157	0x3db1300f	0.086517446
158	0x3c7fb72e	0.015607638
159	0xbd9d4d3f	-0.07680749
160	0xbdf0faf4	-0.117666155
161	0xbc3c7a51	-0.011503772
162	0x3cd03dce	0.025420096
163	0xbde194b8	-0.11014694
164	0x3b10be23	0.0022085987
165	0xbdcce0a7	-0.100037865
166	0xbdc501c1	-0.09619475
167	0xbcfbef12	-0.030753646
168	0xbcac6bed	-0.021047557
169	0x3dbdf6eb	0.092756115
170	0x3de645ce	0.11243783
171	0x3dce7d91	0.10082544
172	0xbd8187b0	-0.063247085
173	0xbc35231a	-0.011055732
174	0xbd36dc76	-0.04464384
175	0xbcfacda2	-0.030615631
176	0xbd06d788	-0.03292039
177	0xbd1c8c30	-0.03821963
178	0x3b58a4e9	0.0033057278
179	0xbcaed9a5	-0.021344015
180	0x3d9f56e4	0.07780245
181	0x3d810a49	0.0630079
182	0xbdce6b8a	-0.10079105
183	0x3d056911	0.032570902
184	0x3ca54972	0.020176623
185	0xbd3ee3d2	-0.046603985
186	0x3cc78222	0.024354044
187	0x3d03b49d	0.032154668
188	0x3e03a48b	0.12855737
189	0xbdd8209c	-0.10553095
190	0xbcc90244	-0.024537213
191	0xbb856b2d	-0.0040716142
192	0xbd755a55	-0.0599006
193	0x3d3c4648	0.045965463
194	0xbde0a9c7	-0.109698825
195	0xba703d7f	-0.0009164437
196	0xbcc9901f	-0.024604855
197	0x3d06e5a7	0.032933857
198	0x3bca7882	0.0061789164
199	0x3cc2a1f8	0.023758873
200	0xbdc00d8d	-0.093775846
201	0x3dd3a0ee	0.10333429
202	0x3dd50f1f	0.10403275
203	0xbd7d490d	-0.061837245
204	0xbcdb95a4	-0.026804753
205	0xbd0e23da	-0.03470216
206	0x3d3f3ea7	0.04669061
207	0xbddd3acf	-0.108022325
208	0xbdbc146e	-0.09183584
209	0xbc996907	-0.018726839
210	0xbd8aba77	-0.067738466
211	0xbddc2118	-0.107485
212	0xbe25ebc5	-0.1620322
213	0x3dbd0a78	0.092305124
214	0xbc6ebe2e	-0.01457171
215	0x3d0bef25	0.034163613
216	0xbdbfbfe7	-0.09362774
217	0xbdd785d8	-0.105235755
218	0x3db48516	0.08814447
219	0x3d4a6d78	0.049420804
220	0x3d9824e9	0.07428915
221	0x3cb7ce80	0.022437334
222	0xbd9c572e	-0.07633816
223	0x3d998910	0.07496846
224	0x3d0924d2	0.03348238
225	0x3db1b307	0.08676725
226	0x3da51fca	0.08062704
227	0x3d146917	0.036233034
228	0xbddf5023	-0.10903957
229	0xbe024b98	-0.12724149
230	0xbb7cf3b4	-0.0038597407
231	0xbafc1749	-0.0019233014
232	0xbb5df24f	-0.003386635
233	0x3d3293a4	0.043597832
234	0x3da38ccf	0.079858415
235	0x3cd7bef0	0.026336163
236	0xbd84fb2c	-0.0649322
237	0x3d6bd919	0.057580087
238	0xbd916f47	-0.071013026
239	0x3da4f945	0.08055357
240	0x3d8af668	0.067852795
241	0xbd427328	-0.047473103
242	0xbd392732	-0.045203395
243	0x3ba53a50	0.005042352
244	0x3ce222d4	0.027604498
245	0x3cdf0085	0.027221927
246	0xbdcbd70d	-0.09953127
247	0xbdb78f4a	-0.08962877
248	0x3d8ae354	0.06781641
249	0x3dbdcc29	0.09267456
250	0xbd3a392e	-0.045464687
251	0x3de47f7e	0.1115713
252	0xbd2819e0	-0.0410403
253	0xbd1f3c07	-0.038875606
254	0xbdb539d8	-0.088489234
255	0xbd00adbc	-0.031415686

encoder_lstm.weight_ih_l1 f4 [256, 64]
0	0xbda4c28a	-0.08044918
1	0x3c53685c	0.012903299
2	0xbd13f053	-0.036117863
3	0xbc8edf65	-0.017440507
4	0x3e014249	0.12622942
5	0x3d09709e	0.033554666
6	0x3dd20914	0.10255638
7	0x3cd4bec1	0.025969865
8	0xbd0aede2	-0.03391827
9	0xbde70753	-0.11280694
10	0xbd6e0bcb	-0.058116715
11	0x3d64aba2	0.055827744
12	0xbd81ab34	-0.063314825
13	0xbdf8d617	-0.121502094
14	0xbdbbdbf1	-0.0917281
15	0xbdd25ec9	-0.10271985
16	0x3db1e157	0.08685558
17	0xbdd51802	-0.1040497
18	0x3dac4268	0.084111035
19	0xbc95a46d	-0.01826688
20	0xbdab55c3	-0.08365967
21	0x3c874cfe	0.016516205
22	0xbd686f66	-0.056746863
23	0xbd931439	-0.071815915
24	0xbd8065b2	-0.06269397
25	0x3cfb4359	0.030671762
26	0x3df06006	0.11737065
27	0xbcdfe527	-0.027330948
28	0x3c95b29a	0.01827364
29	0x3c307cca	0.0107719395
30	0xbdbc0167	-0.09179955
31	0xbd2b1f71	-0.04177803
32	0xbd8e7d1e	-0.06957458
33	0x3d8b7f1d	0.06811354
34	0x3dab8a1e	0.08375953
35	0xbda183cd	-0.07886467
36	0x3d4db0ec	0.050217554
37	0xbd3e9594	-0.046529368
38	0xbd44afea	-0.048019327
39	0x3d288796	0.04114493
40	0xbc0f570b	-0.00874878
41	0xbd46b361	-0.048510913
42	0xbd832c18	-0.064048946
43	0xbd7c8140	-0.0616467
44	0xbd74048a	-0.05957464
45	0xbc619877	-0.013769261
46	0x3cd13f91	0.025543006
47	0x3cf75e53	0.030196344
48	0xbaffb915	-0.0019510115
49	0x3dcf58b8	0.10124344
50	0x3c516c69	0.012782195
51	0xbd04124b	-0.032244008
52	0x3d62c116	0.055359922
53	0x3daad98c	0.08342275
54	0x3d453c22	0.04815305
55	0x3d33aa4e	0.043863587
56	0xbd0b2cb0	-0.033978164
57	0x3d86e9fa	0.06587596
58	0xbd14bb6b	-0.03631155
59	0xbc6fa0f4	-0.014625777
60	0xbd3c8bd1	-0.046031777
61	0x3ced7901	0.028988363
62	0xbbd94cd7	-0.0066314745
63	0x3deee629	0.11664993
64	0x3dddae15	0.10824219
65	0x3d7442d8	0.05963406
66	0xbd4a54ad	-0.04939716
67	0x3dc16900	0.09443855
68	0xbd732783	-0.059363853
69	0x3cfd8915	0.030949155
70	0x3d282410	0.041050017
71	0x3dec03ec	0.115241855
72	0xbda8588a	-0.082200125
73	0x3d1e4e02	0.038648613
74	0xbd88de79	-0.06683058
75	0xbce69df6	-0.028151494
76	0xbe0c1939	-0.13681497
77	0xbdc5297d	-0.09627054
78	0x3b84cd79	0.0040528146
79	0xbc85df7d	-0.01634192
80	0x3d0a25f5	0.033727605
81	0x3e10f613	0.1415637
82	0x3b93ebe6	0.0045142053
83	0xbd9ab852	-0.075546876
84	0xbe02b014	-0.12762481
85	0x3d05c002	0.032653816
86	0x3c03a4f3	0.008034932
87	0x3cb63c85	0.022245655
88	0xbd95c8e4	-0.073137075
89	0x3d8dab20	0.06917405
90	0x3ccdc536	0.025118452
91	0xbd0dc761	-0.03461397
92	0xbd86f404	-0.06589511
93	0x3cca529d	0.024697596
94	0xbdcf69a7	-0.101275735
95	0xbcafbb15	-0.021451512
96	0x3c5a97b5	0.013341834
97	0xbd8d81e0	-0.06909537
98	0xbde16cf2	-0.11007108
99	0xbcea34ce	-0.028589632
100	0x3d8d0ab2	0.068868056
101	0xbb2e4bb5	-0.0026595418
102	0xbd2ee1aa	-0.04269568
103	0x3d658de7	0.05604353
104	0xbce009c9	-0.027348416
105	0x3d8688ce	0.06569062
106	0x3c266eb7	0.010158232
107	0x3d529d25	0.051419396
108	0xbda38259	-0.07983846
109	0x3e08e43e	0.13368317
110	0x3c30e22e	0.010796113
111	0x3d50aefb	0.050948124
112	0xbd731147	-0.05934265
113	0xbdb88f5b	-0.09011718
114	0x3d192a20	0.03739369
115	0x3cb2cb29	0.02182539
116	0x3c338c55	0.010958751
117	0xbda269c3	-0.07930329
118	0x3cb28bfe	0.02179527
119	0x3dc70fdb	0.09719821
120	0x3e0343f9	0.12818898
121	0xbd989e7e	-0.07452105
122	0xbd39c07e	-0.04534959
123	0x3dbbfe50	0.09179366
124	0x3df462a1	0.119328745
125	0x3d9bcffe	0.07608031
126	0xbe03ae84	-0.12859541
127	0xbdc98f44	-0.09841779
128	0x3c7c7930	0.015409753
129	0x3e07ebaa	0.13273492
130	0xbdf1e17f	-0.11810588
131	0xbd03d3d1	-0.032184426
132	0x3d5cc9fd	0.05390357
133	0x3e0f7702	0.14010242
134	0xbcb448b2	-0.02200732
135	0xbc9d8648	-0.01922907
136	0x3ca68bfa	0.020330418
137	0xbd75730f	-0.05992418
138	0xbd887dc2	-0.066646114
139	0x3df0f657	0.117657356
140	0x3c043c56	0.008071026
141	0xbdaf9d8a	-0.0857497
142	0xbd36f03c	-0.0446627
143	0xbdfc3dea	-0.12316497
144	0xbdafdec2	-0.085874096
145	0x3cf4dbf3	0.029890036
146	0x3c8fc686	0.017550718
147	0x3e0818df	0.13290738
148	0x3d77a61e	0.060461156
149	0x3de17f35	0.11010591
150	0xbb28d3de	-0.0025761048
151	0xbdc7b482	-0.09751226
152	0xbd7edc18	-0.062221617
153	0x3e0a6cca	0.13518062
154	0xbcc36154	-0.02385012
155	0xbddc6840	-0.107620716
156	0xbd3a7601	-0.045522694
157	0x3d74f2fa	0.059802033
158	0x3dbc3b2a	0.09190972
159	0x3d57d2de	0.052691333
160	0x3b882943	0.0041553094
161	0xbd8910a0	-0.06692624
162	0x3d8fb9e2	0.07017876
163	0x3dbd19a3	0.092334054
164	0x3e03b78a	0.12862983
165	0x3d4c41c7	0.049867418
166	0xbdc99397	-0.09842604
167	0x3df92df1	0.12166966
168	0x3cad74b4	0.021173812
169	0xbb092430	-0.002092611
170	0xbab90f55	-0.0014118949
171	0x3d00488d	0.03131919
172	0x3d3aa709	0.045569453
173	0xbdb83321	-0.08994127
174	0x3d813968	0.063097775
175	0x3de0c8df	0.10975813
176	0x3db7288a	0.08943279
177	0x3cd1f8cb	0.025631329
178	0x3d7ec64b	0.062200826
179	0x3e0d79ad	0.13815947
180	0x3d4837c7	0.04888132
181	0xbdf264b9	-0.118356176
182	0xbdbb84c8	-0.091561854
183	0x3aeca431	0.0018054304
184	0xbc86ffa2	-0.016479317
185	0x3de7240f	0.112861745
186	0x3d129cf5	0.035794217
187	0xbc80909b	-0.015693953
188	0x3c3b3985	0.011427288
189	0x3d739e5b	0.05947719
190	0x3d50a676	0.05094
191	0x3de59540	0.11210108
192	0xbc9b39a8	-0.018948391
193	0xbda3dac9	-0.08000714
194	0x3da8d340	0.08243418
195	0xbb92c26d	-0.0044787438
196	0x3db9ce84	0.09072593
197	0x3db76f20	0.08956742
198	0xbc3de0fb	-0.011589284
199	0xbcd9fb94	-0.02660922
200	0x3de3ea62	0.11128689
201	0x3d541e37	0.051786628
202	0x3db7dd76	0.08977787
203	0xbd8aee0b	-0.06783684
204	0x3c95546b	0.01822873
205	0x3d6843bd	0.056705225
206	0xbdb10f43	-0.08645489
207	0xbdd806ac	-0.105481476
208	0x3cc0f251	0.023553045
209	0xbdc1974d	-0.094526865
210	0x3cf7263d	0.0301696
211	0x3cdb0fab	0.02674087
212	0xbd7c634a	-0.061618127
213	0xbdadc97d	-0.084856965
214	0xbdc4a5c7	-0.09601932
215	0xbcdb6e85	-0.026786098
216	0xbd8c70f7	-0.06857484
217	0x3c07122a	0.008244077
218	0xbd890d34	-0.066919714
219	0xbc313cfd	-0.010817763
220	0x3d60a9ae	0.05484932
221	0xbd79160f	-0.060812052
222	0x3dcdca66	0.1004837
223	0x3d3ce1d7	0.046113815
224	0xbdcbf1bb	-0.09958216
225	0x3d846ab7	0.06465667
226	0xbd2200d9	-0.03955159
227	0x3d82a511	0.0637914
228	0xbd80e89f	-0.06294369
229	0xbd3cb8dc	-0.046074733
230	0x3dd0ba67	0.101918034
231	0x3d26e6d4	0.04074748
232	0xbe0429aa	-0.12906519
233	0xbe0671c2	-0.13129333
234	0xbb28ff8e	-0.0025787088
235	0x3daccf79	0.0843801
236	0x3d7b23ea	0.061313547
237	0x3dba721e	0.091037974
238	0xbd120a8e	-0.035654597
239	0xbdb9212b	-0.090395294
240	0xbd489228	-0.04896751
241	0x3d9f3caa	0.077752426
242	0x3d2e7f04	0.0426016
243	0x3e08aaea	0.13346449
244	0xbde5f105	-0.112276115
245	0xbdc816fc	-0.09770009
246	0xbdd83321	-0.10556627
247	0xbcdd1e81	-0.026992084
248	0xbdd2606a	-0.10272296
249	0xbd4985a6	-0.049199723
250	0xbdd9b289	-0.10629756
251	0x3db8260e	0.08991633
252	0x3db7a444	0.08966878
253	0x3c94da90	0.018170625
254	0xbe079460	-0.13240194
255	0xbdd74b40	-0.105124

encoder_lstm.weight_hh_l1 f4 [256, 64]
0	0x3df5231d	0.11969588
1	0xbdc3fb21	-0.095693834
2	0xbd12f978	-0.035882443
3	0x3dc10e43	0.09426548
4	0xbca248d9	-0.019810127
5	0x3d07ba6c	0.03313677
6	0x3df5ed7e	0.12008189
7	0xbcceab49	-0.02522816
8	0x3d58f90e	0.052971892
9	0x3dadef71	0.084929354
10	0xbdba2a77	-0.09090131
11	0xbdb875c4	-0.09006837
12	0xbcb1e040	-0.021713376
13	0x3d8c59e9	0.068530865
14	0xbd1ff431	-0.03905124
15	0xbd83aa35	-0.06428949
16	0x3dfc02f8	0.12305254
17	0x3d5eae9c	0.05436574
18	0xbd68a6dc	-0.056799755
19	0xbdee62e2	-0.11639954
20	0xbdd9f57c	-0.106425256
21	0xbde8151f	-0.113321535
22	0xbdba9092	-0.09109606
23	0x3da1cc94	0.07900348
24	0x3d1292f3	0.035784673
25	0xbc771065	-0.015079592
26	0x3be23ef5	0.0069044777
27	0x3da71c1e	0.0815966
28	0xbd03d36e	-0.032184057
29	0x3dd329c0	0.103106976
30	0xbda4987e	-0.08036898
31	0x3c98037f	0.018556355
32	0xbde2a303	-0.11066248
33	0xbddf449b	-0.10901757
34	0xbdc61f98	-0.09673995
35	0x3dbe834a	0.09302385
36	0x3dcf47a6	0.10121088
37	0x3d8913ca	0.066932276
38	0x3d759b6f	0.059962686
39	0x3cb922c3	0.022599583
40	0x3b560fed	0.00326633
41	0x3dfd2e2c	0.12362322
42	0x3dda7a9a	0.10667916
43	0xbe01c285	-0.1267186
44	0xbdbafbb8	-0.09130043
45	0xbd9c1e1e	-0.07622932
46	0xbb95a0e4	-0.004566299
47	0x3d182303	0.037142765
48	0x3df693f2	0.12039937
49	0x3d2e71fd	0.042589176
50	0x3e036469	0.12831272
51	0xbd792193	-0.060823034
52	0xbd09acaf	-0.03361195
53	0xbdee8776	-0.11646931
54	0x3dbce012	0.092224255
55	0x3d513214	0.05107315
56	0xbd899cf1	-0.06719387
57	0x3decd267	0.115635686
58	0x3c86f431	0.016473861
59	0xbd9bf46f	-0.076149814
60	0xbd2843ab	-0.04108016
61	0xbd9c2c3a	-0.07625623
62	0xbd08f4b4	-0.033436492
63	0x3dff3863	0.12461927
64	0x3df7258a	0.12067707
65	0xbd7b7eb8	-0.061400145
66	0x3d6234ab	0.05522601
67	0x3dcd5cea	0.100274876
68	0x3da333ea	0.07968886
69	0x3d52fe78	0.05151221
70	0xbd07c135	-0.03314324
71	0xbd4fb038	-0.050705165
72	0xbd4b14af	-0.049580272
73	0x3d19a1ec	0.037507936
74	0xbd11883a	-0.035530306
75	0xbcbfad8b	-0.023398181
76	0xbdc7145f	-0.09720682
77	0xbdcc7081	-0.09982396
78	0xbd735ca1	-0.05941451
79	0xbc3c5cad	-0.011496705
80	0xbde17c52	-0.1101004
81	0xbe0ee514	-0.13954574
82	0x3d6d7b64	0.057979003
83	0xbd7b950a	-0.06142143
84	0xbd79015b	-0.06079231
85	0x3cb1a50d	0.021685148
86	0x3dac8578	0.08423895
87	0x3d509d8d	0.050931502
88	0x3deaf029	0.11471588
89	0x3bc833c2	0.0061096856
90	0x3defb8d6	0.117051765
91	0x3db109fe	0.08644484
92	0x3dbee380	0.09320736
93	0xbceb00c0	-0.028686881
94	0x3bf786f5	0.00755393
95	0x3d3b9431	0.045795623
96	0x3d6d4dc9	0.05793551
97	0x3bf93e14	0.0076062772
98	0xbde77e8e	-0.11303435
99	0x3d85f284	0.06540397
100	0x3cd20ca5	0.025640795
101	0x3d3e72f2	0.04649634
102	0x3d7f5014	0.062332228
103	0xbd85a681	-0.06525899
104	0x3d9dff2a	0.07714684
105	0xbdb7c1b4	-0.08972493
106	0xbdd8d8ec	-0.105882496
107	0xbdab966f	-0.08378302
108	0x3db3251b	0.08747312
109	0xbd1cbf3f	-0.038268324
110	0xbc094dad	-0.008380336
111	0xbddc0e1d	-0.107448794
112	0xbcd922c1	-0.02650583
113	0x3da6100a	0.08108528
114	0xbdef9216	-0.116977856
115	0x3d3668ea	0.044533648
116	0x3de3b457	0.111183815
117	0xbd9dcdad	-0.07705245
118	0x3dbcfd84	0.09228042
119	0xbd88cd06	-0.0667973
120	0x3ddbcc6d	0.107323505
121	0x3d7bddb3	0.061490726
122	0xbd907765	-0.07054023
123	0xbcb250b9	-0.021767007
124	0x3d35102d	0.04420488
125	0xbdeeefd3	-0.116668366
126	0x3d09fce9	0.03368846
127	0x3d6b88e4	0.057503596
128	0xbc717f3d	-0.014739809
129	0x3df66f62	0.12032963
130	0xbdca26cc	-0.09870681
131	0xbd9e1584	-0.077189475
132	0xbda748ac	-0.08168158
133	0x3c6c3282	0.014416339
134	0xbd9d716f	-0.07687651
135	0xbddb43bb	-0.10706278
136	0xbd17d3ef	-0.03706735
137	0xbdd43f89	-0.10363681
138	0x3cc4354f	0.0239512
139	0x3da8e9dd	0.08247731
140	0x3d220a47	0.039560582
141	0x3d633369	0.05546895
142	0x3dfdca0a	0.123920515
143	0x3cb18c55	0.02167336
144	0xb9f4183f	-0.0004655737
145	0xbcd5d86c	-0.026104175
146	0x3d8ca96d	0.06868253
147	0x3d8c9caf	0.068658225
148	0xbe0cc8bb	-0.13748448
149	0x3da51ce5	0.08062152
150	0x3cb96b2e	0.022634115
151	0xbdfc16fb	-0.12309071
152	0x3d81b1fa	0.063327745
153	0x3b4a540b	0.0030872847
154	0xbd38751e	-0.045033567
155	0x3c35e9de	0.011103122
156	0xbdc1a176	-0.09454624
157	0x3cf34143	0.029694205
158	0xbcf599c2	-0.029980544
159	0xbd7a986f	-0.06118053
160	0xbdc2c443	-0.0951009
161	0x3d326cb3	0.043560695
162	0xbc048151	-0.008087472
163	0x3dfb5b27	0.12273245
164	0xbda18c0d	-0.07888041
165	0xbcfbf77b	-0.030757656
166	0xbdd0296d	-0.10164151
167	0xbddb4daf	-0.10708176
168	0xbc6386e5	-0.013887142
169	0xbdf66d16	-0.12032525
170	0xbdd0c8b7	-0.10194533
171	0xbd926740	-0.071485996
172	0xbb5ac4f7	-0.003338156
173	0xbc666c0c	-0.014063846
174	0xbc8e05d4	-0.017336763
175	0x3d251f0c	0.04031281
176	0x3dc338a7	0.0953229
177	0xbd89733c	-0.06711432
178	0xbd06f3bc	-0.032947287
179	0x3cc201fb	0.023682585
180	0x3dd62ab7	0.10457366
181	0xbc80e975	-0.015736321
182	0x3d485505	0.048909206
183	0x3df10780	0.11769009
184	0xbda79f4f	-0.081846826
185	0x3d33af5c	0.043868408
186	0x3dadc10d	0.08484087
187	0xbd8074a5	-0.06272248
188	0xbe0ea782	-0.13931087
189	0xbdcd22c1	-0.100163944
190	0x3db1bf70	0.08679092
191	0xbd8b4bd2	-0.06801571
192	0xbd3edb3a	-0.04659579
193	0x3dae880b	0.08522042
194	0x3ddbee13	0.107387684
195	0x3de49ed2	0.11163105
196	0xbdf50210	-0.11963284
197	0x3d7f9a0e	0.062402777
198	0xbdca894d	-0.09889469
199	0x3d9bfd4a	0.076166704
200	0x3d9b446b	0.07581409
201	0x3d91f746	0.07127242
202	0x3d511045	0.051040906
203	0xbdeab42b	-0.114601456
204	0x3dd66242	0.1046796
205	0xbc09a414	-0.008400936
206	0xbdb11fe8	-0.08648664
207	0x3db08969	0.08619959
208	0x3e09a0c9	0.13440241
209	0x3cb07405	0.021539697
210	0xbd804674	-0.06263438
211	0x3db71695	0.08939854
212	0xbde6b22f	-0.112644546
213	0x3dd1fbba	0.10253091
214	0xbc9c8e58	-0.019110844
215	0x3dc859cf	0.09782755
216	0x3ca76758	0.02043502
217	0xbd4c57eb	-0.049888533
218	0x3dd60c30	0.10451543
219	0x3d8b1903	0.0679188
220	0xbdc83903	-0.09776499
221	0x3e015967	0.1263176
222	0x3a1d9519	0.0006011292
223	0x3ccca445	0.024980674
224	0xbd56b530	-0.052418888
225	0xbc7ff917	-0.0156233525
226	0x3e03a204	0.12854773
227	0x3dd02662	0.10163571
228	0xbdde8649	-0.108654566
229	0x3dbbeca1	0.09175993
230	0x3d0aa767	0.033851054
231	0xbcf04d1d	-0.029333645
232	0x3d4e61c7	0.050386216
233	0x3cd18c39	0.025579559
234	0xb9b589dd	-0.00034625726
235	0xbdc03f92	-0.09387125
236	0x3dee64c7	0.116403155
237	0xbd917deb	-0.07104095
238	0x3dc74771	0.09730423
239	0x3da79593	0.08182826
240	0xbd01651e	-0.031590573
241	0xbdd0aca1	-0.10189176
242	0x3d92abcd	0.07161675
243	0xbd972b09	-0.07381255
244	0x3d19d364	0.037555113
245	0x3d7a0f68	0.06104985
246	0x3ce15398	0.02750568
247	0xbd55ec79	-0.05222747
248	0x3d376ed5	0.044783432
249	0xbd358e97	-0.044325437
250	0x3e01b2a3	0.12665801
251	0xbd7b7e91	-0.0614
252	0xbdc65e43	-0.09685948
253	0x3d317276	0.04332205
254	0xbb3f1703	-0.0029158003
255	0x3dff668f	0.124707334

encoder_lstm.bias_ih_l1 f4 [256]
0	0xbd983130	-0.07431257
1	0x3d47e5a2	0.04880298
2	0x3c9ab30e	0.018884208
3	0x3d3a8e9c	0.04554616
4	0x3d8e2e82	0.069424644
5	0xbd933ce5	-0.07189349
6	0xbd03a007	-0.032135036
7	0xbd9eeeed	-0.07760415
8	0xbdf287c7	-0.11842304
9	0x3c9cc839	0.019138442
10	0xbb23da5f	-0.0025001985
11	0xbc1c362d	-0.009534401
12	0x3d4f9eaa	0.050688423
13	0x3d442cfe	0.04789447
14	0x3d9073a7	0.07053309
15	0x3d4294ad	0.04750507
16	0x3ce5832f	0.028016655
17	0xbddc7fff	-0.10766601
18	0x3dbc8559	0.092051215
19	0xbdc65c6f	-0.09685599
20	0xbd21ce25	-0.039503235
21	0x3d84d7bd	0.06486461
22	0x3d36fd83	0.04467536
23	0xbdfbe8f7	-0.12300294
24	0x3ceccc8b	0.028906127
25	0xbdc403fc	-0.095710725
26	0xbdc0feff	-0.09423637
27	0xbda58782	-0.08082487
28	0x3d2ea958	0.042641968
29	0x3db066d8	0.08613366
30	0xb96b1442	-0.00022418893
31	0x3d58bfb8	0.052917212
32	0xbbbaadd7	-0.005696993
33	0x3d81c736	0.063368246
34	0xbde4cb6e	-0.11171614
35	0x3e041bff	0.12901305
36	0xbbbcf975	-0.0057670423
37	0x3df3101f	0.11868309
38	0xbc8353e8	-0.01603122
39	0xbcc6125c	-0.024178676
40	0xbc9472f4	-0.01812122
41	0x3c8b9cc9	0.017042534
42	0x3cdeb96b	0.027188024
43	0x3d3d6616	0.046239935
44	0x3cd4c24d	0.025971556
45	0x3cce07b1	0.025150152
46	0x3d56499f	0.052316304
47	0xbd5184d8	-0.05115208
48	0xbddd6f61	-0.108122595
49	0xbd0dad73	-0.034589242
50	0x3dae5376	0.08512013
51	0xbe0409f5	-0.12894423
52	0x3d438b6e	0.047740392
53	0xbdc63aa2	-0.09679152
54	0x3d931c24	0.07183102
55	0x3dba36ee	0.09092508
56	0xbe086820	-0.1332097
57	0x3d25673a	0.040381648
58	0xbb9879d2	-0.004653194
59	0xbe0335fb	-0.1281356
60	0xbc1c2234	-0.009529639
61	0x3cfd63a0	0.030931294
62	0x3dd34f73	0.10317888
63	0x3cc4fadb	0.024045398
64	0x3b1ef748	0.0024256278
65	0x3cb6bd9c	0.02230721
66	0xbd7a46fc	-0.061102852
67	0xbdaddff5	-0.08489982
68	0x3de503f7	0.11182397
69	0x3d55ed83	0.052228462
70	0xbd8372b8	-0.06418365
71	0xbdfd2744	-0.12361005
72	0xbd66ec43	-0.05637766
73	0x3d1816bb	0.037131052
74	0xbdd71c15	-0.10503403
75	0xbb93ba48	-0.0045082904
76	0xbd8d114a	-0.06888063
77	0xbcbeded6	-0.023299616
78	0x3de6acf2	0.112634555
79	0x3da0da80	0.078541756
80	0xbd061ba4	-0.032741204
81	0xbcfd25b6	-0.030901771
82	0x3d9a1fc7	0.07525592
83	0xbd97a723	-0.07404926
84	0xbd925e4d	-0.07146893
85	0x3dd88ce1	0.105737455
86	0x3d3d44a8	0.046208054
87	0xbd402190	-0.046907008
88	0xbd780cba	-0.060559012
89	0x3dbab5c3	0.091166995
90	0x3cd8ff4e	0.026488926
91	0xbd8e594f	-0.06950628
92	0x3cd53a36	0.026028734
93	0xbdf11537	-0.117716245
94	0xbd829a12	-0.06377043
95	0xbd587375	-0.052844483
96	0xbe144b25	-0.1448179
97	0xbce9cbe0	-0.028539598
98	0xbdbf8555	-0.09351603
99	0x3d543cc6	0.05181577
100	0xbd5d9b9d	-0.054103483
101	0x3afb7b7d	0.0019186583
102	0xbdbbf1fa	-0.09177013
103	0x3da8d8b1	0.082444556
104	0x3d1b0364	0.03784503
105	0xbd83f7ba	-0.064437345
106	0xbd820ed8	-0.063504875
107	0x3d2d1bb0	0.042262733
108	0x3dcb595f	0.099291556
109	0xbd4f8e00	-0.05067253
110	0xbceeec05	-0.029165277
111	0x3ddcb604	0.10776904
112	0x3b4142e2	0.0029489328
113	0xbdff34c8	-0.12461239
114	0xbdd341ac	-0.1031526
115	0x3d394c2e	0.045238666
116	0xbb92c4f6	-0.004479046
117	0xbdd28ef2	-0.10281171
118	0xbd46a506	-0.048497222
119	0x3b5d3223	0.0033751808
120	0x3d94e228	0.072696984
121	0xbd83f4d1	-0.064431794
122	0x3d9ac72c	0.0755752
123	0x3db60ce9	0.08889181
124	0x3dc03178	0.093844354
125	0xbc62b639	-0.013837391
126	0x3d9e4265	0.077275075
127	0x3dadc128	0.08484107
128	0xbcf2990d	-0.029613996
129	0x3d975e79	0.07391066
130	0xbdd40ddf	-0.10354208
131	0xbd8973ea	-0.06711562
132	0x3d7f1ec0	0.062285185
133	0xbd8d7a12	-0.06908049
134	0xbd967217	-0.0734598
135	0x3ddd2219	0.10797519
136	0xbcdfe699	-0.027331637
137	0xbded19eb	-0.11577209
138	0x3db3428f	0.087529294
139	0x3d24094e	0.040047936
140	0x3dc4a57d	0.09601877
141	0x3d8da95f	0.069170706
142	0xbc303934	-0.010755826
143	0x3cc35742	0.023845319
144	0xbcbe1056	-0.023201149
145	0xbca245ba	-0.019808639
146	0xbdbd97fc	-0.09257504
147	0x3dc62cf2	0.096765414
148	0xbd8f967b	-0.07011124
149	0x3dde7785	0.1086264
150	0xbcacdcba	-0.021101344
151	0xba9ce9cc	-0.0011971532
152	0xbc3b7fd4	-0.011444051
153	0x3e04fc51	0.12986876
154	0x3dec223b	0.115299664
155	0x3c73aa94	0.014872212
156	0x3cee91cd	0.029122258
157	0xbd8d1d68	-0.068903744
158	0xbd6e5c12	-0.058193274
159	0x3d46215b	0.048371654
160	0xbda42479	-0.08014769
161	0x3d411242	0.047136553
162	0xbdc9071c	-0.09815809
163	0xbd81be83	-0.06335165
164	0xbc5c340c	-0.013440143
165	0x3dbf0fac	0.09329161
166	0x3d1e70a5	0.038681645
167	0xbdeead1d	-0.116541125
168	0x3cdaf25d	0.026726896
169	0x3d3d2e38	0.046186656
170	0x3d687c80	0.056759357
171	0xbde3f07b	-0.111298524
172	0xbdaf96ff	-0.08573722
173	0x3cd10a3f	0.025517581
174	0x3db27046	0.08712821
175	0x3c2db1fa	0.010601515
176	0x3e020bee	0.12699863
177	0xbdeee842	-0.116653934
178	0x3dd8ec42	0.105919376
179	0xbc09edbb	-0.008418496
180	0xbd1c5824	-0.038169995
181	0x3daedb73	0.0853795
182	0x3d33853f	0.043828245
183	0x3d5a11d5	0.053239662
184	0xbd8c3aee	-0.068471774
185	0xbd83622c	-0.06415209
186	0x3d9b07d6	0.07569854
187	0x3cff2d86	0.031149637
188	0x3c74599d	0.014913944
189	0x3d63f454	0.05565293
190	0xbd797624	-0.060903683
191	0xbd755c4c	-0.059902474
192	0xbd464234	-0.04840298
193	0xbdcb272c	-0.09919581
194	0xbd82d40f	-0.06388103
195	0x3dd92b2a	0.10603936
196	0xbb2695c7	-0.0025418864
197	0xbc678e13	-0.014132994
198	0x3db39050	0.0876776
199	0xbbe29f0e	-0.0069159335
200	0xbd17523f	-0.03694367
201	0x3dae02c1	0.08496619
202	0x3dbd922d	0.092563964
203	0x3cc3d19d	0.023903662
204	0xbe08984e	-0.1333935
205	0x3d961bac	0.07329497
206	0xbd3bd58f	-0.045857962
207	0x3da72ece	0.08163224
208	0xbd7de7bf	-0.06198859
209	0xbdce6ee4	-0.100797445
210	0x3dd5489e	0.10414241
211	0xbd3304ca	-0.04370574
212	0x3d564713	0.052313875
213	0x3d67a581	0.05655432
214	0x3d695694	0.056967333
215	0xbda54832	-0.08070411
216	0x3b26ca64	0.0025450224
217	0x3db0a7d1	0.086257584
218	0xbd86886f	-0.065689914
219	0xbd96a594	-0.073558
220	0xbe0f895c	-0.14017242
221	0xbdd5080e	-0.10401927
222	0xbddbf39c	-0.10739824
223	0xbdefe899	-0.11714286
224	0xbdcfd1a5	-0.101474084
225	0xbd5f1056	-0.05445894
226	0xbde5c01a	-0.11218281
227	0x3d420da6	0.047376297
228	0xbdcc6546	-0.09980254
229	0xbd28365d	-0.04106747
230	0x3d1f30a1	0.038864736
231	0x3dd0945d	0.10184548
232	0xbdca9df4	-0.098934084
233	0xbd0ef833	-0.03490467
234	0x3d4078f5	0.046990354
235	0x3d0bf196	0.03416594
236	0xbde041f2	-0.10950078
237	0xbdd38bfd	-0.10329435
238	0x3c845fc7	0.016158951
239	0x3d259ea5	0.0404345
240	0xbd8e8e82	-0.06960775
241	0xbdf30019	-0.11865253
242	0xbe0a2cc5	-0.1349364
243	0xbe0a91ef	-0.13532232
244	0xbd516a0a	-0.051126517
245	0x3d59b2fb	0.053149205
246	0xbd5cec2c	-0.05393617
247	0xbd8d0567	-0.06885796
248	0x3d8b5256	0.06802814
249	0xbd873c64	-0.066033155
250	0x3d849a2c	0.064747185
251	0x3ccf1199	0.025276946
252	0xbd7cf4c6	-0.06175687
253	0xbcffd37e	-0.031228777
254	0xbd1d8f5b	-0.038466793
255	0xbd456834	-0.04819508
