src/neuralstars/benchmarks/lstm_vae_model.pth (torch, 752660 bytes, 29 tensors)

encoder_lstm.weight_ih_l0 f4 [256, 1]
0	0x3d4a255c	0.049352035
1	0xbd82fa96	-0.06395452
2	0xbbb7a8a3	-0.00560482
3	0xbb742cf9	-0.003725825
4	0x3da2cb3c	0.0794892
5	0x3bcbc227	0.006218213
6	0x3da65fd7	0.08123749
7	0x3db13940	0.08653498
8	0xbdd9a254	-0.10626665
9	0xbde8bdb6	-0.113643095
10	0x3e0a01e4	0.13477284
11	0x3b24e5b1	0.002516132
12	0x3e2e510c	0.17023104
13	0x3d573201	0.05253792
14	0x3d0100be	0.03149485
15	0x3ce784ad	0.028261507
16	0x3ca70bd2	0.020391379
17	0xbdcc5b39	-0.09978337
18	0xbda5529e	-0.080723986
19	0xbdefeb5c	-0.11714813
20	0xbddf020b	-0.108890615
21	0xbc56d71b	-0.013112809
22	0xbc7bc707	-0.015367276
23	0xbdf2135f	-0.11820101
24	0x3d926d40	0.07149744
25	0x3c96055b	0.0183131
26	0x3db10b9b	0.08644792
27	0x3dc6c9f4	0.09706488
28	0xbb88431d	-0.004158391
29	0x3d90e7ba	0.07075448
30	0xbdfea19c	-0.12433168
31	0xbdadbb0d	-0.08482943
32	0xbce4b702	-0.027919296
33	0x3ce1e1a6	0.027573418
34	0x3d9a8b73	0.07546129
35	0xbde0bf2d	-0.10973964
36	0x3b9112dc	0.004427297
37	0xbd9a4d66	-0.07534294
38	0x3da920e6	0.08258228
39	0xbd2bee35	-0.04197522
40	0xbdc8d690	-0.098065495
41	0x3cdaa0f8	0.026688084
42	0x3c88772d	0.01665839
43	0x3ddfbe67	0.10924988
44	0x3c6512f8	0.013981573
45	0xbd4d5c4a	-0.05013684
46	0xbd2b2319	-0.04178152
47	0xbd376f82	-0.044784077
48	0xbb40a466	-0.0029394864
49	0xbdbb6551	-0.09150184
50	0xbd1f02d6	-0.038821064
51	0xbe22f2fb	-0.15913002
52	0x3d86519d	0.06558535
53	0xbda6b77b	-0.08140465
54	0x3c76ac4a	0.015055725
55	0xbcbf0f1b	-0.023322633
56	0xbd263bc6	-0.04058435
57	0xbdd359fb	-0.10319897
58	0xbdc85268	-0.09781343
59	0x3c3b1fe1	0.011421175
60	0x3d7fee8f	0.062483367
61	0xbdc68e48	-0.09695107
62	0x3d16b58b	0.036794227
63	0xbdfe19ed	-0.12407289
64	0xbd0f6c6d	-0.035015512
65	0xbd97a748	-0.07404953
66	0x3d13bcc9	0.03606871
67	0x3da861c0	0.08221769
68	0x3d60081c	0.054695234
69	0x3dab2aa4	0.083577424
70	0xbdafc238	-0.08581966
71	0x3df88d9e	0.12136386
72	0x3cbe7fba	0.023254264
73	0x3c2ef556	0.01067861
74	0xbd42eee4	-0.047591105
75	0x3d48c1ee	0.04901307
76	0x3e0d19fc	0.13779444
77	0x3b7b18c2	0.0038314317
78	0xbe1769e7	-0.14786492
79	0xbb35c36a	-0.0027734884
80	0x3ce84675	0.028353909
81	0xbd4ba73e	-0.04972004
82	0x3bca0204	0.006164791
83	0xbd273b83	-0.04082824
84	0x3cf49483	0.029855972
85	0x3d49a44c	0.04922895
86	0x3c67577b	0.014119978
87	0xbdac4d05	-0.08413128
88	0xbd1d3ceb	-0.038388174
89	0xbd60f5ef	-0.05492204
90	0xbda2889b	-0.07936212
91	0xbd631532	-0.055440135
92	0x3d46e6bf	0.0485599
93	0xbdbf1975	-0.093310274
94	0xbd08574b	-0.033286374
95	0x3bc1ffea	0.0059204
96	0xbd630d99	-0.05543289
97	0xbcdb8e01	-0.026801111
98	0x3d85c1fb	0.065311395
99	0xbd046de4	-0.032331362
100	0x3d540949	0.051766668
101	0xbdf6d131	-0.12051619
102	0x3deedd52	0.11663307
103	0xbb031de3	-0.0020006828
104	0xbd356b79	-0.044291947
105	0xbd0cc50f	-0.034367617
106	0x3c21deda	0.009879792
107	0x3db90e20	0.09035897
108	0xbe105d23	-0.14098029
109	0x3ddf07e8	0.1089018
110	0xbdc9f1f7	-0.09860604
111	0x3cfab857	0.030605478
112	0xbde08c13	-0.10964217
113	0x3d373ec8	0.044737607
114	0xbc97a3f5	-0.018510798
115	0x3d5c7496	0.053822123
116	0xbde208cf	-0.11036836
117	0x3d6c74ec	0.057728693
118	0xbd990711	-0.07472051
119	0xbdadcfe0	-0.08486915
120	0x3d8aa84b	0.067703806
121	0xbda920dc	-0.082582206
122	0xbdd2fa0e	-0.103016004
123	0x3d14288f	0.036171492
124	0xbddfa317	-0.10919779
125	0x3d26819e	0.040650956
126	0x3d93d2ef	0.07217967
127	0x3dba6040	0.091003895
128	0xbcb260cb	-0.02177467
129	0x3ce661d5	0.028122822
130	0x3c87f634	0.016596891
131	0xbdd551c2	-0.10415985
132	0xbdcda66f	-0.1004151
133	0xbdb6fc99	-0.08934898
134	0xbd152ba4	-0.036418572
135	0x3d19dc96	0.037563883
136	0xbdb43c7c	-0.08800599
137	0xbd5bb211	-0.053636614
138	0xbc16b863	-0.009199235
139	0xbd22ceb5	-0.039747912
140	0x3d4f8590	0.050664485
141	0x3cfc6c71	0.030813428
142	0x3cdcb7d8	0.026943132
143	0xbc5b8de2	-0.013400527
144	0x3c75f6fc	0.015012499
145	0xbddad271	-0.1068467
146	0xbdabeb0c	-0.08394441
147	0xbdb136f7	-0.08653062
148	0xbd59b71a	-0.053153135
149	0xbc70fded	-0.014708978
150	0xbcf2f527	-0.029657913
151	0x3d257d5f	0.040402766
152	0xbc9edde5	-0.019392917
153	0xbd469718	-0.048483938
154	0xbda57d0b	-0.08080491
155	0xbd7fe4e1	-0.062474135
156	0xbd4b7fcb	-0.04968242
157	0xbdef614d	-0.116884805
158	0xbd5c94bd	-0.053852785
159	0x3da7c353	0.08191552
160	0x3dd000e2	0.101564184
161	0x3db7b45a	0.08969946
162	0x3d1a3442	0.037647493
163	0x3d5770a5	0.05259766
164	0xbdc2f655	-0.0951964
165	0xbd87c4b2	-0.066293135
166	0x3d18905d	0.03724705
167	0xbd21f939	-0.039544318
168	0x3d63e498	0.055637926
169	0x3dc4d040	0.09610033
170	0xbd63cefc	-0.055617318
171	0xbd6998e1	-0.057030562
172	0x3dbcb7e8	0.09214765
173	0xbda77809	-0.08177192
174	0x3d3b46ef	0.045721944
175	0xbd29c96d	-0.04145186
176	0xbcef3d2b	-0.029203972
177	0xbd095918	-0.033532232
178	0x3d272932	0.04081077
179	0xbcb41027	-0.021980358
180	0xbba970d6	-0.005170922
181	0xbc9277a9	-0.017879324
182	0x3dc19d4b	0.094538294
183	0x3de066b6	0.109570906
184	0x3db44574	0.0880231
185	0x3cf5bf79	0.029998528
186	0x3d111695	0.035421927
187	0x3da8d8b0	0.08244455
188	0x3c2e83eb	0.010651569
189	0xbccf9ae2	-0.025342409
190	0x3c88a902	0.016682152
191	0x3da815db	0.082072936
192	0x3bb260ca	0.005443667
193	0xbe1138cf	-0.14181827
194	0x3dab1020	0.08352685
195	0xbe24b9c6	-0.16086492
196	0x3dd8b928	0.10582191
197	0x3e4df037	0.20111166
198	0xbd37d930	-0.04488486
199	0x3de54883	0.11195471
200	0xbdedb449	-0.11606652
201	0x3d941e98	0.07232398
202	0x3dc30b83	0.0952368
203	0x3ddea848	0.10871941
204	0x3e14a3b1	0.14515568
205	0xbdeb1302	-0.11478235
206	0xbe0f8989	-0.14017309
207	0xbd4e4546	-0.050359033
208	0x3d0ba48f	0.034092482
209	0xbe04a599	-0.12953795
210	0xbc7440a7	-0.014907992
211	0x3da5018b	0.08056935
212	0x3cea4673	0.028598046
213	0x3de82527	0.11335211
214	0x3d0dd0cc	0.034622952
215	0x3be196fd	0.0068844543
216	0xbe083259	-0.13300456
217	0x3dad6e4a	0.084683016
218	0x3d10091c	0.035164937
219	0xbd5b3b6e	-0.053523473
220	0xbdd7db27	-0.10539847
221	0x3d3e3798	0.046439737
222	0x3cb3c523	0.021944588
223	0xbd5a8baa	-0.05335585
224	0xbd2bce99	-0.041945074
225	0xbe0cfb60	-0.13767767
226	0xbe01cae2	-0.1267505
227	0x3d8cd4f5	0.06876556
228	0xbd4a6215	-0.049409945
229	0xbc2bdf6c	-0.01049028
230	0x3d7b3f07	0.061339404
231	0xbdd8c5d8	-0.10584611
232	0xbd8f589e	-0.06999324
233	0x3d82ff3f	0.063963406
234	0x3e038e05	0.12847145
235	0xbdfdef98	-0.123992145
236	0x3d79b5da	0.060964443
237	0xbd71771a	-0.058951475
238	0xbcbd79b7	-0.023129327
239	0xbde1c795	-0.110243954
240	0xbd6fafaa	-0.058517136
241	0x3d46880d	0.048469592
242	0xbc977c08	-0.01849176
243	0x3d1021c2	0.035188444
244	0xbcb262be	-0.0217756
245	0x3d887810	0.06663525
246	0xbcde4a1d	-0.02713495
247	0x3dc8e3e2	0.0980909
248	0x39669866	0.00021991282
249	0x3d807655	0.0627257
250	0xbd1e0803	-0.03858186
251	0xbc8cab0e	-0.017171409
252	0x3db6095e	0.088885054
253	0xbdb4a59a	-0.088206485
254	0x3df7ae2e	0.12093769
255	0x3deeba7e	0.11656664

encoder_lstm.weight_hh_l0 f4 [256, 64]
0	0x3c27ddd8	0.010245763
1	0xbdb19fef	-0.08673083
2	0x3dcb126b	0.09915622
3	0xbd8491fa	-0.06473155
4	0xbddb7f5c	-0.10717651
5	0xbdd4fef2	-0.104001895
6	0xbd831cc1	-0.06401969
7	0xbdd230bd	-0.10263202
8	0x3dc5ad4e	0.09652196
9	0xbd6187ec	-0.055061266
10	0x3b7b23a0	0.0038320795
11	0xbd55e16b	-0.05221693
12	0xba292e3d	-0.00064537284
13	0xbe113526	-0.14180431
14	0x3d82a90a	0.06379898
15	0x3dcdb37d	0.10044
16	0x3df07216	0.1174051
17	0xbd5e4bf8	-0.05427167
18	0x3da06d12	0.078333035
19	0xbc2274f7	-0.009915582
20	0x3d6d4dbb	0.057935458
21	0xbd96b9ab	-0.07359632
22	0x3dd8fab6	0.10594694
23	0xbd66dc65	-0.05636253
24	0xbdb12423	-0.08649471
25	0xbdeffd41	-0.11718226
26	0xbd639906	-0.055565856
27	0x3d83d868	0.064377606
28	0xbdbcabdc	-0.09212467
29	0x3d823ca2	0.06359221
30	0xbd94d5f4	-0.07267371
31	0x3da085b8	0.07838005
32	0x3dbfdbae	0.093680725
33	0xbd7f1939	-0.062279914
34	0x3e053985	0.13010223
35	0x3dd1b45a	0.102394775
36	0xbdcbe6b3	-0.09956112
37	0xbd61b4a5	-0.055103917
38	0xbd0b58d2	-0.034020253
39	0xbd8d244f	-0.06891691
40	0xbdae7158	-0.08517712
41	0x3d465dd6	0.048429333
42	0x3d986f28	0.07443076
43	0xbdc902f0	-0.098150134
44	0x3d1ea838	0.038734645
45	0xbdbe43ab	-0.092902504
46	0x3cde1e96	0.027114194
47	0xbba06945	-0.0048953616
48	0xbde2b759	-0.11070127
49	0x3c917f5a	0.017760921
50	0x3d9d81bd	0.07690761
51	0x3e00a1eb	0.12561767
52	0x3dd431e8	0.10361081
53	0x3d56c86c	0.05243723
54	0xbe0720a2	-0.13196042
55	0x3da14f64	0.07876471
56	0x3d00f07e	0.03147935
57	0xbdb4a21b	-0.08819982
58	0xbc13555d	-0.00899252
59	0xbc4d694c	-0.012537312
60	0xbdd92236	-0.10602228
61	0xbc37ee2c	-0.011226218
62	0xbd714396	-0.058902346
63	0x3dc67231	0.09689749
64	0x3d564865	0.052315135
65	0x3dc06fe4	0.093963414
66	0x3c649989	0.013952621
67	0x3dd36860	0.10322642
68	0x3d8099f3	0.062793635
69	0x3da8ba75	0.08238689
70	0xbd504246	-0.050844453
71	0x3d7c9ea5	0.061674733
72	0x3daa7b3e	0.08324288
73	0xbd022f10	-0.031783164
74	0x3d74f951	0.05980808
75	0xbdc8677d	-0.09785364
76	0xbbe322a1	-0.0069316183
77	0xbde7ed49	-0.113245554
78	0x3d9844ba	0.074349836
79	0xbe127f84	-0.14306456
80	0x3d7dcf5b	0.061965328
81	0xbd632d44	-0.05546309
82	0x3dd36cff	0.10323524
83	0xbd52e45d	-0.051487315
84	0x3a3ef8b8	0.0007284987
85	0x3df85a3a	0.12126584
86	0x3d5b5621	0.053548936
87	0x3d373f6a	0.04473821
88	0x3e05359e	0.13008735
89	0x3da56045	0.080750026
90	0xbd8d9617	-0.06913393
91	0x3d4b1d13	0.049588274
92	0xbd3509f8	-0.04419896
93	0xbdde99ec	-0.10869202
94	0xbdec8311	-0.115484364
95	0xbd43b761	-0.047782306
96	0x3c6dbb19	0.01450994
97	0xbd9451e7	-0.07242184
98	0x3db42a11	0.08797086
99	0xbdb3ab0d	-0.0877286
100	0x3cae47cf	0.021274475
101	0x3dfe03d2	0.124030724
102	0x3c7a38ec	0.01527236
103	0x3d976574	0.073923975
104	0xbd9d3815	-0.076767124
105	0x3b08b5e8	0.0020860378
106	0x3da7a7f0	0.081863284
107	0xbcf719d5	-0.030163685
108	0x3d740bf0	0.059581697
109	0xbc0a900f	-0.008457198
110	0xbd9e482d	-0.0772861
111	0x3d9c84eb	0.076425396
112	0xbdc62370	-0.09674728
113	0xbd0b7e21	-0.034055833
114	0xbb1c3ac1	-0.002383873
115	0xbdae600a	-0.08514412
116	0xbd8c3b02	-0.06847192
117	0xbdc103d4	-0.09424558
118	0x3d60d4e4	0.05489053
119	0x3dd5c2d5	0.10437552
120	0xbda9dac7	-0.082936816
121	0x3c06a295	0.0082174735
122	0xbb577ff0	-0.0032882653
123	0x3d8acdc3	0.06777527
124	0x3de49fd2	0.11163296
125	0x3df112ab	0.11771139
126	0x3b908f77	0.0044116336
127	0xbcaf46d3	-0.021396076
128	0xbbc8344c	-0.00610975
129	0xbde4979d	-0.111617304
130	0x3d84f1a2	0.064914
131	0xbcafdea7	-0.021468474
132	0xbb3bb03d	-0.0028638982
133	0xbd7712eb	-0.060320776
134	0x3db26ebd	0.08712528
135	0x3db51f9b	0.08843919
136	0xbda60f13	-0.08108344
137	0xbcbad55d	-0.022806818
138	0x3d6564b7	0.056004252
139	0xbd6c900c	-0.05775456
140	0xbd09480d	-0.03351598
141	0xb9b7a188	-0.0003502483
142	0x3c827b7e	0.015928026
143	0xbdb07208	-0.086155
144	0x3ddf7389	0.109107085
145	0xbdce630e	-0.10077487
146	0xbd51d895	-0.05123194
147	0x3b4fe5cc	0.0031722663
148	0xbda0a6ee	-0.07844339
149	0x3e07d5cb	0.1326515
150	0x3e0b5bf3	0.13609295
151	0xbda22a02	-0.079181686
152	0x3d41f2a2	0.047350533
153	0xbda542b2	-0.08069362
154	0x3dca85d7	0.09888809
155	0x3d936c07	0.07198339
156	0xbdca0654	-0.09864488
157	0x3d00cd91	0.031446043
158	0x3cd216dc	0.025645666
159	0xbdb1d07a	-0.08682342
160	0xbdfb8dd0	-0.12282908
161	0xbd363d81	-0.04449225
162	0xbd09c899	-0.03363857
163	0x3d3f0210	0.046632826
164	0x3d8672ed	0.06564889
165	0x3db70099	0.08935661
166	0xbb847840	-0.004042655
167	0x3d67be2e	0.056577854
168	0xbd09e8e0	-0.033669353
169	0x3d9beb8f	0.076132886
170	0x3d107640	0.035269022
171	0x3db315e8	0.08744413
172	0x3d4cb7fc	0.04998015
173	0x3d91bb9f	0.07115864
174	0x3e0651ea	0.13117185
175	0xbd0a03f9	-0.033695195
176	0xbdb0f07f	-0.08639621
177	0xbda9e60c	-0.08295831
178	0x3da3c760	0.07997012
179	0x3dcdf46e	0.10056387
180	0xbd8a4bfa	-0.06752773
181	0x3d80d1bb	0.06290003
182	0xbdbba460	-0.091622114
183	0x3d9133ac	0.07089934
184	0xbcd6af31	-0.026206585
185	0xbddef949	-0.10887391
186	0xbd3da0fe	-0.046296112
187	0xbdb2660a	-0.08710869
188	0xbc62e23c	-0.013847884
189	0xbcdc22b5	-0.026872018
190	0xbe004eb9	-0.1253003
191	0x3c0afa82	0.008482577
192	0xbd83ae98	-0.064297855
193	0xbd6b14d3	-0.057392906
194	0xbd9a98e2	-0.07548691
195	0xbdfd7e0b	-0.123775564
196	0xbde35089	-0.11099345
197	0xbd1c969e	-0.038229577
198	0x3df15692	0.1178409
199	0xbd4541f1	-0.04815859
200	0xbd859944	-0.06523374
201	0x3d5a98cf	0.053368386
202	0x3bee17a4	0.007266002
203	0x3d7ce85b	0.06174503
204	0x3df09446	0.11747031
205	0x3cfef234	0.03112135
206	0x3d0c1319	0.0341979
207	0x3db29894	0.08720508
208	0xbdd4b7bd	-0.10386608
209	0xbdb1b610	-0.08677304
210	0x3dd6b921	0.10484529
211	0xbd9cef2a	-0.076628044
212	0xbe021aa2	-0.12705472
213	0x3dda9914	0.106737286
214	0xbd9582f8	-0.07300371
215	0x3d4bfa0e	0.049799018
216	0x3c2d3e37	0.010573915
217	0x3dac81de	0.08423208
218	0x3d08bca1	0.033383016
219	0x3dbfe326	0.09369497
220	0x3dc83f68	0.09777719
221	0xbda49883	-0.08036902
222	0x3dd0dd9f	0.10198521
223	0xbd8e996d	-0.069628574
224	0x39fbeedc	0.00048052415
225	0xbe083663	-0.13301997
226	0x3dba3226	0.09091596
227	0xbc9359e1	-0.017987194
228	0x3d236e58	0.039900154
229	0x3d479a34	0.048731044
230	0x3d89eb33	0.06734314
231	0x3dd87a8f	0.10570251
232	0xbdeb9e1f	-0.115047686
233	0xbd3f2541	-0.046666387
234	0xbddfd4fc	-0.109292954
235	0xbd9b69fb	-0.075885735
236	0x3b932f60	0.0044917315
237	0xbda40973	-0.08009615
238	0x3e037e22	0.12841085
239	0xbc017e54	-0.007903654
240	0x3d95fba4	0.07323387
241	0x3cf447d9	0.029819416
242	0xbdcf2e88	-0.10116297
243	0xbcd11e84	-0.025527246
244	0x3dd2405c	0.10266182
245	0x3d37151a	0.04469786
246	0x3d409840	0.047020197
247	0x3e0731b1	0.1320255
248	0x3d0caeea	0.0343465
249	0xbdb7540e	-0.08951579
250	0x3d9a6214	0.07538238
251	0x3da2690d	0.07930193
252	0x3da87a55	0.08226458
253	0x3d1cb68f	0.03826004
254	0xbdccafad	-0.09994445
255	0x3dc8f553	0.09812417

encoder_lstm.bias_ih_l0 f4 [256]
0	0x3da7b84b	0.08189448
1	0xbbe35946	-0.0069381325
2	0x3d3b9c19	0.045803163
3	0x3c18a463	0.009316537
4	0x3d64c477	0.055851426
5	0x3dc51a71	0.09624184
6	0x3d426b11	0.047465388
7	0x3d9f64df	0.077829115
8	0xbe09dba5	-0.13462694
9	0xbdccb24d	-0.09994946
10	0xbe0185f0	-0.1264875
11	0xbdea815a	-0.11450453
12	0x3c960323	0.018312043
13	0x3d7444e7	0.059636023
14	0xbdb873f8	-0.09006494
15	0xbdead61a	-0.11466618
16	0xbdfa8b6a	-0.12233622
17	0x3d62398f	0.055230673
18	0xbc59b9b5	-0.013288905
19	0x3ddb6645	0.10712866
20	0x3cd74994	0.026280202
21	0x3d5b3616	0.053518377
22	0x3d5ecce8	0.054394633
23	0x3d9a45a1	0.07532812
24	0xbb2381bd	-0.0024949156
25	0xbbe8b87b	-0.00710207
26	0x3d19e36f	0.037570413
27	0x3db3643b	0.08759352
28	0xbdcc780d	-0.09983835
29	0xbdc7ce51	-0.097561486
30	0x3d94679f	0.07246327
31	0x3da732f6	0.08164017
32	0xbdeaedd1	-0.11471141
33	0xbdb6ef9d	-0.08932421
34	0x3d888d6d	0.066676
35	0x3d56695c	0.052346572
36	0x3dd61862	0.104538694
37	0xbd9e964a	-0.07743509
38	0x3daf3151	0.08554328
39	0x3cd8dda5	0.026472876
40	0x3d8e9263	0.06961515
41	0xbdd05c8d	-0.10173903
42	0x3dbad7a1	0.09123159
43	0xbba96b6b	-0.005170276
44	0x3d9a2540	0.07526636
45	0xbb820263	-0.0039675697
46	0xbd8b2b18	-0.06795329
47	0x3d3cb39b	0.046069723
48	0xbdd6073b	-0.10450598
49	0xbda84803	-0.0821686
50	0x3d853fac	0.06506285
51	0xbd6275d0	-0.055288136
52	0xbd399e14	-0.04531677
53	0xbdb73344	-0.08945325
54	0x3d4dec1a	0.050273992
55	0xbdfcf721	-0.123518236
56	0x3b720393	0.00369284
57	0xbdac25dd	-0.08405659
58	0xbc991676	-0.018687468
59	0xbbeca55f	-0.007221862
60	0x3d692961	0.056924228
61	0xbd77ace0	-0.0604676
62	0x3d5f1575	0.054463822
63	0xbd9d61bd	-0.07684658
64	0xbe00a056	-0.12561163
65	0xbdc7e112	-0.09759726
66	0xbe076983	-0.13223843
67	0xbd284935	-0.04108544
68	0xbd649dd2	-0.05581457
69	0xbc95456a	-0.018221576
70	0x3d5298dd	0.051415313
71	0xbdda7b60	-0.10668063
72	0xbd0eedd5	-0.034894783
73	0xbdbe4072	-0.09289636
74	0xbde95f8e	-0.11395179
75	0xbd8cdb5a	-0.068777755
76	0x3d8e8fcb	0.0696102
77	0x3d7a9472	0.061176725
78	0xbd42ceed	-0.04756062
79	0x3d2f5477	0.04280516
80	0x3d0e7fb6	0.034789763
81	0x3cce179c	0.025157742
82	0xbd7f72e4	-0.062365428
83	0xbd22aac5	-0.03971364
84	0xbcbae3c9	-0.022813695
85	0xbe0017e5	-0.12509115
86	0xba0fc4ec	-0.0005484361
87	0xbdc6b1d1	-0.097018845
88	0x3d9de1e9	0.077091046
89	0xbbe29007	-0.006914142
90	0xbdc551d0	-0.09634745
91	0x3dae3861	0.08506847
92	0xbd5d1554	-0.05397542
93	0x3cb7ec05	0.02245141
94	0xbd9eee65	-0.07760314
95	0x3de3167e	0.110882744
96	0xbd9b7db8	-0.07592338
97	0xbda4a457	-0.08039158
98	0xbdfb7ff9	-0.12280268
99	0xbd81be56	-0.06335132
100	0x3c8be6bb	0.017077794
101	0xbd9c1ba6	-0.07622461
102	0xbda1e04c	-0.07904109
103	0xbddd5e05	-0.108089484
104	0xbd62a33c	-0.055331454
105	0xbdc7e992	-0.09761347
106	0x3dc54488	0.09632212
107	0x3b97c9e1	0.00463222
108	0xbdce7d8c	-0.1008254
109	0xbc118929	-0.008882799
110	0xbcc4d9dd	-0.024029667
111	0xbc7cb609	-0.01542426
112	0x3d5df7da	0.054191448
113	0x3db5b65f	0.08872675
114	0xbd8e9a2e	-0.06963001
115	0x3db335e9	0.08750517
116	0xbd77cc38	-0.060497493
117	0xbdb70038	-0.089355886
118	0x3d445ecf	0.04794198
119	0xbde78d80	-0.11306286
120	0xbd17c045	-0.037048597
121	0xbdc97344	-0.09836438
122	0xbd5dd9ca	-0.054162778
123	0x3cbff112	0.023430381
124	0xbe000e9e	-0.12505576
125	0x3bfc37de	0.0076970896
126	0xbdf93ffa	-0.12170406
127	0x3dacc154	0.08435312
128	0x3d5936c8	0.05303076
129	0xbd5a31dc	-0.053270206
130	0xbd80e2cd	-0.06293259
131	0x3d819fc4	0.06329301
132	0x3d213225	0.039354462
133	0xbdd82368	-0.10553628
134	0x3d807a30	0.062733054
135	0x3d74737f	0.05968046
136	0xbdaf7bdc	-0.08568546
137	0xbbd39f30	-0.0064581856
138	0xbd811682	-0.06303121
139	0x3dd44abd	0.10365818
140	0xbddbfece	-0.107419595
141	0x3dcea898	0.100907505
142	0xbd00cdcf	-0.031446274
143	0x3d8c03f4	0.068366915
144	0xbde432de	-0.11142515
145	0xbd6c3958	-0.057671875
146	0x3d2781bc	0.04089521
147	0x3d1df1b2	0.038560577
148	0x3d986b19	0.07442302
149	0xbd78774a	-0.060660638
150	0x3cde9b73	0.027173733
151	0x3ce79d2e	0.028273191
152	0xbd8700b2	-0.065919295
153	0x3c836955	0.016041437
154	0x3e09eb5c	0.13468689
155	0x3c48a713	0.012246865
156	0xbd6a52ad	-0.057207752
157	0x3da87a84	0.08226493
158	0xbd098756	-0.033576332
159	0x3d6a06e5	0.05713548
160	0x3de7105e	0.11282419
161	0xbd80e6cd	-0.06294022
162	0xbda84ab0	-0.082173705
163	0xbc9cf825	-0.019161293
164	0x3dc42526	0.09577398
165	0xbd24ab88	-0.040202647
166	0xbdb8e2b7	-0.090276174
167	0x3d748d5e	0.05970513
168	0x3d8227c0	0.06355238
169	0x3c6ccf60	0.014453739
170	0xbd876ef4	-0.066129595
171	0x3cc17e6e	0.023619857
172	0x3d6d6604	0.057958618
173	0x3cb55d0d	0.022139097
174	0xbdb1c88a	-0.08680828
175	0x3d8a1ce3	0.06743791
176	0x3d2d618b	0.042329352
177	0x3b16bef9	0.0023002012
178	0x3cb04d95	0.021521369
179	0xbc33a0b6	-0.010963609
180	0x3dc58bb6	0.09645788
181	0x3d9cb144	0.07650998
182	0x3d205cb6	0.039150916
183	0xbd576a03	-0.052591335
184	0x3d7c0a5c	0.061533317
185	0x3dbe8a2a	0.093036965
186	0x3c6acddc	0.014331307
187	0xbd9bce9e	-0.076077685
188	0x3d947bd5	0.072501816
189	0x3c9cc21e	0.019135531
190	0x3d944844	0.07240346
191	0xbcb5cddd	-0.02219289
192	0xbd9f2e24	-0.077724725
193	0x3dd4b548	0.10386139
194	0xbda6635b	-0.08124419
195	0x3dbd1833	0.09233131
196	0xbb68ebd5	-0.0035540957
197	0x3d370e0f	0.04469114
198	0x3cc1280d	0.023578668
199	0x3cfc234f	0.030778555
200	0x3dbb622e	0.09149586
201	0xbd53cb81	-0.05170775
202	0x3d4ea440	0.05044961
203	0x3dad0a46	0.08449225
204	0xbb8f9ce6	-0.0043827174
205	0x3d91c6ed	0.0711802
206	0xbdd439f2	-0.10362615
207	0x3dbae328	0.09125358
208	0xbc604827	-0.013689077
209	0x3ddf2454	0.10895601
210	0xbe019400	-0.12654114
211	0x3ca16f27	0.019706322
212	0xbc69b30d	-0.01426388
213	0x3d0de518	0.03464231
214	0xbd5fd602	-0.054647453
215	0x3de74536	0.11292498
216	0xbdbd028e	-0.09229003
217	0x3d3b86f2	0.04578299
218	0xbd5ad17b	-0.053422432
219	0xbcf1e2db	-0.029527118
220	0xbc23e035	-0.010002186
221	0x3da23c3e	0.079216465
222	0xbd6fb753	-0.05852444
223	0xbcd1a8cd	-0.025593186
224	0x3c9957fd	0.018718714
225	0x3ca96476	0.020677786
226	0x3d10df87	0.035369422
227	0x3d4de7c4	0.050269857
228	0xbdbcfbe1	-0.092277296
229	0xbdbfe8a3	-0.09370544
230	0x3dc719d7	0.097217254
231	0x3d4c840a	0.04993061
232	0x3d7d1e8f	0.06179672
233	0xbcdad900	-0.026714802
234	0xbdd0c555	-0.10193888
235	0xbd99b0c0	-0.075044155
236	0xbceb71eb	-0.028740844
237	0xbc96ea56	-0.018422287
238	0x3c6b7a6f	0.014372452
239	0x3da8ac81	0.082360275
240	0x3d042574	0.03226228
241	0xbd8ef522	-0.06980349
242	0x3be5334c	0.0069946405
243	0x3da5e2be	0.08099888
244	0xbc7ac1f1	-0.015305028
245	0x3cdbc62a	0.02682789
246	0xbbd9a761	-0.0066422676
247	0xbd2bf6f8	-0.041983575
248	0xbdbc3057	-0.091889076
249	0xbdc1b8ee	-0.09459101
250	0x3ca384de	0.019960817
251	0x3db0bded	0.086299755
252	0xbd7c6da7	-0.06162801
253	0x3d1d99de	0.038476817
254	0x3d62b529	0.05534855
255	0x3dc4a6fe	0.09602164

encoder_lstm.bias_hh_l0 f4 [256]
0	0xbda1e254	-0.07904497
1	0x3dd9ce27	0.106350236
2	0xbe0536df	-0.13009213
3	0xbdad4a91	-0.08461488
4	0x3da49108	0.08035475
5	0xbdbe59d7	-0.09294479
6	0x3d3d27f1	0.04618067
7	0x3dc4672b	0.0958999
8	0xbce07409	-0.02739908
9	0xbd431428	-0.047626644
10	0x3d5c4f88	0.053786784
11	0x3dbe745c	0.092995375
12	0x3dcc94bb	0.099893056
13	0xbdbaae93	-0.09115329
14	0x3d9266e2	0.071485296
15	0x3dec61e2	0.11542107
16	0xbde73cd4	-0.11290899
17	0xbd97c177	-0.07409947
18	0x3ab01bf3	0.0013436064
19	0x3df10547	0.11768585
20	0xba27863e	-0.0006390548
21	0xbcd3349f	-0.025781928
22	0xbb5a1625	-0.003327736
23	0x3dba3433	0.090919875
24	0xbd50b3fe	-0.050952904
25	0xbd044e86	-0.03230145
26	0xbd47a665	-0.04874267
27	0x3d519833	0.05117054
28	0x3c5cd4df	0.013478487
29	0xbda74b1f	-0.08168625
30	0xbce4d838	-0.027935132
31	0xbd51a58a	-0.05118326
32	0x3ca269e4	0.019825883
33	0xbd2d9348	-0.042376786
34	0xbdc8b277	-0.097996645
35	0x3adce5c4	0.0016853143
36	0xbdfa630a	-0.122259215
37	0xbdcc686e	-0.09980856
38	0x3dcac8d9	0.0990159
39	0xbca40a66	-0.02002449
40	0xbd2a3c79	-0.041561577
41	0xbc9ac329	-0.018891888
42	0x3dbba11b	0.09161588
43	0x3cd6fc2f	0.026243297
44	0x3bea8edb	0.007158143
45	0xbd4019fc	-0.04689978
46	0x3d7e1daf	0.062040027
47	0xbdc66d1d	-0.096887805
48	0xbdc4baf1	-0.09605969
49	0x3d903072	0.0704049
50	0x3d0dd666	0.034628294
51	0xbd818513	-0.0632421
52	0xbdf1b4a3	-0.11802032
53	0xbe183abe	-0.14866158
54	0xbd74f2b3	-0.05980177
55	0xbdd7f3e9	-0.10544569
56	0xbd7f89cc	-0.062387273
57	0x3dc1a535	0.09455339
58	0xbdf71b3f	-0.12065744
59	0xbe005c99	-0.12535323
60	0x3d3139a3	0.043267857
61	0xbd82e33b	-0.06390997
62	0xbde0cf7a	-0.10977073
63	0xbdb30fc7	-0.08743244
64	0x3dd201b9	0.10254235
65	0xbc22fb3f	-0.009947597
66	0x3d040c0e	0.03223806
67	0x3d885680	0.066571236
68	0xbdf8b87b	-0.12144562
69	0xbd1c0913	-0.03809459
70	0x3de5a55d	0.11213181
71	0x3dc290aa	0.09500249
72	0x3d4cd4bf	0.050007578
73	0xbc1f5b6b	-0.009726386
74	0xbc1d647e	-0.009606479
75	0x3ca0dce6	0.019636583
76	0x3dd03e09	0.10168082
77	0x3c5ac770	0.013353214
78	0x3dd95ca3	0.10613372
79	0x3dccd848	0.1000219
80	0xbc94f885	-0.01818491
81	0xbd7d79ac	-0.061883613
82	0xbdf315ff	-0.1186943
83	0xbdc7e123	-0.09759738
84	0xbbd279c5	-0.0064232075
85	0x3dbaa511	0.09113515
86	0x3c7fd878	0.015615575
87	0xbd8bf231	-0.06833304
88	0xbda9c39f	-0.08289265
89	0xbc6f4f83	-0.014606359
90	0x3c69e977	0.014276854
91	0x3d8fa62b	0.07014116
92	0x3d495b02	0.049159057
93	0xbc2f568e	-0.010701789
94	0xbdcfadff	-0.10140609
95	0xbdd3b510	-0.10337269
96	0x3b23126f	0.0024882813
97	0xbdcad289	-0.09903438
98	0x3db5563d	0.08854339
99	0xbd661f8b	-0.056182425
100	0xbce52f75	-0.02797673
101	0xbda34f42	-0.079741016
102	0x3b957d33	0.004562044
103	0xbc311715	-0.010808726
104	0xbc2fc1c5	-0.010727351
105	0xbd2dbd69	-0.042416964
106	0x3ccbba2c	0.024869047
107	0x3d057b5f	0.03258836
108	0xbd86f05e	-0.06588815
109	0x3def456d	0.11683164
110	0xbb8b4533	-0.0042501925
111	0x3d591869	0.053001795
112	0xbdc12863	-0.09431531
113	0xbd8d0c66	-0.068871304
114	0x3cf33e10	0.02969268
115	0x3ca955f5	0.02067087
116	0xbdc412bf	-0.09573888
117	0xbe0afd4b	-0.13573186
118	0x3dbc0929	0.09181435
119	0xbe02a07b	-0.12756531
120	0xbdf580f2	-0.11987485
121	0xbc8bc409	-0.01706125
122	0xbdc8f297	-0.09811895
123	0xbd0c11be	-0.034196608
124	0xbde8d6e9	-0.11369116
125	0x3d393561	0.04521692
126	0xbd8043b8	-0.06262916
127	0xbdf91a96	-0.12163274
128	0xbdf09d3d	-0.11748741
129	0xbbb4ae65	-0.0055139535
130	0xbd39d1b4	-0.045366004
131	0xbcff0674	-0.031131007
132	0xbd5f8ecc	-0.05457954
133	0xbd794e34	-0.060865596
134	0xbdaf6a3f	-0.08565187
135	0x3c03c7b6	0.00804322
136	0xbdafb698	-0.08579749
137	0x3cf13be3	0.029447502
138	0xbd227bc9	-0.039668832
139	0xbd266107	-0.040619876
140	0x3d192f6a	0.037398733
141	0x3d414aa1	0.047190312
142	0x3cb65a5e	0.022259887
143	0x3ddec1be	0.10876797
144	0x3d8173c8	0.06320912
145	0xbda7c30b	-0.08191498
146	0xbd3bb374	-0.045825437
147	0x3d44c15f	0.048035976
148	0xbd5fcd00	-0.054638863
149	0xbd09fdc0	-0.03368926
150	0xbda2d7bb	-0.079513036
151	0x3d660e70	0.056166112
152	0x3d024280	0.0318017
153	0x3d1e0714	0.03858097
154	0xbd1c0c62	-0.038097747
155	0x3da89f37	0.08233493
156	0x3d795a58	0.060877174
157	0xbd1c1eb4	-0.03811522
158	0x3d59226b	0.05301134
159	0x3d26e2c9	0.040743623
160	0x3d986064	0.0744026
161	0x3d8ef17d	0.06979654
162	0x3d099d7e	0.033597462
163	0x3d855719	0.06510753
164	0xbd48b866	-0.04900398
165	0x3d431f10	0.047637045
166	0x3d8bcb2c	0.06825861
167	0xbbba713c	-0.005689768
168	0xbd570592	-0.052495547
169	0x3d11c3d5	0.03558715
170	0x3dc65b64	0.096854
171	0x3d109fd1	0.035308663
172	0x3c6db630	0.014508769
173	0x3d40aedb	0.047041755
174	0xbd274ba4	-0.04084362
175	0x3de000e7	0.10937672
176	0xbd240640	-0.040045023
177	0xbd6d4abc	-0.0579326
178	0x3d2e2adc	0.042521343
179	0xbcd580c1	-0.026062371
180	0xbd590d8e	-0.052991442
181	0xbdaefc96	-0.08544271
182	0xbd2c961c	-0.042135343
183	0xbce2b1e9	-0.027672725
184	0x3cb88bc8	0.02252759
185	0x3d91417c	0.07092568
186	0x3dae0e95	0.08498875
187	0x3da5709e	0.08078121
188	0xbd8cfe95	-0.06884495
189	0xbda71639	-0.081585355
190	0x3d603285	0.05473568
191	0x3b466d2c	0.0030277474
192	0xbe03f36a	-0.12885824
193	0xbdceb2f8	-0.10092729
194	0x3ccdb68e	0.025111463
195	0xbdf4fb29	-0.119619675
196	0x3b9e57bd	0.0048322366
197	0x3c37b4ea	0.011212567
198	0x3afd4230	0.0019322094
199	0x3dd2ded5	0.10296408
200	0x3dccc5f8	0.09998697
201	0x3cb2eef2	0.021842454
202	0xbd999954	-0.07499948
203	0xbdf3d238	-0.119053304
204	0xbcdc0872	-0.026859496
205	0xbc4905be	-0.012269435
206	0xbdc024c8	-0.093820155
207	0x3dc9b9a2	0.0984986
208	0xbd42dfee	-0.047576837
209	0x3dda393c	0.10655448
210	0xbdf5dfeb	-0.120055996
211	0xbd946d43	-0.072474025
212	0xbcdd8922	-0.02704293
213	0x3ccf382f	0.025295345
214	0x3d9d8e7f	0.076931946
215	0xbce8cf12	-0.028419051
216	0x3c328ef2	0.010898339
217	0x3d29794a	0.041375436
218	0x3c703ce1	0.014662952
219	0xbdc39afe	-0.09551047
220	0xbda42d63	-0.08016469
221	0xbdeb7af6	-0.11498062
222	0xbdfdc257	-0.12390583
223	0xbde20c5d	-0.11037514
224	0xbdddd697	-0.108319454
225	0x3cf13743	0.029445296
226	0xbdd2f0e7	-0.10299855
227	0xbd6b7a9a	-0.05748997
228	0x3cc1a344	0.023637421
229	0x3d66edf6	0.05637928
230	0xbba5effc	-0.0050640088
231	0xbdda89f3	-0.10670843
232	0x3de93672	0.11387338
233	0x3de16b06	0.11006741
234	0x3c280d90	0.01025714
235	0x3d3c0108	0.04589942
236	0xbdcda624	-0.100414544
237	0xbd9fb952	-0.07799019
238	0xbd5cc7a5	-0.053901333
239	0xbdc300fd	-0.09521673
240	0xbdd865a5	-0.10566262
241	0xbddd9d80	-0.10821056
242	0xbd4f47cb	-0.050605576
243	0x3d71413e	0.05890011
244	0xbcde665e	-0.027148422
245	0x3db80f70	0.089873195
246	0x3bfe68a9	0.0077639413
247	0xbd65a98d	-0.0560699
248	0xbe005480	-0.12532234
249	0x3c9f5d5e	0.0194537
250	0xbdac2381	-0.08405209
251	0x3cce4033	0.025177097
252	0x3bfb69c0	0.0076725185
253	0xbd814735	-0.0631241
254	0x3d70c86d	0.05878489
255	0xbce199e4	-0.027539201

encoder_lstm.weight_ih_l1 f4 [256, 64]
0	0xbd72b303	-0.05925275
1	0x3dbda333	0.092596434
2	0x3c42ab29	0.011881628
3	0x3c9175d0	0.017756373
4	0x3d5cbb3f	0.05388951
5	0xbcb03504	-0.021509655
6	0x3de07190	0.1095916
7	0xbdf0d171	-0.11758698
8	0xbdaebadc	-0.08531734
9	0xbc16e1e0	-0.009209126
10	0x3d7b6ade	0.061381213
11	0x38c73a14	9.499877e-05
12	0xbcf6080a	-0.03003313
13	0xbdcfdecc	-0.10149917
14	0xbbce2d8c	-0.0062920507
15	0xbcec7b0f	-0.028867273
16	0x3e175a03	0.1478043
17	0xbd0ff726	-0.03514781
18	0x3dca56f9	0.0987987
19	0xbd19eec5	-0.037581224
20	0x3c495f04	0.01229072
21	0xbd3a4760	-0.045478225
22	0xbd8ae127	-0.06781226
23	0x3ad7736d	0.0016437598
24	0xb90f8fa6	-0.00013691056
25	0x3db9b31f	0.09067368
26	0xbd741f4b	-0.059600156
27	0x3dda0b77	0.10646718
28	0x3de2d35f	0.11075472
29	0xbdf6b476	-0.12046139
30	0x3daa9d4e	0.08330785
31	0x3b40d8dc	0.0029426133
32	0xbdede4ce	-0.11615907
33	0xbdf4011f	-0.11914276
34	0xbdcdcd7c	-0.10048959
35	0xbdc565f2	-0.09638585
36	0xbbb2f428	-0.0054612346
37	0xbde354e3	-0.11100175
38	0x3d00edcc	0.03147678
39	0x3d334fdc	0.04377733
40	0x3c942f5a	0.018088985
41	0xbd7633ef	-0.06010812
42	0xbc80f02d	-0.015739525
43	0xbd5673ce	-0.052356534
44	0x3d7acfef	0.061233457
45	0xbd421d0e	-0.04739099
46	0x3b7dedbc	0.0038746437
47	0x3d11c974	0.03559251
48	0xbdabe908	-0.083940566
49	0xbb8e1841	-0.0043363874
50	0xbe0c3e20	-0.13695574
51	0xbd9076b4	-0.07053891
52	0xbe06239b	-0.1309952
53	0xbd1ddd77	-0.038541283
54	0x3d28f931	0.041253272
55	0xbdd5ab78	-0.10433096
56	0x3c75f9a2	0.01501313
57	0x3d709f72	0.05874581
58	0x3c8c8824	0.01715476
59	0xbc196aaf	-0.009363814
60	0x3caf545b	0.021402529
61	0x3dde5cf4	0.10857573
62	0xbdb50652	-0.08839096
63	0x3e063190	0.13104844
64	0x3dc1bce6	0.09459858
65	0xbce4a343	-0.02790988
66	0x3d96280d	0.07331858
67	0x3dd638d6	0.10460059
68	0xbdb05d75	-0.086115755
69	0xbd9abb01	-0.075551994
70	0xbdd5fde0	-0.104488134
71	0x3ca5faee	0.020261254
72	0x3d9f7f86	0.07787995
73	0xbe0efc09	-0.13963331
74	0x3d99a898	0.0750286
75	0xbd73c4e4	-0.05951394
76	0xbdbe3255	-0.09286944
77	0xbe01a106	-0.12659082
78	0xbd8370b0	-0.06417978
79	0x3cb27a7c	0.02178692
80	0x3d8c6010	0.0685426
81	0x3cc2a449	0.023759978
82	0xbd8d2542	-0.06891872
83	0xbdac5099	-0.0841381
84	0xbc33c4c2	-0.010972204
85	0xbd9a8a22	-0.07545878
86	0xbb297703	-0.002585829
87	0x3c98b3ab	0.01864036
88	0xbd442e9b	-0.04789601
89	0xbc4bff76	-0.012451043
90	0xbd422893	-0.047401976
91	0xbdd3005e	-0.103028044
92	0x3db3d660	0.08781123
93	0xbdccbb87	-0.099967055
94	0xbd1728ac	-0.036904022
95	0xbdb5f55f	-0.088846914
96	0xbe098059	-0.13427867
97	0x3d8749fb	0.066059075
98	0x3e029733	0.1275299
99	0xbd5b827a	-0.05359123
100	0x3dac7d26	0.08422308
101	0x3d82cc72	0.06386651
102	0x3b9172bf	0.0044387276
103	0x3c7f0ded	0.015567285
104	0x3bfa465f	0.0076377834
105	0x3da2134c	0.07913837
106	0xbdaa0677	-0.08302014
107	0xbd45294c	-0.048135087
108	0x3d0ab245	0.033861417
109	0xbddf723f	-0.109104626
110	0x3d84731d	0.064672686
111	0xbde0f7b8	-0.109847486
112	0xbd53c5e6	-0.051702403
113	0xbdc5cc35	-0.0965809
114	0xbe075c50	-0.13218808
115	0xbdc5a81b	-0.09651204
116	0x3d4efb01	0.050532345
117	0x3c7bdd1f	0.015372544
118	0x3d61d269	0.055132303
119	0x3e0205ef	0.12697576
120	0xbd65737a	-0.05601833
121	0xbe06ffcb	-0.13183515
122	0x3dd82f62	0.105559126
123	0xbd798fef	-0.06092828
124	0x3e0809c7	0.1328498
125	0x3dbec83a	0.09315534
126	0x3a8c7a5c	0.0010717618
127	0xbc56f431	-0.013119743
128	0xbdd47966	-0.103747174
129	0x3dac8d48	0.08425385
130	0x3b3796f3	0.0028013557
131	0x3d273a71	0.04082722
132	0x3d3e21a7	0.046418812
133	0xbd75b41d	-0.059986223
134	0x3dd07814	0.10179153
135	0xbc23d3a4	-0.0099991895
136	0x3d52159f	0.05129015
137	0x3cbd4997	0.02310638
138	0xbd71ce34	-0.05903454
139	0xbdaf968e	-0.08573638
140	0x3ccc3f50	0.024932534
141	0x3dd683f7	0.10474389
142	0x3dd5296a	0.1040829
143	0xbd3deb11	-0.046366755
144	0x3d15ccb0	0.03657216
145	0xbd7b3707	-0.061331775
146	0x3dd3a42c	0.10334048
147	0x3d79a559	0.060948703
148	0xbde37ddf	-0.111079924
149	0x3d104088	0.03521779
150	0xbce5be8e	-0.028044965
151	0xbcfea3f2	-0.031084035
152	0xbdbbb070	-0.09164512
153	0x3daedf29	0.08538658
154	0x39287c31	0.00016067993
155	0xbd894bdd	-0.06703923
156	0xbda1c4cd	-0.07898865
157	0xbd699299	-0.057024572
158	0xbd1027a8	-0.03519407
159	0xbd95343f	-0.07285356
160	0xbddb100b	-0.10696419
161	0x3d12dece	0.035857014
162	0x3daba986	0.083819434
163	0x3d8b6e1f	0.06808113
164	0x3d5d64e1	0.054051284
165	0x3d73dd5d	0.05953728
166	0x3c7a8456	0.01529034
167	0x3cdeaeaf	0.027182905
168	0xbd103395	-0.035205442
169	0x3c24aa7a	0.01005041
170	0xbe0feaf4	-0.14054471
171	0xbd36b126	-0.044602536
172	0xbe1198bd	-0.14218421
173	0x3d90b4c2	0.07065727
174	0x3da501c7	0.080569796
175	0x3da2b9c9	0.07945592
176	0x3c311414	0.01080801
177	0x3daa794a	0.08323915
178	0xbbd9c3e2	-0.0066456655
179	0xbca1ce5a	-0.019751716
180	0x3d89f861	0.06736828
181	0xbc9c6835	-0.019092659
182	0xbcbafc68	-0.022825435
183	0x3dfc2ff4	0.12313834
184	0x3d5b2023	0.053497445
185	0xbd581454	-0.05275376
186	0xbd4469e8	-0.047952563
187	0x3db43201	0.087986
188	0xbc55e4bf	-0.013055026
189	0x3d4644c4	0.048405424
190	0x3ae5de04	0.0017537479
191	0x3db5813e	0.088625416
192	0x3da83610	0.082134366
193	0xbdd786aa	-0.10523732
194	0xbd9964f2	-0.07489957
195	0xbd81d976	-0.063403055
196	0x3b75b787	0.0037493424
197	0x3d27a0df	0.040924903
198	0x3dc775e6	0.09739284
199	0xbcd3a56f	-0.02583572
200	0xbdfed491	-0.124428876
201	0x3d7abfad	0.061217953
202	0xbde1933c	-0.11014411
203	0x3d9a19b6	0.07524435
204	0xbc46da62	-0.012137027
205	0xbbe12a43	-0.006871493
206	0xbdc959f0	-0.09831607
207	0x3dccd7d5	0.10002104
208	0x3cc8471c	0.02444797
209	0x3c79ecd6	0.01525422
210	0x3da7f742	0.082014576
211	0x3c8ef1c5	0.01744927
212	0xbc763421	-0.015027077
213	0x3d757dea	0.059934534
214	0xbdf5150d	-0.11966906
215	0x3dab98e0	0.08378768
216	0x3d24835a	0.04016433
217	0xbd7724f4	-0.060337976
218	0xbd86e83d	-0.06587265
219	0x3dccc8c5	0.09999231
220	0xba3946db	-0.0007067748
221	0x3dd8647a	0.105660394
222	0x3d0a7984	0.033807293
223	0xbcd497c0	-0.025951266
224	0xbdbc10e2	-0.09182908
225	0xbdd573ad	-0.10422454
226	0xbd762c6f	-0.06010097
227	0xbdae7536	-0.0851845
228	0x3dbdf547	0.092752986
229	0x3bae17a9	0.005312879
230	0xbd2785b8	-0.04089901
231	0x3ccfe01c	0.025375418
232	0xbcc0d64a	-0.023539681
233	0x3db51e34	0.088436514
234	0x3da73069	0.081635304
235	0xbdb9cb97	-0.09072035
236	0xbdc135c1	-0.09434081
237	0x3d10f5d6	0.035390697
238	0xbda2313c	-0.07919547
239	0x3cf32fd4	0.029685892
240	0xbd8f180e	-0.0698701
241	0x3d4511dc	0.048112735
242	0x3db2ecd1	0.087365754
243	0xbdd66293	-0.1046802
244	0x3e00b486	0.12568864
245	0xbc557528	-0.0130284205
246	0xbcde6131	-0.027145954
247	0x3dc7941d	0.09745047
248	0x3d930938	0.07179493
249	0xbd5ce580	-0.053929806
250	0xbdac1dde	-0.08404134
251	0x3d103c23	0.0352136
252	0xbdd89356	-0.10574977
253	0x3da2ca06	0.07948689
254	0x3c83c80f	0.016086606
255	0x3de2fde1	0.1108358

encoder_lstm.weight_hh_l1 f4 [256, 64]
0	0xbdcdb8ad	-0.1004499
1	0x3d97395a	0.07383986
2	0xbc8ce7a7	-0.017200304
3	0x3da40f23	0.080106996
4	0xbba7e336	-0.005123521
5	0xbd84bd42	-0.064814106
6	0x3e05ac10	0.13053918
7	0x3cec4ea1	0.028846087
8	0xbde8e142	-0.113710895
9	0xbda37797	-0.07981794
10	0xbdc614e8	-0.09671956
11	0x3dc382a0	0.09546399
12	0xbce3f8ae	-0.02782854
13	0x3dea0c34	0.11428109
14	0xbdd78868	-0.10524064
15	0x3d18b348	0.03728035
16	0x3d8b56c9	0.06803662
17	0xbda2b5c5	-0.07944826
18	0xbc9f36fc	-0.019435398
19	0x3b9e8a7e	0.004838287
20	0x3c19360a	0.009351263
21	0xbd0bf2d5	-0.03416713
22	0x3ddb2642	0.107006565
23	0xbdaff4bd	-0.08591602
24	0xbdd0a76b	-0.101881824
25	0x3ddd0a00	0.10792923
26	0xbdbe4bfd	-0.09291837
27	0xbdf267ed	-0.118362285
28	0x3d7b03c1	0.061282877
29	0x3db29669	0.08720095
30	0xbd1c7963	-0.0382017
31	0xbcb0372b	-0.021510681
32	0xbd42590b	-0.0474482
33	0x3d94b0a7	0.07260256
34	0x3d899137	0.06717151
35	0x3c9bb788	0.019008413
36	0xbdb9d3fe	-0.090736374
37	0x3c241723	0.010015282
38	0x3c998f2b	0.018745026
39	0xbe03d9b9	-0.12876023
40	0x3d347320	0.044055104
41	0xbddb6530	-0.10712659
42	0x3dbb12a6	0.09134416
43	0x3d485fa1	0.048919324
44	0x3d0ae41b	0.033908945
45	0x3c3c2975	0.0114844935
46	0x3da19db6	0.07891409
47	0xbd0b7217	-0.03404435
48	0x3dce730f	0.100805394
49	0x3e07168c	0.13192195
50	0x3d5f3116	0.05449017
51	0x39316459	0.00016917418
52	0x3dc65be5	0.09685496
53	0xbda25231	-0.07925833
54	0xbd463806	-0.048393272
55	0x3c5ff576	0.013669362
56	0x3d8387b4	0.06422368
57	0xbd5eb17c	-0.05436848
58	0xbdfaa2b6	-0.12238066
59	0xbd9cec27	-0.0766223
60	0xbdc6466b	-0.096814
61	0x3d6febf6	0.05857464
62	0xbd8d9968	-0.069140255
63	0xbd04bfb3	-0.03240938
64	0xbdb97a9b	-0.09056588
65	0x3d9eef8e	0.07760535
66	0xbd76ff6a	-0.060302176
67	0x3e005dff	0.12535857
68	0xbd8df138	-0.069307745
69	0xbde61028	-0.1123355
70	0xbc61cbe7	-0.013781524
71	0x3dafbe83	0.08581259
72	0xbd86033d	-0.065435864
73	0x3d66a4e8	0.05630961
74	0xbdacf090	-0.08444321
75	0xbd747a37	-0.059686866
76	0x3d047f74	0.03234811
77	0xbd8b085e	-0.06788705
78	0xbd955f79	-0.072936006
79	0xbd8493f4	-0.06473532
80	0xbdeb9f44	-0.11504987
81	0xbcf4abd0	-0.029867083
82	0x3de5dfaa	0.11224301
83	0x3cdda930	0.027058214
84	0x3cfd7b58	0.030942604
85	0xbdf774a8	-0.12082797
86	0xbd732f80	-0.05937147
87	0xbd898458	-0.06714696
88	0x3e087cc1	0.1332884
89	0x3d3fbcd6	0.046810947
90	0xbddff2ac	-0.10934958
91	0x3d08fd67	0.03344479
92	0xbddbc0eb	-0.107301556
93	0xbc6ca379	-0.014443272
94	0x3d0e2378	0.034701794
95	0xbdb12c5d	-0.0865104
96	0x3d9b66bb	0.07587954
97	0xbdcad990	-0.09904778
98	0x3dbc90ac	0.092072815
99	0xbd81f042	-0.06344654
100	0xbd1c0a1b	-0.038095575
101	0x3d97824d	0.073979
102	0xbd7b226d	-0.061312128
103	0xbbb684cc	-0.00557003
104	0xbc9d2a89	-0.019185321
105	0x3db4cacb	0.08827742
106	0x3d82e31b	0.06390973
107	0xbd65424e	-0.055971436
108	0xbc8b1f95	-0.016982833
109	0xbdc965aa	-0.09833844
110	0xbd942011	-0.07232679
111	0xbda4c1e7	-0.080447964
112	0xbdb1ff8a	-0.08691318
113	0xbdc00b88	-0.093771994
114	0xbb7bdd97	-0.0038431638
115	0x3df57ec6	0.11987071
116	0xbcd5b59b	-0.026087573
117	0xbdbb3952	-0.09141792
118	0xbcf771c2	-0.030205611
119	0xbc7365e6	-0.014855837
120	0x3c7d3511	0.015454547
121	0xbd69c16a	-0.05706922
122	0xbd895d2c	-0.06707224
123	0x3ce4c277	0.02792476
124	0x3da3a880	0.07991123
125	0x3d37af2a	0.044844784
126	0x3d60573d	0.054770697
127	0xbddb5324	-0.10709217
128	0xbd89482f	-0.06703221
129	0xbb9e84f2	-0.0048376257
130	0xbd94bd23	-0.072626375
131	0x3dee19a4	0.11625984
132	0xbd2fca06	-0.042917274
133	0xbe12725c	-0.14301437
134	0x3d868968	0.06569177
135	0x3e073c57	0.13206612
136	0x3d209bba	0.039211012
137	0x3ddefcdb	0.10888072
138	0x3d7e892c	0.062142536
139	0xbca6841d	-0.020326668
140	0xbc7e3fe8	-0.015518166
141	0x3de8a2c3	0.11359169
142	0x3d200ed6	0.03907665
143	0x3d4a66e1	0.04941452
144	0xbd1d707f	-0.038437363
145	0x3da7ab25	0.0818694
146	0x3e022884	0.12710768
147	0x3d60a3ac	0.05484359
148	0x3db55ce6	0.088556096
149	0x3d813070	0.06308067
150	0x3d8a2c4c	0.0674673
151	0xbd65c56f	-0.05609649
152	0x3ce91c26	0.028455805
153	0xbddd2977	-0.107989244
154	0xbde1650f	-0.110056035
155	0xbd5b33b9	-0.053516123
156	0x3d5ea113	0.05435283
157	0x3d4893d9	0.048969124
158	0xbdd37fe8	-0.103271306
159	0xbd82f8fe	-0.06395148
160	0xbdbffd87	-0.093745284
161	0x3d26c98e	0.04071956
162	0x3d36575d	0.04451691
163	0xbcdd4a51	-0.027012976
164	0xbd5cdded	-0.053922582
165	0x3da42c7c	0.08016297
166	0xbc2a3eb4	-0.010390926
167	0x3d41ff97	0.04736289
168	0x3c5cdf2e	0.013480945
169	0xbd11cb04	-0.035594
170	0x3bf94bef	0.007607929
171	0xbd98df09	-0.074644156
172	0xbc77ae7f	-0.015117287
173	0x3d4594db	0.048237663
174	0xbdb6182f	-0.088913314
175	0xbdfb3e0c	-0.12267694
176	0x3c704a96	0.01466622
177	0xbd36b4fb	-0.04460619
178	0xbdfa643f	-0.12226152
179	0x3da25377	0.07926076
180	0x3d6f273e	0.058387034
181	0x3df10968	0.11769372
182	0x3d12eaa8	0.035868317
183	0xbd2cdb0a	-0.04220108
184	0xbcc9b78c	-0.024623655
185	0x3d6c78b1	0.057732288
186	0x3c8bea52	0.017079506
187	0xbb9c696f	-0.004773311
188	0x3cd48014	0.025939979
189	0x3dbac90a	0.091203764
190	0xbc5f388f	-0.013624324
191	0x3dbef9e1	0.09325004
192	0xbd38fa81	-0.045160774
193	0xbd7aa11b	-0.0611888
194	0x3d23f610	0.040029585
195	0xbbf3f484	-0.00744492
196	0xbb36e6dd	-0.0027908601
197	0xbde0326b	-0.109471165
198	0xbc892776	-0.01674245
199	0x3dcc37ba	0.099715665
200	0x3c5c0d58	0.013430916
201	0xbde992b0	-0.114049315
202	0xbd1eac74	-0.038738683
203	0xbdeec1c4	-0.116580516
204	0x3d5e19b6	0.05422374
205	0xbc8cdc54	-0.017194904
206	0xbca718c1	-0.020397546
207	0x3d03f4dc	0.032215938
208	0x3d7e41fa	0.06207464
209	0x3e05c578	0.1306361
210	0x3b22645e	0.0024779062
211	0x3aaf80ae	0.001338979
212	0xbc24e820	-0.010065109
213	0x3d311d8e	0.043241076
214	0x3ddc5f3d	0.10760353
215	0x3d312e56	0.04325708
216	0xbd7dceed	-0.061964918
217	0xbe042426	-0.12904415
218	0x3d16afe3	0.036788832
219	0x3c87582c	0.016521536
220	0xbd1f3d8d	-0.03887706
221	0xbd65fdd2	-0.056150265
222	0x3c890d2f	0.01672992
223	0xbdf0e6f3	-0.117628
224	0x3c548964	0.01297221
225	0xbc259793	-0.010106939
226	0xbd46ed59	-0.048566196
227	0x3db939c7	0.09044223
228	0xbd820b75	-0.063498415
229	0xbd0957b4	-0.033530906
230	0xbc2d6d18	-0.010585092
231	0xbd63f6f0	-0.05565542
232	0xbdef6531	-0.116892226
233	0x3de702d6	0.11279838
234	0xbd5c32d7	-0.053759422
235	0xbd5f2eaa	-0.05448786
236	0x3d5a627b	0.053316575
237	0xbde64355	-0.11243311
238	0xbd8a8e08	-0.067653716
239	0x3ddad8ec	0.10685906
240	0xbdc2344c	-0.09482631
241	0x3d3a9bef	0.045558866
242	0xbda1ad51	-0.078943856
243	0xbb46fb53	-0.0030362203
244	0x3d09199a	0.03347168
245	0xbd205d28	-0.03915134
246	0x3df50dcf	0.119655244
247	0xbc3428cc	-0.010996055
248	0x3dd50e14	0.10403076
249	0xbdb4fd37	-0.088373594
250	0xbdf5a6f4	-0.119947344
251	0x3dbc2778	0.091872156
252	0xbdcf4b74	-0.101218134
253	0x3ce8f98c	0.028439306
254	0x3cf52730	0.029925913
255	0xbda303fe	-0.07959746

encoder_lstm.bias_ih_l1 f4 [256]
0	0xbdb19cb1	-0.08672465
1	0x3d7871aa	0.060655273
2	0xbdc95462	-0.09830548
3	0x3de25118	0.11050624
4	0x3de26977	0.11055272
5	0xbdd9e6ce	-0.106397256
6	0xbd9704c0	-0.07373953
7	0x3cca3533	0.02468357
8	0xbcd5b245	-0.026085982
9	0x3ca8090b	0.020512125
10	0x3cacb671	0.021083089
11	0xbdc62dad	-0.09676681
12	0x3d0c0392	0.034183092
13	0x3dacdacd	0.084401704
14	0x3d3b8c01	0.045787815
15	0xbbde3fff	-0.0067825313
16	0x3d892a7f	0.066975586
17	0xbdaec2f9	-0.08533282
18	0xbdb20916	-0.08693139
19	0x3d4423a8	0.047885567
20	0xbdb5241c	-0.08844778
21	0x3b45458e	0.0030101272
22	0xbdb1c7c3	-0.0868068
23	0xbc4261f5	-0.011864175
24	0xbe140867	-0.1445633
25	0xbe04316a	-0.12909475
26	0x3d9277fc	0.071517915
27	0xbc3cc28d	-0.011520994
28	0x3dc6f5a6	0.097148225
29	0x3b8b28d3	0.00424681
30	0x3d2c4e61	0.042066935
31	0xbb106052	-0.0022030068
32	0x3debc729	0.11512596
33	0xbe05b485	-0.13057144
34	0x3c902d69	0.017599778
35	0x3d7c2639	0.06155989
36	0x3d80ad63	0.06283071
37	0xbdfa50d3	-0.12222447
38	0xbc7aa8b9	-0.015299016
39	0x3d89da82	0.0673113
40	0x3cb9c46d	0.02267667
41	0x3ca6d701	0.020366194
42	0xbc5d94d5	-0.013524254
43	0x3b1a6d7d	0.0023563795
44	0x3cc99988	0.024609342
45	0xbd53c48b	-0.05170111
46	0x3dbf25f0	0.09333408
47	0x3db14150	0.086550355
48	0xbd862fee	-0.065521106
49	0x3dcfc735	0.101454176
50	0x3ddf64b3	0.10907879
51	0x3da7b216	0.08188264
52	0xbdc2eb27	-0.09517508
53	0x3db04817	0.086075
54	0x3df0511b	0.1173422
55	0x3dee0105	0.11621288
56	0xbdeb823b	-0.11499449
57	0xba32e7fa	-0.00068247283
58	0xbce4e3f6	-0.027940731
59	0xbc7d8457	-0.015473447
60	0xbd9064af	-0.07050454
61	0x3dd60f0b	0.10452088
62	0x3d4af01c	0.049545392
63	0xbd89841a	-0.067146495
64	0xbc8fbc7f	-0.017545937
65	0x3db6a594	0.089183
66	0xbde85174	-0.11343661
67	0xbdaf89ac	-0.08571181
68	0x3ddac6c6	0.10682444
69	0x3da49d05	0.080377616
70	0xbd1393bf	-0.036029574
71	0xbdb6a533	-0.08918228
72	0xbc30e0cf	-0.010795786
73	0x3cb5c9a8	0.022190884
74	0xbc21993d	-0.009863195
75	0xbdf7a90b	-0.12092789
76	0x3d8a5902	0.06755258
77	0x3dac940c	0.08426675
78	0x3d57e649	0.05270985
79	0xbcf74d3c	-0.030188195
80	0xbdd297d7	-0.102828674
81	0xbd75f704	-0.060050026
82	0x3a47d3d3	0.0007622812
83	0xbd9b5e04	-0.075862914
84	0xbdeb93ed	-0.11502824
85	0xbde4a460	-0.111641645
86	0xbd789ad8	-0.060694546
87	0xbdc60b4d	-0.09670124
88	0xbe0474db	-0.12935202
89	0xbdaa4f5c	-0.08315918
90	0x3cbbf149	0.022942202
91	0x3b5fc5cd	0.0034144998
92	0x3de28b3e	0.110617146
93	0x3d702955	0.058633167
94	0x3d988a29	0.07448227
95	0x3cb43697	0.021998687
96	0x3d74d8db	0.059777122
97	0xbde80766	-0.11329536
98	0xbda96dda	-0.08272906
99	0x3cf8b67f	0.030360458
100	0xbd14cb68	-0.036326796
101	0x3d1a4b90	0.03766972
102	0xbdc84cf2	-0.09780301
103	0xbd9cf01a	-0.07662983
104	0x3c906f00	0.017631054
105	0xbdae9eea	-0.08526404
106	0x3db5e4e2	0.088815466
107	0xbcd44e6f	-0.025916306
108	0xbd5a13bb	-0.053241473
109	0xbd949bad	-0.07256255
110	0xbb87eafb	-0.004147885
111	0x3dc9653a	0.098337606
112	0xbd806a3b	-0.06270262
113	0xba40864a	-0.00073442294
114	0xbd636a9f	-0.055521604
115	0xbd76f076	-0.060287915
116	0x3cca673b	0.024707427
117	0x3b8c5524	0.0042826105
118	0x3ba05844	0.0048933346
119	0x3c1e3ffe	0.009658812
120	0xbdc99083	-0.098420165
121	0xbdef3592	-0.116801396
122	0x3be27a6e	0.0069115674
123	0xbc4615b2	-0.0120901335
124	0x3d4f41aa	0.05059973
125	0x3dc146be	0.09437321
126	0x3d7a1d69	0.061063204
127	0xbcdb07cd	-0.026737118
128	0x3da8556d	0.08219419
129	0x3d8d8890	0.06910813
130	0xbcede464	-0.02903957
131	0xbdb3b325	-0.087744035
132	0x3c8fa2c2	0.017533664
133	0x3d0f63b7	0.035007205
134	0xbd470f9e	-0.048598878
135	0xbcbc8782	-0.023013834
136	0x3ddacfa2	0.10684134
137	0x3ce6ca81	0.028172733
138	0xbd4d0cb1	-0.05006093
139	0x3bef8d14	0.007310519
140	0x3ca545fc	0.020174973
141	0xbda0c1d7	-0.07849472
142	0x3d23c99c	0.03998719
143	0x3d63781c	0.055534467
144	0x3d6de8ab	0.058083218
145	0x3d841139	0.064485975
146	0x3dd956e7	0.106122784
147	0x3c13e5de	0.009026973
148	0xbdae3757	-0.08506649
149	0x3d2343a8	0.039859444
150	0xbd80e0bb	-0.06292864
151	0xbc417b59	-0.0118091935
152	0xbd7f0eec	-0.06227009
153	0xbdbe1f48	-0.0928331
154	0xbd6dcc5f	-0.05805623
155	0x3dadc1b4	0.084842116
156	0xbd7c8323	-0.0616485
157	0x3ddabd0a	0.106805876
158	0x3d575e7c	0.05258034
159	0x3d40073c	0.0468819
160	0x3e016319	0.12635459
161	0x3d842697	0.06452673
162	0x3cea3f15	0.028594533
163	0xbd8ab7f9	-0.06773371
164	0xbd0980f1	-0.033570234
165	0x3bf6745e	0.0075211963
166	0xbd92863d	-0.0715451
167	0x3dcc818c	0.099856466
168	0xbca1b271	-0.019738408
169	0xbda2f7fe	-0.07957457
170	0x3b56ed67	0.0032795311
171	0xbdb1d85f	-0.08683848
172	0xbd0cfa17	-0.03441819
173	0x3da1dd55	0.07903544
174	0x3ba7fa40	0.0051262677
175	0x3dc3c8f4	0.09559813
176	0xbdffe67d	-0.12495134
177	0xbdde1302	-0.10843469
178	0x3d9598ef	0.073045604
179	0xbc52f52e	-0.012875838
180	0x3d1f6089	0.038910422
181	0xbdb5fae6	-0.08885746
182	0x3dd47ea8	0.1037572
183	0xbd8be9a6	-0.06831674
184	0xbd3da7d4	-0.04630263
185	0x3d4e4793	0.050361227
186	0x3dbb4a07	0.09144979
187	0xbc4a08cc	-0.012331199
188	0xbde9341c	-0.11386892
189	0x3df46038	0.11932415
190	0xbb411bc4	-0.0029466012
191	0xbd2c8e80	-0.042128086
192	0xbd8c317a	-0.068453744
193	0x3d94bff1	0.072631724
194	0x3db16648	0.08662087
195	0xbdae2922	-0.08503939
196	0x3d560b83	0.052257072
197	0xbd8f2171	-0.069888
198	0x3d3a1714	0.045432165
199	0x3b9e2890	0.004826613
200	0x3d2d6756	0.042334877
201	0xbcad6978	-0.021168455
202	0x3dc4dd34	0.09612504
203	0xbdcb54ce	-0.099282846
204	0xbdb8235c	-0.08991119
205	0xbdd42461	-0.10358501
206	0xbd212f35	-0.03935166
207	0xbd1c4262	-0.038149245
208	0xbc4fa6bd	-0.012674031
209	0xbc86921b	-0.01642709
210	0x3dcf64c3	0.10126641
211	0xbdbe3b67	-0.09288674
212	0xbda6ba1c	-0.08140966
213	0x3d68615f	0.056733485
214	0x3ba6921b	0.005083335
215	0xbd228c9c	-0.039684877
216	0xbe06caaf	-0.13163255
217	0x3d3b95ef	0.045797285
218	0xbd492303	-0.049105655
219	0x3d2bb093	0.04191644
220	0x3dbac3a6	0.09119348
221	0xbde48caa	-0.11159642
222	0x3c0f09ef	0.008730396
223	0xbde040fc	-0.10949895
224	0xbdeca111	-0.115541585
225	0xbe0b5043	-0.13604836
226	0x3d84fd18	0.06493586
227	0x3d5cbdcb	0.05389194
228	0x3d3bf5ec	0.045888826
229	0xbda9b179	-0.08285803
230	0xbd5e2db0	-0.05424279
231	0x3d8ef105	0.069795646
232	0xbdf60819	-0.12013263
233	0x3d5a4fba	0.05329869
234	0x3d2f7c04	0.04284288
235	0xbd240e1b	-0.040052515
236	0x3de2e732	0.11079253
237	0x3dec2214	0.115299374
238	0x3d8f9477	0.07010739
239	0x3dc70ead	0.09719596
240	0xbc12dbb1	-0.008963511
241	0x3d3162e8	0.043307215
242	0xbcdb7579	-0.026789414
243	0xbd038c65	-0.032116313
244	0xbcf64b16	-0.0300651
245	0x3d860b28	0.06545097
246	0xbd961f46	-0.07330184
247	0xbdf95019	-0.121734805
248	0xbd83b5d4	-0.06431165
249	0x3d81e0d9	0.063417144
250	0xbd7d8dc5	-0.06190278
251	0xbddbdaa4	-0.10735062
252	0xbdf3c957	-0.11903637
253	0xbd6e9133	-0.05824394
254	0x3db60696	0.08887975
255	0x3d80ab76	0.062827036
