src/neuralstars/benchmarks/vae_model.pth (torch, 238418 bytes, 12 tensors)

encoder_fc1.weight f4 [128, 50]
00000000: 3db9 20be e333 f9bc c40c b83c 3e5c 73bd
00000010: 6e69 c2bd 0342 173c 4bd1 9bbd 3d99 fcbd
00000020: fec9 4f3d c771 f9bd 04c3 1a3d ecd3 22bd
00000030: 5258 ad3d 55a0 42be e358 9b3d 1c0f 103c
00000040: 55d1 ab3d 5c9a 5c3d c3aa 58bb 49c6 eabd
00000050: ac73 35bd a500 17bd da8f 9bbd 938b 26be
00000060: 59f7 82bd d94f 713d 813f 633c 10dc 81bd
00000070: 3d26 dabd b66c 06bd 5a4c 3ebd dbf5 b53d
00000080: 1145 073e 447c 2cbe c2a9 8a3d 922e 2bbe
00000090: dd8f 6bbc 6fe3 d3bd 921f a7bc fdd3 523e
000000a0: 31e3 0ebe 2fea 853c ada9 383c b5d9 e63d
000000b0: 890c c9bd ae23 713d bde4 a8bd b7fa 583c
000000c0: 0bf2 fabd f5eb fa3d 6ac1 8239 5f0f fdbb
000000d0: f6aa 59bd 5db7 e13b 5ea9 f4bc f05c 25bd
000000e0: 60cd 51bd 81f9 9cbc 2e23 d63d d1b9 a6bd
000000f0: a215 3ebc 7b78 293d 662c 70bd 2fc7 c53a
00000100: b566 db3b 4033 aabc 3190 103d 884b acbd
00000110: ea1d 2d3d 3935 8fbc 43e1 5dbd 284e 823c
00000120: 99c1 31bc 8740 14bd 02ba 8cbc 327c efbb
00000130: 14b9 5cbd 1f24 963d e186 95bd 8589 0d3d
00000140: eefa 35bd de06 31bd dcc0 ab3d c1aa 93bd
00000150: 2aed b0bc f786 0abb 3ca2 00bd 3780 63bc
00000160: 0c35 48bc 908a 25bd 6560 103d a598 803d
00000170: 5274 0fbd b1f3 323b 4d0b ecbc c89d 9e3c
00000180: 12be ea3d 6d8d 3cbd ff50 da3c a051 53bd
00000190: 91f3 80bd c0fe f8bd c20b 3f3e 2606 d93c
000001a0: d559 56bd d4a3 bf3d eaf7 ffbc e077 13be
000001b0: 2c7e 86bc 1dcc 12be 67f5 a53b 2f74 313d
000001c0: b664 06be 3ebe bb3c bff4 b13d 8fad 6e3d
000001d0: 33d9 923d 2f7d c5bd 2487 a9bd 72a5 e5bd
000001e0: eb2e 1b3d 65de 04be 907e 8e3d 9278 f5bd
000001f0: 64be 37bd 36ec c4bd 7646 71bd d445 fe39
00000200: e74c 0dbe 74f1 743c d366 273d adfe e43c
00000210: 2a0a 293c df2b f33c 8516 d6bd a1ec 843c
00000220: 2ad2 b6bd 598a 693d e4fc 88bd 8ee9 473d
00000230: 61cb 8cbd c054 68bd d04c 1b3e c30b 14bd
00000240: f706 a03c a261 9abd af55 fa3d 73f0 adbd
00000250: 7f22 eabd b429 563b b508 51bd 2805 1a3d
00000260: 0163 8f3c 4010 fbbd 1e80 14bd 298c b83d
00000270: 32fa 8dbd ed7c 06be ee63 c8bc 79b7 b2bd
00000280: 8f55 cabd 6dbe 35bb c33d 293c 2826 8dbd
00000290: 95bb 21bd 67c7 ed3c d535 4abd 0ac9 96bd
000002a0: d85c 013d 6ed8 60bc 848b d33c 664e 38bc
000002b0: 78d2 593d b684 02bc ada9 babc da0e 123d
000002c0: 929b 95bd 291e d7bc 6a5f 9c3d bb04 b5bd
000002d0: 4621 20be 9e19 1ebd 8609 d63d 8a0d 81bd
000002e0: bb18 d1bb 23c0 623b b972 063d 5d12 edbd
000002f0: 3f89 86bb 6f7e ca3c 3296 edbc ad4f bc3b
00000300: d07d e93c 355c 7abd d82e d7bd fd18 1fbd
00000310: 5dea 163c ef9b a03c bc9a ab3c 2e50 293b
00000320: 16a8 8ebc 0d68 8fbd 140e 9cbc 1b0b 8e3d
00000330: 4a83 4d3d 76e2 623d b291 c6bc 562a 4b3d
00000340: 95f7 4a3d 2642 41bd 01ba 12bd 05e4 f63a
00000350: 650e 87bd 7a05 253d 4f7a 90bd a596 8f3d
00000360: 0eb5 40bd bf4e 4e3d ebd2 e73b f5e0 703d
00000370: f26c 273d 6ea7 833d 9384 193d 171b b53d
00000380: e863 963a 603e 08bd 4d09 71bd 6f58 42bd
00000390: ff76 073d a56c 48bd 8657 e2bc 1679 15bc
000003a0: 622e 6e3c 62b6 febb 59c6 9bbc 49b3 4f3d
000003b0: 3bb0 91bd 4f67 9f3c cc9f 56bc 0f3a 1b3b
000003c0: 2097 b9bc 81da 8fbd 0f18 483d 25ee 62bc
000003d0: b681 74bc 0257 35bc 6d2f 6dbd c656 e4bb
000003e0: 7b55 ccbb bf35 3d3d bf40 453e 5be5 00bd
000003f0: fc44 34bc 29f6 373c 04d4 2dbd 3d74 923d
-0.15695663 -0.03042025 0.022467025 -0.05941414 -0.09492765 0.009232047 -0.07608279 -0.123339154
0.050729744 -0.121799044 0.037783638 -0.039752886 0.084641114 -0.19006474 0.07585313 0.008792665
0.08389536 0.053858146 -0.0033060766 -0.11463601 -0.044299766 -0.03686585 -0.07595797 -0.16264181
-0.06394834 0.05891404 0.013870121 -0.06340802 -0.106518246 -0.03281852 -0.046459533 0.08884784
0.1320994 -0.16844279 0.0677066 -0.16716984 -0.014377561 -0.10346114 -0.020400796 0.2058868
-0.13953854 0.016347019 0.011270923 0.11271993 -0.09816844 0.058871917 -0.08246753 0.013243369
-0.12253197 0.122520365 0.00024939637 -0.0077227796 -0.053141557 0.0068883137 -0.029865917 -0.040371835
-0.05122125 -0.019161941 0.10455929 -0.081409104 -0.011601837 0.041374665 -0.05863609 0.0015089269
0.0066955932 -0.020776391 0.03529376 -0.08412844 0.042264856 -0.017481433 -0.054169904 0.015906408
-0.01084938 -0.03619435 -0.01717854 -0.0073085064 -0.05388744 0.07331108 -0.07301117 0.034554977
-0.04442876 -0.04321944 0.083863944 -0.07210303 -0.021597464 -0.0021137574 -0.03140472 -0.013885549
-0.012219679 -0.040415347 0.03524818 0.06279115 -0.03502304 0.0027305896 -0.028813982 0.019362345
0.11462034 -0.04603331 0.02664995 -0.051591516 -0.062964566 -0.12157965 0.18656829 0.02649219
-0.052331764 0.093574196 -0.031246144 -0.14401197 -0.016417585 -0.14335676 0.0050646546 0.043323692
-0.13124356 0.022917863 0.0868926 0.058270987 0.07170334 -0.096430175 -0.08277729 -0.11213197
0.03788654 -0.12975462 0.06957734 -0.119858876 -0.044859305 -0.09615366 -0.058905087 0.0004849868
-0.13798867 0.014950145 0.040869545 0.02795347 0.010317365 0.029684005 -0.10453514 0.016226115
-0.08926804 0.057016704 -0.0668886 0.04880672 -0.06874729 -0.05672145 0.1516602 -0.03614403
0.019534571 -0.07538153 0.12223374 -0.08493128 -0.11432361 0.0032678666 -0.051033694 0.037602574
0.017503263 -0.12258959 -0.036254995 0.090111084 -0.069324866 -0.13133593 -0.024461713 -0.08726401
-0.098796 -0.002773191 0.010329667 -0.06892043 -0.039485533 0.029025747 -0.049367744 -0.07362564
0.031582683 -0.013723476 0.025823362 -0.01124916 0.053179234 -0.007966211 -0.022785986 0.035658695
-0.07305063 -0.026259499 0.07635386 -0.08838793 -0.15637693 -0.03859865 0.10451035 -0.063014105
-0.006381122 0.0034599386 0.03282425 -0.11575768 -0.0041057165 0.024718491 -0.029002283 0.005746803
0.028502375 -0.06112309 -0.105069816 -0.03884219 0.00921115 0.019605605 0.020947807 0.0025835144
-0.017414134 -0.07002268 -0.019049682 0.06935712 0.050174035 0.05539175 -0.024239395 0.04960092
0.04955252 -0.047182225 -0.03582192 0.0018836266 -0.065945424 0.040288426 -0.070545785 0.07011155
-0.047047667 0.050368067 0.007074704 0.058808286 0.040875383 0.06428419 0.03747995 0.088430576
0.0011473866 -0.03326261 -0.05884676 -0.047447618 0.033072468 -0.048931736 -0.027629625 -0.009123107
0.014537426 -0.0077732066 -0.019015478 0.05070809 -0.071136914 0.019458441 -0.013099622 0.0023685729
-0.02265507 -0.07024098 0.04885107 -0.013850723 -0.014923504 -0.011068108 -0.057906557 -0.006968352
-0.006235776 0.046193834 0.1926298 -0.03146873 -0.011002775 0.011228123 -0.042438522 0.07151077

encoder_fc1.bias f4 [128]
00000000: b3aa e3bd 82bb f6bb ac4e 2ebe 5482 31bd
00000010: f711 173d cacd 8d3b 0cb1 71bd c332 02bd
00000020: d7c8 d43c be62 e1bd 33c3 0fbd 9deb a83d
00000030: ad08 4b3d 5995 833d bfac 873d fa77 603d
00000040: 808d e4bd c26b 0abe 35f1 413d db12 dcbd
00000050: af61 8dbd 61a9 4dbd 9076 23be 0978 0dbd
00000060: be17 80bc 916e 6abd aacc 33be ab84 2bbe
00000070: bc05 503b 9a63 6b3c e313 d4bd a8ee 26be
00000080: 3d90 823d 72e1 3abd b5a7 b03d f873 c93d
00000090: c927 33be 4359 9f3a aa44 c83d 9827 60bc
000000a0: 98eb e2bc 774b f33c 2714 02bc 2274 083d
000000b0: 4cc8 15be ba82 9d3c 379b 343d 2f43 9a3c
000000c0: 2f45 97ba 984b 28be 04a5 373d 97cc cd3b
000000d0: e049 253c 1141 43be 23ab e03b 0a74 6abc
000000e0: 63f8 8cbd ad33 acbd c0fe 9ebd 6717 8c3b
000000f0: 2209 d6bc 622d 513d 7363 46bd 5bcb 1d3c
00000100: 6ad3 e43d cd45 ae3d 1459 743c a5bd acbd
00000110: 07e3 b53c 5865 2b3d a1bb 0abc b866 5e3c
00000120: 57dc d53d 5fad b13d f813 2b3d de4b 533d
00000130: 4a04 26be cf55 2abe 334f 0fbe e68f e13d
00000140: be3b c0bd d735 753d 6da2 b63d b97a c43d
00000150: f827 0fbe f388 db3c 94bf ea3c 8783 8ebc
00000160: 644c 6cbd 133c 243b c3fa ab3d 7756 11be
00000170: 9b00 4ebc 0c35 8fbd b54a f2bd 0ab3 36be
00000180: 6db7 23be c3e5 85bc d828 893c d8c2 0fbe
00000190: e4d4 25be fa6e 853d f995 953d 9086 10be
000001a0: dc18 d4bc 43e3 1d3c 0431 b83d 68fb ed3c
000001b0: eae9 7fbd 6d98 ac3c 80a6 2d3c 430f aa3d
000001c0: 6b1f f93c 04ac 1cbe 9355 a6bd 6f0e ebbd
000001d0: f328 25be bc48 2dbe 994f f8bb 1417 62bc
000001e0: ffde d73c 21e9 8b3d 1da9 273c 8754 873d
000001f0: 2a00 50bd d0a0 33be 419d 51bc d240 903d
-0.11116543 -0.007529677 -0.17022198 -0.04333718 0.036882367 0.0043275105 -0.059006736 -0.03178669
0.025974674 -0.11005162 -0.035098266 0.08248065 0.04956882 0.0642497 0.066247456 0.05480192
-0.111598015 -0.13517669 0.047349174 -0.10745784 -0.06903397 -0.05021036 -0.15963197 -0.034538303
-0.015636321 -0.05723435 -0.17558542 -0.16749828 0.00317417 0.014367009 -0.103553556 -0.16301978
0.063751675 -0.045625158 0.086257376 0.098365724 -0.17495646 0.0012157339 0.09778722 -0.013681315
-0.02770023 0.02969907 -0.007939375 0.033313878 -0.14627188 0.019227374 0.044093337 0.018830864
-0.0011541004 -0.16435087 0.044835106 0.0062804925 0.010088414 -0.1906779 0.0068563386 -0.014309892
-0.068833135 -0.08408294 -0.077634335 0.0042752507 -0.026127402 0.05106867 -0.048434686 0.009631003
0.111731365 0.08509407 0.014913816 -0.08434609 0.022202982 0.041844696 -0.008467586 0.013574295
0.10442417 0.08675646 0.04176709 0.051586024 -0.16212574 -0.16634296 -0.13995056 0.110137746
-0.09386395 0.0598658 0.08917699 0.0959372 -0.1398009 0.0267987 0.028655805 -0.017396701
-0.05769004 0.002506022 0.083974384 -0.1419314 -0.012573387 -0.0699254 -0.118306555 -0.17841735
-0.1598794 -0.01634491 0.016743109 -0.1403917 -0.16194493 0.06515308 0.07303996 -0.14113832
-0.02589076 0.009636703 0.08993724 0.029050544 -0.062478937 0.021068776 0.010598779 0.08303692
0.030410489 -0.15299994 -0.08121791 -0.11477362 -0.16128902 -0.16922277 -0.007577848 -0.013799448
0.02635145 0.06831575 0.010233191 0.06607919 -0.050781406 -0.17541814 -0.01279384 0.070436135

encoder_fc2.weight f4 [128, 128]
00000000: c41a 51bd e121 1e3d 402d 813a de6a d0bd
00000010: abf2 6cbd 6c4b cd3a 2169 1bbd fc64 de3c
00000020: 0b77 49bd 543e 1e3c c091 bdba cbb3 453d
00000030: befd 15bd c827 1abc 52f9 cdbd b765 1bbd
00000040: f524 8fbd b274 91bd 936c 20bd 5d68 5fbd
00000050: 0681 2dbd d82f 7cbd 7359 9a3d f48f 24bd
00000060: d57e 9fbd 333c 1a3c 8060 bcbb 7b5a 85bc
00000070: 20af 68bc b01d 90bd 865e 5ebd 0f5b 80bd
00000080: 4a6b 753c 10c0 663d 1af9 dabc d2a4 38bc
00000090: 0af8 5bbd ee44 1fbd 00a9 27bc 9807 473d
000000a0: 0d38 37bd 20f3 3bbb 9817 edbc 3c48 ebbd
000000b0: c229 a2bd 860c 94bd 9631 e3bc d0cd 97bc
000000c0: 8873 b4bc 6e77 693d 360e aebc fc11 ebbd
000000d0: f7fb 2cbd 200e 5e3c 9e87 2b3d 2065 d5bb
000000e0: 6063 d13b 80db 93ba 81f3 2ebd 9825 c0bd
000000f0: cb74 61bd 32e1 483d 001a 6abc 52b1 78bd
00000100: 54ed 8cbd 858e 65bd 7375 68bd 131b b3bd
00000110: fdc7 1f3d 00c6 33bc 56a2 5f3d e65a 81bd
00000120: ea56 6abd edb1 a3bd 18fe 8fbd 491e 41bd
00000130: 212a ac3d de73 76bd 2347 03bd da36 c0bc
00000140: a091 363c 6f01 10bd 6ff3 873c 7427 173d
00000150: b3bf 183d 72e8 2fbd 2358 9a3d 0323 a2bd
00000160: 7568 5abd f90b 223d 6e68 013d 6a6d 7e3d
00000170: 21cf 99bd ea6e cbbb 0093 14bc 8209 323d
00000180: 0feb 503c dbf9 c83c b8aa 463d e586 2cbc
00000190: 5832 1d3c 4a41 14bd fd86 0d3d f1a6 a63d
000001a0: 8917 ea3b 0d93 39bd 74dd 0fbc e6a9 213d
000001b0: 503c 1d3c 1988 f1bd 6af4 adbd 13e9 92bd
000001c0: 7451 78bd 2e28 3b3d d886 c2bd 39e2 b5bd
000001d0: f243 94bd 1e7d 603d f714 8dbd 2aab 43bd
000001e0: 962f d53c bd2e 4c3d 041b 3fbd ca76 ec3b
000001f0: b381 4f3c 4cf9 aa3c 98ee 4f3c 8681 efbd
00000200: 35ee 27bd 7557 4e3c e33d ab3d 05d5 3abd
00000210: 39ac 8e3d 0a71 a4bd d785 94bd e56c 9c3c
00000220: 00e6 84bd 1854 97bd d39a 7c3d c4fe a8bd
00000230: bc6b 9ebd a3ae d53c 5655 823c 6cfe 55bd
00000240: 7979 93bd e75e 863d 4442 853d e0be 93bd
00000250: d557 59bd c4bb a1bd f66b 46bd a601 953b
00000260: 41df 253c afbb abbc a987 b43d d959 7dbd
00000270: 15cd 6e3d e833 0e3c a31f b1bd 00a3 39ba
00000280: 24e4 3cbd 2ee3 b0bd db5f 39bc deeb 29ba
00000290: 991c 143c 9f59 e8bc 7bb0 523d 674a 48bd
000002a0: e1f5 a13c 0055 c5bd 7411 423c b669 a0bd
000002b0: c3ce 68bd fcbe cdbc ce84 7d3d 6fb0 4e3d
000002c0: 53c4 46bd 2edb 3d3d 5e67 943c 1e63 80bd
000002d0: df82 b13c d0ff f53b 7ba8 a2bc 1d86 3e3d
000002e0: 172a 8c3b 2c11 833d f3c3 613d 9349 cc3c
000002f0: 5c34 98bc 139f 623d f421 b1bd 0105 bfbd
00000300: 972f 423d affc 67bd 09ad b9bd 17c9 e03c
00000310: 6240 4fbd 71d0 2c3d 91ec b2bd f068 423c
00000320: 1bcf 32bd 00fa 713d 1a05 99bd 3350 153c
00000330: 6d64 3abd 418a b13d 0d56 90bd 1118 1abd
00000340: 27a1 69bd 24fa 853d 1e49 3a3d 06b1 55bc
00000350: 6dca e9bc df59 4fbc 2343 283b c2b8 90bc
00000360: 588c af3d 5225 a5bd 6bb9 a03c c8f2 94bd
00000370: 71cb be3c e7ad 943d 19be c03b c0e5 fcbb
00000380: 4aee 6ebd e9a6 a23c dd63 a7bd 17fa 90bd
00000390: 9cc6 b3bc ac7b 66bd 2af6 64bd d57f 3dbd
000003a0: 919f 49bb 071e 77bd 70ea 95bd bf92 78bc
000003b0: ef1a 5a3d 30c1 9ebd cdb9 a43b ae01 b0bd
000003c0: 2cb9 253d fec7 4d3d 8be2 b0bc 8966 69bd
000003d0: 4af0 263d 78fb 3e3c 127f 553d 2166 843c
000003e0: c41b c1bb 4c18 373d 8b5d fb3c 20aa 233d
000003f0: 8f2a 9ebd a09e c7bc cc02 8d3d fcbf c2bd
-0.051050916 0.03860653 0.0009855404 -0.10176633 -0.057848614 0.0015662736 -0.037942056 0.027147762
-0.049185794 0.009658415 -0.0014462993 0.048267167 -0.03661894 -0.009408899 -0.1005732 -0.0379388
-0.06989471 -0.07102336 -0.039166044 -0.054542888 -0.042359374 -0.061569065 0.07536592 -0.040176347
-0.07787863 0.009413767 -0.0057488084 -0.016278496 -0.014201909 -0.070369124 -0.054289363 -0.06267368
0.014979193 0.05633551 -0.026730109 -0.011269765 -0.053703345 -0.038884096 -0.010233164 0.048591226
-0.04473119 -0.002867885 -0.028941914 -0.11488387 -0.07918121 -0.07228951 -0.027733605 -0.018530756
-0.022027746 0.056998663 -0.02124701 -0.114780396 -0.04223248 0.013553172 0.04187738 -0.006512299
0.0063900203 -0.0011280626 -0.042712692 -0.093821704 -0.055043023 0.049042888 -0.014288425 -0.06071598
-0.06881204 -0.05604412 -0.056752633 -0.08745398 0.039009083 -0.0109725 0.054598175 -0.063161656
-0.057211794 -0.07992921 -0.070308864 -0.047148023 0.08406473 -0.060169093 -0.032050263 -0.023463655
0.011143118 -0.035157617 0.01659557 0.03690286 0.037292194 -0.042946286 0.07536342 -0.07916834
-0.053322274 0.0395622 0.031593733 0.062116064 -0.0751021 -0.0062082903 -0.009068251 0.0434661
0.012751355 0.024533203 0.048502654 -0.010530208 0.009594522 -0.036195077 0.034552563 0.0813731
0.007143919 -0.045306254 -0.008780826 0.03946867 0.009596899 -0.11793537 -0.08493884 -0.07173362
-0.060624555 0.045692615 -0.09498376 -0.08881039 -0.07239522 0.05480682 -0.06888764 -0.047770657
0.026023667 0.04984926 -0.046656623 0.007216309 0.0126652 0.020870827 0.0126911625 -0.116946265
-0.040998656 0.012594094 0.08361413 -0.045613308 0.069664426 -0.08029373 -0.072520904 0.019094894
-0.064891815 -0.073890865 0.06167109 -0.08251718 -0.077353925 0.02608425 0.015909832 -0.05224459
-0.072009034 0.0656107 0.0650678 -0.07214141 -0.05306228 -0.078971416 -0.048442803 0.0045473156
0.010124029 -0.020963518 0.088149376 -0.061853264 0.05830105 0.008679368 -0.08648612 -0.0007081479
-0.04611601 -0.08637081 -0.011314358 -0.00064819853 0.009040021 -0.028363047 0.051437836 -0.04889908
0.019770565 -0.09635353 0.011844981 -0.07832663 -0.05683781 -0.025115483 0.06189423 0.05046123
-0.048527073 0.046351604 0.018115696 -0.06268905 0.02166885 0.007507302 -0.019855728 0.04651462
0.0042774784 0.0639976 0.055118512 0.024937427 -0.018579654 0.055327486 -0.08649054 -0.09327126
0.047408666 -0.056637462 -0.09066207 0.027439637 -0.05059851 0.042190973 -0.08736528 0.011865839
-0.043654542 0.05907631 -0.07471676 0.009113359 -0.04550593 0.08668948 -0.07047663 -0.037620608
-0.057038452 0.06541851 0.045479886 -0.013042694 -0.028538907 -0.012655704 0.0025674782 -0.017666224
0.0857169 -0.08063759 0.019619664 -0.07272869 0.023290368 0.07259732 0.0058820364 -0.007717818
-0.05833272 0.01985498 -0.08173344 -0.07078951 -0.02194529 -0.056270286 -0.055898823 -0.04626449
-0.0030765275 -0.06033137 -0.07320106 -0.015171706 0.053248342 -0.07751691 0.005027032 -0.085940704
0.040459797 0.050239556 -0.0215924 -0.05698255 0.0407565 0.0116566345 0.052123137 0.01616198
-0.0058932025 0.044700906 0.030684253 0.039957166 -0.07722961 -0.02436763 0.06885299 -0.09509274

encoder_fc2.bias f4 [128]
00000000: 69d1 cfbd 8661 a83b 962e 7dbc 3045 13bd
00000010: 71ae 93bd f3a5 a4bd 6692 543d 396e 613d
00000020: 177e 44bd 47be bdbd d228 32bd 1831 17bc
00000030: 5b98 60bc 3dfc beba 7c8c 0fbd 681e 37bd
00000040: f0a7 81bd c10f e83c 813a 84bd deb9 d7bc
00000050: ec7a 87bd 41f3 3c3d 4cf5 afbb 5c99 153d
00000060: 5323 803c 3fe8 c03c f536 18bd f8a0 d0bd
00000070: 752e 86bd 3af4 5a3c b7e9 8ebd 7b0e 0d3d
00000080: 639e a8bc 19e4 63bd 9cbe 0b3d aac8 52bd
00000090: 8e6b 0b3c 27e2 afbd f174 113c bc74 f13b
000000a0: 35c5 2ebd 1bb3 d2bc 6a88 a4bd 1287 243d
000000b0: 1ef1 9ebd b10b 27bd d695 533d da41 a2bd
000000c0: 9ce9 4f3d d48d a3bc 2996 3fbd 7666 ba3b
000000d0: 06f0 bcbd cff3 4f3d 9b0c 1abd de7e 353d
000000e0: b696 2cbc be0d 083c 14fd e3bc de44 8dbd
000000f0: 7f30 da3b 9012 7dbd 5542 2b3d cb8a 83bd
00000100: db26 233c 9646 64bc 8b23 8cbd a6e7 91bd
00000110: 2abc 1dbc 7d5d 62bd e507 873c f128 5f3d
00000120: e0b0 c1bc 4e28 47bd d99f 133c d949 58bd
00000130: 1015 98bd c515 bb3c 4621 80bc 111e ce3c
00000140: 2725 29bd f8a5 bebd 2099 5e3d ab37 993d
00000150: 307f 64bd 1f82 95bc fde5 1bbd 5204 323d
00000160: 480d 2fbd 148c 833d f92e a8bd f05c 66bd
00000170: 7a79 d7bc 2205 a3bc 7065 013d efdd 8cbd
00000180: 9781 9bbd ec68 5e3c b2fa ef3b cafb ee3c
00000190: 946a 243d df9e ea3b a7ac b7bc c0c1 98bd
000001a0: 0b7a 6d3c c58d a1bd 942f 773d 3374 aabd
000001b0: 90be 623c 8e96 9abd c86d 803c 2fb9 a93c
000001c0: 3139 8b3d 5d20 12bc f3b2 71bc 2c66 a5bc
000001d0: bf5a e63c 309d 0bbd 400c bdbc 4ffc 06bd
000001e0: cab5 29bd 1bfd b0bd b336 e43c 216e 873d
000001f0: 8fe3 23bd 7c48 313d 475c f83b 1f86 3fbd
-0.10147364 0.005138579 -0.0154530015 -0.035954654 -0.072110064 -0.08039465 0.05189743 0.055036757
-0.04797181 -0.09264808 -0.04349596 -0.009228013 -0.013708199 -0.0014571022 -0.035046086 -0.044706732
-0.0633086 0.028327825 -0.06456471 -0.026333746 -0.06615242 0.046130423 -0.005369818 0.036523208
0.015641844 0.023548244 -0.037161786 -0.10186952 -0.0655183 0.013363892 -0.06978171 0.034437638
-0.020583337 -0.055637453 0.034117326 -0.0514609 0.00850953 -0.08588057 0.008877979 0.007368652
-0.04266854 -0.02572017 -0.080338314 0.040167876 -0.07760833 -0.040782634 0.051656567 -0.079227164
0.050759897 -0.01996509 -0.046774063 0.005688484 -0.09225468 0.050769623 -0.037609678 0.044310443
-0.010533979 0.008304058 -0.027830638 -0.06897901 0.006658613 -0.06178528 0.041811306 -0.06422957
0.009957994 -0.013932845 -0.06842717 -0.071242616 -0.009627381 -0.05526494 0.016483257 0.054482404
-0.02364391 -0.048622422 0.009010279 -0.0528048 -0.07425892 0.022837529 -0.015640866 0.025160821
-0.041295197 -0.09309 0.05434525 0.07481321 -0.055785358 -0.018250523 -0.03806113 0.04346115
-0.042737275 0.06423202 -0.08212084 -0.056240976 -0.026303042 -0.019899908 0.03159088 -0.06878268
-0.07593077 0.01357482 0.0073235864 0.029172797 0.040140703 0.007160052 -0.022421194 -0.0745883
0.014494429 -0.078883685 0.06034811 -0.083229445 0.013839379 -0.07548247 0.015677348 0.020718185
0.06798018 -0.008918849 -0.0147521375 -0.02019032 0.028119443 -0.034085453 -0.02307713 -0.032955464
-0.041433133 -0.08642026 0.027858114 0.06612802 -0.04001194 0.043282017 0.0075793597 -0.046758767

hidden_to_z.weight f4 [64, 128]
00000000: bd8c 5b3d 7910 a9bd 1c3a 34bc d18b 17bd
00000010: b771 173c c41c 373c 4348 3e3d 4aa0 5cbb
00000020: 29f2 84bc 5c99 fdbc 6a12 663c 5f32 883d
00000030: e01c 5dba 81fe 9fbc b043 67bd f464 143d
00000040: d47d 16bd ea82 1bbd e71d 953d 9595 fd3c
00000050: 660f 1ebd fdc2 8dbd 5e38 323d b5dc 183d
00000060: 72a0 65bb b6c5 84bd 2c1b 03bc 14fd 323b
00000070: 3aa5 94bc 4ea6 86bc 72ff 453d 6601 4cbb
00000080: d10a 72bb f0f4 343d e096 09bd d8ad 4b3c
00000090: 005a ec3b 7395 883c 3cb9 223d a3a4 fc3b
000000a0: 33ad 13bd 50d7 a5bd 8137 303d 0c12 28bd
000000b0: c87a 6e3c 2b79 25bd d831 a23b 1ab1 063d
000000c0: caaf ecbc 6127 5b3d 70ec 72bd f9ae 82bd
000000d0: 352a 8bbd ae77 053d e062 913c f4a9 75bd
000000e0: 852d 7dbd b53c 6ebc 10c2 0a3d 8da6 483d
000000f0: 6679 263d 355c 21bd fdac 013d 80e7 ad3b
00000100: ff82 b6bc 1c63 4c3d 30ed c2bc fe15 793d
00000110: 2a5b 83bc dcbd 28bd 8008 583d 5297 243d
00000120: 92ff c7bd d66b 8cbd 5215 123d c03e c93c
00000130: 98ac 663c e87c 21ba 84b3 873d 10e6 443c
00000140: 3ee1 a1bd d0b5 dfbc f301 a3bd 8c70 ddbc
00000150: 7d7d 72bd 9847 163d 4d0f 86bd f1a4 87bd
00000160: 3826 18bd 10e7 783d 855c 6f3c a377 8d3d
00000170: 5d8b 433b c100 dfbc 3dd0 dd3c 33f5 743d
00000180: cb5b 55bd eff9 e43c 5e8d 113d 4b24 873c
00000190: ca13 3f3d 448c b0bc 2ad5 b43c 64d2 0abd
000001a0: 64ce 26bd a2e9 dabc 2b32 273b 9551 6abd
000001b0: 1be9 9abc 1dc1 39bd 8741 84bd 1bcf 55bd
000001c0: 3b24 983c a7f9 503d b6f1 863d 1d9f c6bb
000001d0: e1da 273d 021b 9bbd 224c 53bc 23b5 123d
000001e0: a02f f93b 0d49 e73c 7565 04bd dd84 f3bc
000001f0: de59 723c c611 203d c898 133c 693a 84bd
00000200: bb0a ebbc b7d5 ce3c e1e1 633d 25b2 85bc
00000210: fe04 363b 1560 acbc bdf9 8fbb c8fa ea3c
00000220: a257 b0bc 9578 95ba 7278 603d f8d5 32bc
00000230: e294 68bd b688 c8bc 8ccc e2bc edf0 823c
00000240: 1b8f 4dbd 7cda 37bd b4d6 aebd 2d01 193d
00000250: d7e1 543d 7725 a63d 4dc1 423d 045b d73d
00000260: dd58 123c 26fa 6dbd 518e 2fbc aa90 39bd
00000270: 3fab 7a3d 758d b0bc 27aa b33d 701d d63b
00000280: 8bbc b73d ef60 2d3d 934c cabc c6fc 2a3d
00000290: 8e76 55bd dbb2 afbc 9549 9a3d 7c23 a23c
000002a0: 30e3 be3b 6423 0f3d 5a0e 98bd 0f95 bbbb
000002b0: 6407 64bc 1993 083d 1b76 b9bc 5858 e43c
000002c0: 343f 1bbc c9e2 453d 4d39 4e3d 7f36 68bd
000002d0: 7eda 543d 5af4 303c 9010 c7bb 176f f53c
000002e0: 973b a43d 65d5 41bb 6bb3 af3d 5515 3cbd
000002f0: 4253 483d 3e2f 853b b546 11bd 73fd eb3c
00000300: c373 80bd 99f6 ad3b ae9c 7fbd 8e7b 5c3d
00000310: 69dd d33c 582c 94bd 3eaf 4c3d 657f 5bbd
00000320: 948e ae3d d844 85bd 2da2 683c dfdb a73b
00000330: 25cb 9fbd 7aa1 9bbd c545 b73d cf0e 10bc
00000340: 791b 27bd 3a57 bf3c 1a5c 6dbd 21c5 263b
00000350: 954d 8abd 35ee 923d 6d19 a73d d07a 8abd
00000360: 7f24 bfbc a63d 8cbc 2fac b43c 6005 f3bb
00000370: 6639 7a3d 2bcc 973d 723d 1fbc 658a 713d
00000380: 98d4 22bd bd72 863c 373b c13d f1da d1bc
00000390: 7e71 1cbd 0775 003d 7716 893d 893c 3bbd
000003a0: 8a35 f93c 96a1 8fbd bd4f 293c 4a67 22bc
000003b0: bd0a b53d a3a3 5cbd 5c76 c6bb 3ca7 a73d
000003c0: 5fbc 033d 1bcf a3bc 003c c23d ca3c bebc
000003d0: cb91 d7bc 37b2 d9bc 4308 8f3d 2587 533d
000003e0: 0c71 9dbc 24f6 2c3d 7991 ab3c 5d24 e63c
000003f0: 669c 833d 8d5f 76bc d861 9c3c 4249 093c
0.053601015 -0.08255095 -0.0110001825 -0.036998574 0.00924342 0.011176292 0.046455633 -0.0033664876
-0.016228752 -0.030956917 0.014042476 0.066502325 -0.00084347837 -0.019530537 -0.056461036 0.03622909
-0.036741093 -0.037966646 0.07281094 0.030955115 -0.038588904 -0.06921957 0.043510787 0.037319858
-0.003503826 -0.06483023 -0.008002084 0.002731149 -0.018145192 -0.016436722 0.048339315 -0.0031128763
-0.0036932717 0.044178903 -0.03359115 0.012431584 0.0072128773 0.016672825 0.039727435 0.007710056
-0.036053848 -0.08097708 0.043021683 -0.041032836 0.0145556405 -0.040398758 0.0049497895 0.03288374
-0.028892417 0.05350435 -0.059307516 -0.0638103 -0.0679516 0.03258484 0.017747343 -0.059976533
-0.06181099 -0.014540841 0.03387648 0.04898696 0.04064312 -0.039394576 0.031659115 0.005307138
-0.02227926 0.049899206 -0.02379474 0.06081199 -0.016034681 -0.04119669 0.05274248 0.040183373
-0.09765543 -0.068565056 0.035664864 0.024566054 0.0140792355 -0.0006160275 0.06626037 0.012017742
-0.0790429 -0.027308375 -0.07959356 -0.027031206 -0.059201706 0.03668937 -0.06545887 -0.06623257
-0.037145823 0.060767233 0.014609461 0.069075845 0.0029837706 -0.02722204 0.027076835 0.059804153
-0.052089494 0.027951209 0.03553521 0.016496798 0.04664973 -0.021551259 0.0220743 -0.03389205
-0.040724173 -0.026722733 0.002551208 -0.05720671 -0.018909981 -0.045350183 -0.06457811 -0.052199464
0.018571964 0.051019337 0.065890715 -0.0060614482 0.040980224 -0.07573511 -0.012896569 0.035817277
0.0076045543 0.028233076 -0.03232332 -0.02972644 0.014791934 0.03907945 0.009008594 -0.06456453
-0.02869164 0.025248392 0.055635337 -0.016320297 0.0027773972 -0.02104191 -0.004393785 0.028684035
-0.021526162 -0.0011403734 0.054802366 -0.010915272 -0.05678261 -0.024479251 -0.027685426 0.015984023
-0.050185304 -0.044886097 -0.08537045 0.037354637 0.05197319 0.081126146 0.047547627 0.10515407
0.0089323195 -0.05809989 -0.010715083 -0.045303978 0.06119847 -0.021551827 0.08772688 0.006534271
0.089715086 0.04232877 -0.024694717 0.04174497 -0.052115016 -0.02144759 0.07533566 0.01979231
0.0058254227 0.03494586 -0.07424612 -0.0057245563 -0.013917778 0.03334341 -0.022639325 0.027874157
-0.009475518 0.048311982 0.050347615 -0.056692597 0.051966183 0.010800445 -0.0060749725 0.029960198
0.08019178 -0.0029576656 0.08579143 -0.04591878 0.048907526 0.0040644696 -0.035467822 0.028807377
-0.0627208 0.0053089377 -0.06240528 0.05382877 0.025862413 -0.072350204 0.04997181 -0.05358829
0.08523288 -0.065072715 0.014198822 0.005122646 -0.078024186 -0.075991586 0.08948854 -0.008792593
-0.040797684 0.023357023 -0.057949163 0.0025447088 -0.06753079 0.07174341 0.081591465 -0.06761706
-0.023332832 -0.01711924 0.02205476 -0.0074164122 0.061089896 0.07411989 -0.00971924 0.058969874
-0.039753526 0.016412133 0.094351225 -0.025617095 -0.038194172 0.031361606 0.06693738 -0.045712028
0.030421037 -0.07013242 0.0103339525 -0.009912321 0.08839939 -0.053866994 -0.00605659 0.08186194
0.032162067 -0.019996217 0.094841 -0.023222346 -0.026314637 -0.026574237 0.06983998 0.051642556
-0.019218944 0.042226925 0.02094339 0.028093511 0.06426315 -0.0150374295 0.019089624 0.008379282

hidden_to_z.bias f4 [64]
00000000: 4bd7 a5b8 c4dd 6dbb c2ed 12bc 6968 303c
00000010: afc7 99bc ddb1 3bbc c5c0 57bc 6039 093c
00000020: 9cc7 aa3a 15ec 3f3b dabc 553a 9efc 83bc
00000030: 70bc 0d3c 982f 1abb 3f1a 7c3b 4e59 d3bb
00000040: a1cc 2a3c 3442 ecbb e5d1 8ebc d23f 2f3c
00000050: 35bd 183c 6161 28bb 215d 963c e44d 2c3c
00000060: 15e7 963c ef91 39bb 03f6 843c 3720 643c
00000070: e1b2 cdbb df79 90bc 0bfc ed3c 00d3 6e3b
00000080: f246 a53c 5a17 043b 771a e13b be18 3cbc
00000090: 5f14 e63b 7126 d63c f61a b7bb 5cd7 4cbb
000000a0: 58bf d9bc bef6 583c 4b5d b93b 0654 82bc
000000b0: 1731 5bbc 5c84 bdbc 12d9 f9bb 8fdf ca39
000000c0: 8276 1ebc 77fb 533c 116e 6bbc d016 cebc
000000d0: d486 64bb d83a a53a 6319 6ebc c946 63bc
000000e0: 8de9 56ba 08e1 d0bc a94f cbbc 263e 83bb
000000f0: 8d56 7c3c 3e89 f43c 2c62 bdbc e2f1 5ebc
-7.9079146e-05 -0.0036295513 -0.008967819 0.010767081 -0.018771974 -0.01145598 -0.013168518 0.008375496
0.0013029459 0.0029285003 0.0008153446 -0.016111668 0.008650884 -0.0023526903 0.0038467792 -0.006449855
0.010424764 -0.0072100405 -0.01743407 0.010696368 0.009322454 -0.0025692808 0.018354954 0.010516617
0.018420735 -0.0028315743 0.016230589 0.013923696 -0.0062774275 -0.017636238 0.029050848 0.0036441684
0.02017543 0.002015552 0.00686961 -0.011480508 0.0070214714 0.026141377 -0.005587931 -0.0031256294
-0.026580498 0.013242422 0.0056568733 -0.015909206 -0.013378403 -0.023134403 -0.0076247538 0.00038695007
-0.009671809 0.012938372 -0.014369504 -0.025157362 -0.0034870403 0.0012606038 -0.01453242 -0.013871857
-0.0008198254 -0.025497928 -0.024818258 -0.0040052114 0.015401495 0.029850598 -0.023118101 -0.013607474

z_to_hidden.weight f4 [128, 32]
00000000: f4bd ff3d 8f38 b5bd 4d5d 893d 9dc3 0bbc
00000010: 8d81 35bd 9d66 713d e511 8aba 3b66 19be
00000020: 1a06 56bd 95aa babd a19c 113e dd3f 12bd
00000030: deb1 21bc 8076 2c3d c943 1cbe 88cf ac3d
00000040: d68b 87bd a0ca 26bd 0b46 40bc bb22 dc3b
00000050: e84b 0dbd 6711 083e 62ca bebd 62c5 84bd
00000060: 0e15 d5bc f40e 8f3c 23ec c3bd d550 54bd
00000070: 19da 033e 606d d0bd a0c3 f13d ccb1 103c
00000080: 7194 b73d 3539 093e 1467 983d e862 863c
00000090: 9c6a 953d ee24 bf3d 3fd8 d5bd be1d 433e
000000a0: bbbb b8bd 842e 8f3d 948e 39bd 36a4 14be
000000b0: f8f7 8e3c d96e 333e c4f2 f7bd 8f83 013e
000000c0: ff78 d23d ec22 6ebd 431c 0abe 22e9 603d
000000d0: b9dd 053d 7940 e4bc 68d0 e23d 7a25 e3bd
000000e0: b76e e0bd 8bbd f13d c1a3 f83d 44c4 e53d
000000f0: 2aba f7bd 6351 5cbd c69e cc3d a761 a03d
00000100: 9e05 d5bc aee5 a9bd 213f 8dbd a07a a0bc
00000110: 6e07 29bd bfd9 f13d b374 01be 7938 193e
00000120: 38ae a23c 5e76 80bd a0c4 57bc 9311 493d
00000130: af3c 66bd 4808 4a3e c2af 363d d58f 0cbd
00000140: 8abe fbbd 2ce5 363d 414e 603d 44be 243d
00000150: 06a1 113d 9b68 dbbd 1f13 d93d d2f7 adbc
00000160: d768 303c 1f65 ccbd c6a5 aabd 0d2a 23be
00000170: 5878 c4bd eec3 a63d 5b77 003e 085f 753d
00000180: 19cd e53d 593a 37be 17b1 1d3d bd10 1cbe
00000190: 9cb0 91bd dd29 1ebe 0d2f 003d 2fb6 e63d
000001a0: 41fc 3d3b 79c7 1abe 671c 933d f40c ec3d
000001b0: 0a84 b93d 3816 0c3e bf6e 08be 7ecb 22be
000001c0: 1fdc 00be d880 733d 10d8 3a3c 75b8 19bd
000001d0: 1013 aebd b313 b1bc 2bf6 b03d 9522 febb
000001e0: 673e 70bd 97cb 2d3e b7af 1fbe 07e9 eabd
000001f0: 5f38 d43d dd0b b2bc a337 8cbd ad1a 233e
00000200: ed13 ad3d 0457 ccbd e6a6 923d 40ec c63c
00000210: 0fa4 c23d fbd6 b53d 400d b2ba 49bc ba3d
00000220: 0720 97bc 0299 f5bc 6ba4 863d 361f 253e
00000230: 63bb d83d 4a69 0a3e afed dcbc fabf 85bd
00000240: 85a1 5cbd 930e 1dbe 7bc5 133d bab1 89bd
00000250: 6c6f 23be ed52 cb3d 73c0 0c3e 53a2 a33d
00000260: f99c 7e3d e417 9bbd 7b1e 653c 9e06 113e
00000270: 5fc3 9fbd 9ab0 073c 0e00 4e3c c202 033e
00000280: 0de0 373d f3d1 f73d 6a5d 24bd 5829 b13d
00000290: 9d1e a83c aeb3 bd3d d705 a63d 5b53 cbbd
000002a0: 69f1 a9bc f64f 0bbd f30c 3fbd de0f 41bd
000002b0: ce07 74bd a6ff efbd 0361 bdbb 911a 5f3d
000002c0: 7168 47bd 8687 07bd cbae 183e 384d 073e
000002d0: cc56 7ebd b71a f63b 68c7 46bd 008c a73d
000002e0: 6577 febd 9b51 5abd 1afb 153c 3278 2b3e
000002f0: 18a7 b7bd 98f4 883d 8fcb a63c bd62 88bd
00000300: cb29 7a3d d4c3 5a3d b0d0 b93c 313b 12be
00000310: 937e 94bd 0693 03bd 2725 13bd a163 ecbd
00000320: 053e c0bd a0fd 163d 635c edbc 3201 0e3e
00000330: 2d44 09bc c20c 03be 893f e33c 5014 0cbe
00000340: e718 11be d906 4abe 5124 14be 5804 9e3c
00000350: 55ba 8c3d e64b 133e 4e71 79bd a17a aabd
00000360: 5cee 55bd 69ac 8bbd 2388 8bbd aff3 efbd
00000370: bed9 a1bd 4389 1a3d d2ee f6bd 973e ab3d
00000380: 4581 80bd 9f0b 013e 2de5 e83c 52f5 99bd
00000390: 1075 85bd 75d5 bb3d 44a1 423a fe83 a23d
000003a0: df80 dc3d 7d1a 38be 682c f03d 3d7a 563d
000003b0: cadd be3d f505 703b e7cf eb3d 1c8a 073d
000003c0: 14c8 3b3d 2a8e 09be b0b9 92bd 460a eb3d
000003d0: 1b4e 0d3d a7e1 13be d369 9f3d 2aa4 773b
000003e0: 8779 aa3d 89b6 a6bd aa85 23be 7bf1 a63d
000003f0: d0c3 853d 4d0b 1dbe b9df dfbb ecfb 49bc
0.124874026 -0.08848678 0.06707249 -0.008530525 -0.044313002 0.05893575 -0.0010533897 -0.14980404
-0.052251913 -0.09114567 0.14219905 -0.035705436 -0.009869067 0.042105198 -0.15260233 0.08438021
-0.066184685 -0.040720582 -0.01173545 0.0067180074 -0.034496218 0.13287888 -0.09315945 -0.0648296
-0.026011016 0.017463185 -0.09566524 -0.0518349 0.12876166 -0.101771116 0.11804891 0.008831453
0.0896386 0.13400729 0.074415356 0.016404584 0.07295725 0.09333216 -0.10441636 0.19054314
-0.09020182 0.06991294 -0.04530199 -0.14515767 0.017452225 0.17522754 -0.12106851 0.12647842
0.102769844 -0.058138773 -0.13487343 0.054909833 0.032682154 -0.027862774 0.110749066 -0.110911325
-0.10958617 0.118037306 0.121406086 0.11219075 -0.12096055 -0.053788554 0.09991221 0.07831126
-0.026003655 -0.08295761 -0.068968065 -0.019589722 -0.04126685 0.1180911 -0.12642173 0.14962949
0.019858465 -0.06272577 -0.013169438 0.049089026 -0.056210216 0.19729722 0.04460121 -0.034316856
-0.12292202 0.04465215 0.05476213 0.040220514 0.035553955 -0.10713311 0.1059935 -0.021236334
0.010767183 -0.09980225 -0.083324 -0.1593401 -0.09593266 0.08142839 0.1254553 0.059905082
0.1122076 -0.17893352 0.038498964 -0.1524076 -0.07113764 -0.15445657 0.03129487 0.112652175
0.0028989466 -0.15115155 0.07183152 0.11525908 0.090583876 0.13680351 -0.13323496 -0.15897939
-0.1258397 0.059449047 0.011404052 -0.037529428 -0.0849973 -0.021615839 0.08640703 -0.0077555873
-0.05865326 0.16972195 -0.15594374 -0.11470228 0.103623144 -0.021734172 -0.06846549 0.15928145
0.08451066 -0.099775344 0.071607396 0.024282575 0.09503948 0.08878895 -0.0013584271 0.09117944
-0.018447889 -0.029980186 0.06574329 0.16125187 0.10582616 0.13516727 -0.026968805 -0.06530757
-0.053864975 -0.15337591 0.036077004 -0.06723352 -0.15960473 0.09927926 0.13745289 0.07989945
0.06216142 -0.07572916 0.013984318 0.1416268 -0.07800936 0.008281851 0.012573255 0.12794021
0.044891406 0.121005915 -0.04012815 0.08650464 0.02052241 0.09262787 0.081065826 -0.09928008
-0.020744996 -0.034011804 -0.04664321 -0.047134273 -0.059577756 -0.11718683 -0.005779387 0.054468695
-0.048683587 -0.03308823 0.14910428 0.1321305 -0.062094495 0.007510509 -0.048530012 0.08181
-0.124251164 -0.05330048 0.009154106 0.1674507 -0.089674175 0.066872776 0.020360736 -0.06659458
0.061075013 0.053409413 0.022682518 -0.14280392 -0.072507046 -0.032122634 -0.035924103 -0.1154244
-0.09386829 0.03686297 -0.028974717 0.13867643 -0.008378071 -0.12797835 0.027740257 -0.13679624
-0.14169656 -0.19729175 -0.14466979 0.01928918 0.068714775 0.14384422 -0.06089907 -0.08324171
-0.05222927 -0.06819994 -0.068130754 -0.11716401 -0.07902859 0.03772856 -0.1205727 0.083615474
-0.06274656 0.1260209 0.028429592 -0.07517494 -0.065164685 0.09171573 0.0007424543 0.07935332
0.10766768 -0.17978854 0.1172722 0.05236267 0.09319647 0.0036624644 0.115142636 0.033090696
0.045845106 -0.13433138 -0.07164323 0.11476569 0.034498315 -0.14441548 0.07783856 0.0037787058
0.08323961 -0.081402846 -0.15968958 0.081515275 0.06531489 -0.15336342 -0.0068320897 -0.012328129

z_to_hidden.bias f4 [128]
00000000: 9365 1a3d bfa0 083e 5d90 073e 4094 0ebd
00000010: 3d80 623e dc3a eabd ba7a a53e bad5 5e3d
00000020: 9291 b83e 0d66 893e 5064 823e 51ee c03d
00000030: 6649 a7bd 39fd 6d3d bc11 5fbe 8690 953d
00000040: ed14 83bd d342 bc3e a29c a03c 9b89 a23e
00000050: f636 d6bd 0615 fb3d b9a2 a2bb 7027 afb8
00000060: 3033 933e 2879 aebd b4c6 20bd e768 83be
00000070: 2d7d 3d3e 8335 bf3e 9d51 a53d ee60 b33c
00000080: 19a0 13be 91fe 593e 2a34 cbbd 9268 623e
00000090: a913 c5bd f2d0 993e 89d0 ecbc 0678 0dbe
000000a0: f7dc aa3d 4f80 aa3e 1351 1cbe 5c83 963e
000000b0: af50 76bd cf38 8d3e 2521 7e3e 5acb 14be
000000c0: e018 16be f970 353e b478 5d3e 2e0c 513d
000000d0: 70ea fe3d d4f6 853e e5dd da3d 4acf 23be
000000e0: 3d97 a0bd 6feb 833e bc6f c93e ddcb ad3e
000000f0: ea21 b33b 38c1 f4bd 1b8b 55bd c875 b63e
00000100: c483 1c3d 85b2 923d bc13 c5bd fab3 1f3d
00000110: 8e2e 18bd ac21 883e f00c fabd abe9 c8bd
00000120: 6b2d 403e e890 f93c e05f be3e a03a 1abe
00000130: de93 583e f99b a03e f280 1cba e49e 24be
00000140: 40d6 123e c529 af3e 13be 7b3c 9cc3 6fbd
00000150: 7775 62bd 7ad7 813e 0a6c cf3c 7566 5b3e
00000160: dde7 913e 6eb6 803e 25b7 1a3e 9742 aebc
00000170: f2f0 7d3e 3d03 10be cb0f 663e 165a 53be
00000180: 7c7c 833e 6dda aa3e 62f1 923e 76c3 0cbe
00000190: ba92 083e 8289 c93e 5a0c bb3d 4ff5 be3d
000001a0: 8d8a cb3e a574 bfbd 2cbd 9f3d 5420 183e
000001b0: 5773 9f3d 7d6e 1abe cc32 f7bc fe64 af3e
000001c0: 8eb1 2abe 82a7 093d 7f4b 8a3d d840 ac3e
000001d0: b190 aa3e 348b ac3e 08eb ca3d 7ef9 c03e
000001e0: e482 8d3e fa74 5c3d 4e80 11be 68b5 bdbd
000001f0: 9d51 363e 185d 993e 7a86 6dbc 7d40 603e
0.037694525 0.1334257 0.13238664 -0.03480935 0.22119232 -0.11437008 0.32320195 0.054403044
0.3604856 0.2683567 0.25467157 0.09420455 -0.081682965 0.05810282 -0.21784109 0.07302956
-0.06400476 0.36769733 0.019605938 0.3174561 -0.10459702 0.12259869 -0.0049632457 -8.351996e-05
0.2874999 -0.085192025 -0.039251998 -0.25665972 0.18504782 0.37345514 0.08072207 0.021896806
-0.14416541 0.21288516 -0.09922059 0.22110203 -0.096228905 0.30042225 -0.028908031 -0.13815317
0.08342927 0.33301017 -0.15265302 0.29397094 -0.06013554 0.27582404 0.24817331 -0.14530697
-0.14657927 0.17718877 0.21628076 0.051037006 0.12447059 0.26164877 0.10686854 -0.15997043
-0.078413464 0.2576556 0.3934306 0.33944598 0.0054666894 -0.11950916 -0.052134614 0.35636735
0.0382116 0.07162956 -0.09622905 0.03899 -0.037153773 0.2658819 -0.12209499 -0.09810194
0.18767326 0.030464604 0.37182522 -0.15061426 0.21150157 0.31368998 -0.0005970142 -0.16076237
0.14339542 0.34211555 0.015365141 -0.058536157 -0.055287804 0.25359708 0.025320072 0.21425803
0.2849721 0.25139183 0.15108927 -0.021271987 0.24798945 -0.14063735 0.22466962 -0.20639834
0.25680912 0.3336977 0.28699785 -0.13746437 0.13337222 0.39362723 0.09133215 0.09324133
0.39754143 -0.0934842 0.077997535 0.14856082 0.07785671 -0.1508121 -0.030175589 0.34256738
-0.16669294 0.033607014 0.06752681 0.33643222 0.33313516 0.33699954 0.0990811 0.37690347
0.27638924 0.053822495 -0.142091 -0.09263116 0.1780457 0.29953837 -0.014497394 0.218996

decoder_fc1.weight f4 [128, 128]
00000000: 662a 33bc c04f b53d 89c4 263d 637d a2bc
00000010: 0487 0a3e 8882 493d f777 c13c 5b1e bf3d
00000020: b68e 103d cfd7 473d d815 923d addb a13d
00000030: 19c7 703d a18f dcbc 6f09 053d 18d3 6f38
00000040: 88af ae3d db06 de3d 2142 973d fe30 ae3d
00000050: b369 cbbc f813 abbc 9f1d a8bc 3902 0bbc
00000060: 9f61 443d 2bc5 8e3c f719 9e3c d7e4 4c3d
00000070: bd1f f03d 7ee0 09bc ed45 e8bc 26d7 c93c
00000080: fcda f1bc 475d 4e3d f135 323d 35a9 0d3c
00000090: 93c5 9ebb 3ef3 f93d 5566 1abd 6695 a53d
000000a0: 32e8 8b3b 306b e43d 42d1 2e3c 6c2b a43d
000000b0: 0eb4 93bc 4d0f a93d acfc 733d 367b 823d
000000c0: e69b 383d 179e 273d 4207 7d3d 9b82 c33d
000000d0: 8179 de3d 3191 51bc e250 3cbd 45d3 c63d
000000e0: 8dc2 babb 41e3 18bc 53aa bd3d 3afb 123e
000000f0: 80ea bf3d de8f 303d 3570 91bc e09b 2b3c
00000100: c4ef f3bc fcee dbbc 0763 1c3d b685 1ebd
00000110: efe2 0a3b 947a 073e 67f5 bf3d ea33 d13d
00000120: 9645 973c 22b1 553d c5ed 8fba 05f9 80bd
00000130: a7be 443d 1c7e 903d b44f 09bd fa0a 1bbd
00000140: 24ee 663d a5a0 ae3d 3529 c33c 5b67 873c
00000150: 37e9 e23c b156 763d c907 babb 1885 003c
00000160: 0307 8a3d 31a4 e13d 8783 353d 319c c53d
00000170: 0002 7c3d 54c5 9d3c dbbd 003e dc4e 60bd
00000180: b3b4 cf3d b249 fe3b 84d6 483d 7537 803d
00000190: 32a1 743d 0b61 073c 8324 ca3d 9b03 c83d
000001a0: 607f fd3d d1be 1abd c07b 88bc 5ab6 d63c
000001b0: cf12 4c3d 07a8 1abb 39f7 47bd 9a41 073e
000001c0: 99a9 6ebd 7283 58bd d316 813d 990d 1a3e
000001d0: ffa8 26bb 3935 523c 01bb f6bb 7c33 863d
000001e0: 85f6 f13d 3b03 ef3b dabe a4bc 214c 82bd
000001f0: 57d9 f83d 599a dc3c 2499 093d e43d 3b3b
00000200: 6fc8 8cbd b9e0 8dbd 9118 2dbd 9c40 703d
00000210: 98b5 f6bc 4355 6fbd 683d a0bd a070 4a3d
00000220: d14f 17bd 1b5e 983d f435 1abd 5fc8 4d3d
00000230: 1cbb dbbc 0131 6bbd 7804 4c3d 651f f3bc
00000240: 1057 973d 1d4f ae3b 6269 68bd 9ca9 a1bd
00000250: 80ce 983d a5c0 99bd a47b 7cbc 5e70 ee3c
00000260: 362d ac3c 0607 3ebd c2d0 80bd 4838 c8bd
00000270: 172f 44bd e477 aebd f093 923d fc86 d73b
00000280: a320 4b3d 80cd b03c f88b 64bd 79e9 c1bd
00000290: 123f 87bd 755a 923d 4544 4cbc 3e82 adbd
000002a0: 1a54 69bb 4b09 ffbc c5ac 223d ad4f afbb
000002b0: 42ab 25bd 2a1d acbd d5b0 f53c fb6c 533d
000002c0: 6b4d 43bd 183c 0abd ae9f 713d 376f d03c
000002d0: c124 2b3d 7518 46bc 7596 2abd 657c 90bd
000002e0: d432 b53b d334 acbd 83a7 6ebd 4b3b 863d
000002f0: 1a99 b83c ddb0 20bd c275 a8bd 7aed 48bd
00000300: 36f1 b13a 4329 6bbc 3175 d7bc d891 c3bd
00000310: 6107 483d 904c cabb 1f60 9fbd 43e5 c6bb
00000320: 9393 50bc 3732 3c3d 8919 d6bc 1637 963d
00000330: 7b5a 14bd 6d52 fc3c cd0c 81bd f001 f13b
00000340: 4f6e 32bd ea29 343d 3f7f 5d3c be7e 37bd
00000350: c0cd 72bd 7dc2 b8bd 905a b6bd c74e a1bd
00000360: 2b54 633c 50f4 42bd 022b 9bbd d6ea bdbb
00000370: 9a89 3b3d 0289 4e3d 7460 88bd 162c 373d
00000380: 7347 f43c ed0b 11bd f4c1 d43b 823b 9fbd
00000390: 81de aebc 1740 c6bd 01ac 683d 27d5 7dbd
000003a0: 7742 583d 8233 84bd 11e6 473d b7fb 2d3c
000003b0: 8497 90bc cd2e 9cbd 85cf 93bd 7492 c13b
000003c0: 7740 4a3d 6652 b2bc 7cfb 423c a4ca 50ba
000003d0: 7d7b a6bd e0c8 28bd 396b fcbb caa2 d33b
000003e0: d7b8 22bd dd45 b1bd d1c2 9ebd 27b5 2bbd
000003f0: 9b85 94bd 5403 883c 30a6 7ebd c5e6 a53c
-0.010935402 0.08853102 0.040714774 -0.01983518 0.13528067 0.04919675 0.023616774 0.09331962
0.03529235 0.048789795 0.071330726 0.07903228 0.058783624 -0.026923956 0.0324797 5.7178637e-05
0.08529574 0.10841151 0.0738566 0.08505438 -0.024830675 -0.020883545 -0.020521937 -0.008484417
0.04794466 0.017428001 0.01929949 0.050022926 0.117248036 -0.0084153395 -0.028353656 0.024638724
-0.029523365 0.050381925 0.043508474 0.008646299 -0.00484533 0.12204598 -0.037695248 0.08085136
0.004269623 0.11153257 0.010670008 0.080160946 -0.018030193 0.082548715 0.05956714 0.06371157
0.04507055 0.04092225 0.0617745 0.095463954 0.10863019 -0.012790964 -0.045975573 0.09708265
-0.005699462 -0.009331525 0.092610024 0.14353648 0.09370899 0.043105952 -0.0177537 0.010474175
-0.029777415 -0.026847355 0.038180377 -0.038701735 0.0021192392 0.13230354 0.09372979 0.1021498
0.018465798 0.05217088 -0.0010980895 -0.06297497 0.048033383 0.070553035 -0.033523276 -0.037852265
0.056379452 0.08526734 0.02382336 0.016528776 0.027699096 0.06014127 -0.0056771976 0.007844232
0.06739619 0.11017645 0.044314887 0.09648932 0.061525345 0.019259132 0.12572424 -0.054762706
0.101418875 0.00776025 0.049032703 0.062605776 0.05972404 0.008262883 0.09870245 0.09766313
0.123778105 -0.037779633 -0.016660571 0.026209999 0.049822625 -0.0023598687 -0.048819754 0.13208619
-0.05826721 -0.05285973 0.063031815 0.1504425 -0.002543032 0.012830072 -0.007529617 0.065527886
0.11814598 0.0072940863 -0.020110536 -0.06362177 0.12150829 0.026929067 0.033593312 0.0028570825
-0.06874167 -0.06927628 -0.042259756 0.058655366 -0.030115888 -0.05843092 -0.07824212 0.049423814
-0.036941353 0.07439824 -0.03764911 0.050239917 -0.02682262 -0.05741978 0.04980895 -0.029678056
0.07389653 0.0053194896 -0.056741126 -0.078936785 0.07461262 -0.07507447 -0.015410338 0.029106315
0.021017652 -0.046393417 -0.062898174 -0.0977636 -0.04789647 -0.08518961 0.07157123 0.0065773707
0.04959167 0.021582365 -0.055797547 -0.094683595 -0.066038266 0.071461596 -0.012467449 -0.08472107
-0.0035603107 -0.03113236 0.039715547 -0.0053500743 -0.040446527 -0.08404 0.029991547 0.051617604
-0.047681253 -0.033748716 0.058990173 0.025443656 0.041783098 -0.012090792 -0.041647393 -0.070549764
0.005529741 -0.08408513 -0.05826522 0.06554278 0.022533942 -0.03923117 -0.082255855 -0.0490546
0.0013575915 -0.014353099 -0.026300998 -0.09549302 0.048835162 -0.0061736777 -0.077820055 -0.0060698106
-0.012730497 0.045946326 -0.026135223 0.073347256 -0.0362191 0.030801022 -0.0630127 0.0073549673
-0.04356223 0.043985285 0.013519107 -0.044798605 -0.05927825 -0.09021471 -0.08903992 -0.07876354
0.013875048 -0.047596276 -0.075765625 -0.005795817 0.045785524 0.05042363 -0.06659022 0.044719778
0.029819226 -0.035411764 0.0064928476 -0.07775022 -0.021346333 -0.09680193 0.05680466 -0.061970856
0.05279776 -0.06455137 0.048803393 0.0106190955 -0.017650373 -0.07626114 -0.072173156 0.005907351
0.049377885 -0.021767806 0.011900779 -0.0007964766 -0.08129022 -0.041207194 -0.0077032116 0.006458615
-0.03972706 -0.086559035 -0.07752002 -0.041920807 -0.07252046 0.01660315 -0.062170208 0.020251641

decoder_fc1.bias f4 [128]
00000000: caba 283e 67ea b23c f6ae 003e 7790 de3d
00000010: bff1 c43d 394d b43d dd76 8ebd aecc cf3d
00000020: 57b2 243e 03fc 65bc 3c84 98bc 6624 ea3d
00000030: 185d fc3d 777a 523e d274 083e 4294 9b3d
00000040: 8baf 943d f0ec 453e 6886 623e 75aa cabd
00000050: eb75 783e c85d 9cbd 5843 323e 4022 203d
00000060: 5cb9 143e e398 943d f717 573e 2828 0e3e
00000070: a240 7c3d ca26 4a3e b876 ad3d 40d3 423e
00000080: a149 babd 238c 2e3e 3efe 143e 7f44 903d
00000090: 73d4 323e 5af1 1c3e a03e 013d 85c7 5b3e
000000a0: d6f9 993d d258 b03d 541c 863d 2c1b 1e3e
000000b0: 3924 273e 0d97 9d3d 71ba 75bd 1850 2b3d
000000c0: 6e32 573e 5126 553d 0903 203e 8a29 3c3e
000000d0: 2b30 5c3e 111c 593e 148f 393e 827f 5e3e
000000e0: 3aa0 663e 167e 763d d237 f43e 0e11 593e
000000f0: 0778 c63d 158f 183e f2bd 3c3e 40b7 2e3d
00000100: 05a7 623e 0e1c 5c3e bc80 b43d 76f0 e93d
00000110: c97b 453c cb02 123e 19c0 693d cafc fc3b
00000120: abdb 8d3d 5270 6a3c 7048 84bd b789 043e
00000130: 6237 d0bd ed47 463e 9816 5e3d c2eb 503e
00000140: aa8a fc3d 9213 503e 2758 eb3d 45ac 363e
00000150: 176f 393e 90a5 9d3d 73d4 c13d 71aa e03d
00000160: 8073 0b3e b9b2 283d 7747 ac3d 4e53 ed3d
00000170: b177 3c3e 002e 0f3e ffcc 3d3e 82ff 403e
00000180: d7d1 8f3d 31d4 543e ecd5 3f3d a3d5 4f3e
00000190: fea1 353e 3800 4b3e 50de 2d3e 938d 9b3e
000001a0: 34e1 773d 0e8d bebd 59b0 84bd eca3 5939
000001b0: c958 543e 6089 6a3e 9b5c 433d 3243 143d
000001c0: 415d 523e f61a abbc 8c32 013d dfb6 ae3d
000001d0: 57ce 293e c0ef 553e 46d4 9e3d e2f4 e13d
000001e0: 8ce1 513e 3cd9 54bd 71d1 8c3d 94a2 d63d
000001f0: 1b5b 163e 5249 7ebd 614f 4d3e 876a 173e
0.16477504 0.021840287 0.12566742 0.10867398 0.09616422 0.088037916 -0.06956265 0.101464614
0.16083656 -0.014037135 -0.018617742 0.11432724 0.12322444 0.20554529 0.13325813 0.07596637
0.07260045 0.19328666 0.22121584 -0.09895793 0.24263732 -0.07635075 0.17408502 0.039095163
0.14523834 0.07255723 0.21005236 0.13882506 0.061585076 0.1974136 0.084699094 0.19025898
-0.09096075 0.17045645 0.1455011 0.070443146 0.17463855 0.15326443 0.031553864 0.2146283
0.075183555 0.08610691 0.06548372 0.15440053 0.16322412 0.07694826 -0.059992258 0.04182443
0.21015331 0.052038494 0.15626158 0.18375221 0.2150275 0.21202113 0.18120986 0.21728328
0.22522059 0.06017884 0.47698838 0.21197912 0.09690862 0.14898331 0.18431833 0.04265523
0.22134025 0.21495077 0.08813617 0.114228174 0.012053438 0.14258878 0.057067964 0.0077205645
0.06926664 0.014309006 -0.06459129 0.12943159 -0.101668134 0.19363375 0.054220766 0.20402434
0.123311356 0.20319965 0.11491423 0.17839153 0.18108784 0.07697594 0.094643496 0.10970009
0.13618279 0.04118607 0.08412068 0.11588155 0.18405034 0.13982391 0.18535231 0.18847468
0.07022446 0.2078407 0.04683487 0.2029634 0.17737576 0.19824302 0.16979337 0.3038145
0.060517505 -0.09304248 -0.06478948 0.00020755798 0.20736994 0.22903967 0.047695737 0.036196895
0.20543386 -0.02088688 0.031542346 0.08530974 0.16582619 0.20892239 0.07755332 0.11033036
0.20496196 -0.051964983 0.06875885 0.10480228 0.14683191 -0.062081642 0.20049812 0.1478673
