src/neuralstars/benchmarks/vae_model.pth (torch, 543128 bytes, 8 tensors)

encoder.0.weight f4 [128, 500]
0	0x3b9771b8	0.0046217106
1	0x3d084235	0.033266265
2	0x3cd4d156	0.025978725
3	0x3d2547b3	0.04035158
4	0x3bb1fdf0	0.005431883
5	0x3d0dc5e3	0.034612548
6	0x3ca6a4da	0.02034228
7	0xbcd45a28	-0.025921896
8	0xbcc0f8d9	-0.02355616
9	0xb9540f00	-0.00020223483
10	0x3c0e0424	0.008667979
11	0xbc53dba8	-0.012930788
12	0x3d2dff65	0.04247989
13	0xbd0c8074	-0.03430219
14	0xbd198b02	-0.037486084
15	0xbc4b73b0	-0.012417719
16	0x3c7df8c0	0.015501201
17	0xbd2e8063	-0.042602908
18	0xbd09ea5a	-0.03367076
19	0xbcb74751	-0.022372873
20	0x3c634f20	0.013873845
21	0xbd28ee5a	-0.041242935
22	0xbcf17f81	-0.029479744
23	0xbced7442	-0.0289861
24	0x3d0d608b	0.0345159
25	0xbccf1016	-0.025276225
26	0x3c8d31e6	0.017235707
27	0x3cd072ee	0.025445428
28	0xbd1fe8c3	-0.03904034
29	0xba58dd00	-0.00082726777
30	0xbd12d6a0	-0.035849214
31	0xbbb15c50	-0.005412616
32	0xbd0eca9d	-0.034861196
33	0x3c178744	0.009248558
34	0x3d27d1af	0.040971454
35	0xbd1fb427	-0.038990166
36	0x3d0a0d87	0.033704307
37	0xbcbe8988	-0.02325894
38	0xbbdfb268	-0.0068266876
39	0xbc6562a2	-0.014000567
40	0xbcd3edb0	-0.025870174
41	0x3c85963e	0.016306993
42	0xbbc241a0	-0.0059282333
43	0x3c85488e	0.016269948
44	0xbc0ed18c	-0.008716952
45	0xbd0f1e55	-0.034941036
46	0xbcf8b533	-0.03035984
47	0xbc848f88	-0.016181722
48	0x3d1ecedf	0.038771506
49	0x3d0bd2ff	0.03413677
50	0x3aa99e40	0.0012940839
51	0xbd02c103	-0.03192235
52	0x3d25f117	0.040513124
53	0xbd0cd5dc	-0.03438364
54	0xbcb4ed13	-0.022085702
55	0xbbad1b48	-0.005282793
56	0xbc1b18c4	-0.009466354
57	0xbc85ca81	-0.016331913
58	0xbc3064a8	-0.010766186
59	0x3c7ca288	0.01541961
60	0x3b5dca20	0.00338424
61	0xbb75f0e0	-0.0037527606
62	0xbd0d9b88	-0.034572154
63	0x3d077f5f	0.033080455
64	0xbc13f834	-0.009031344
65	0x3d1b5cf5	0.037930448
66	0x3b5e75a0	0.0033944622
67	0xbc554dd4	-0.013019044
68	0x3b831ac0	0.0040009916
69	0x3cef6022	0.029220644
70	0x3d26cdb7	0.04072353
71	0xbc8bf61e	-0.017085131
72	0xbd1f966b	-0.03896181
73	0x3d29bcf7	0.041439977
74	0xbca0f6e6	-0.01964898
75	0x3c3d2634	0.011544753
76	0x3d038129	0.0321056
77	0x3d370a85	0.044687767
78	0xbd2de08a	-0.042450465
79	0xbc0492a8	-0.008091606
80	0x3b836d30	0.004010819
81	0x3d0dde9b	0.03463612
82	0xbd06705c	-0.032821998
83	0x3c985562	0.018595401
84	0x3d0f2c47	0.034954336
85	0x3cd9e172	0.026596759
86	0xbcc2cee1	-0.023780288
87	0x3c81b46c	0.015833102
88	0x3accbce0	0.0015620254
89	0xbc9986f7	-0.018741114
90	0xbd20897a	-0.039193608
91	0xbc1054a0	-0.008809239
92	0x3c64bbec	0.01396082
93	0x3d18ce2b	0.037305992
94	0x3d1cc7c5	0.038276453
95	0xbb825440	-0.0039773285
96	0xbd01260a	-0.031530418
97	0x3c7eb404	0.015545849
98	0xbd008322	-0.031375058
99	0xbc67fee8	-0.0141598955
100	0xbd2aaa4e	-0.04166632
101	0xbd0b6e9b	-0.03404103
102	0xbd2d3fa8	-0.042297035
103	0xbc024d58	-0.0079530105
104	0x3caf3c9e	0.02139121
105	0x3c982fbe	0.018577453
106	0xbce7cea1	-0.02829677
107	0x3d2aa513	0.041661333
108	0x3cebf33e	0.02880251
109	0x3caef53a	0.021357168
110	0x3d300367	0.042971995
111	0xbd1f544d	-0.038898755
112	0xbb2669b0	-0.0025392585
113	0xbd2f1881	-0.042747978
114	0xbd122930	-0.03568381
115	0x3d16579b	0.03670464
116	0xbccf681b	-0.025318196
117	0x3c60ed2c	0.013728421
118	0x3c8339f6	0.016018849
119	0xbd0c84d6	-0.03430637
120	0x3c155478	0.009114377
121	0xbb890068	-0.0041809566
122	0x3ce5e15a	0.028061558
123	0x3a7ffc80	0.00097651035
124	0x3cf0725a	0.029351402
125	0x3badba28	0.0053017326
126	0x3caf47d6	0.021396559
127	0x3cbebf3a	0.023284543
128	0x3d272fb1	0.040816966
129	0xbc78550c	-0.0151569955
130	0x3d2b23cb	0.04178218
131	0x3d20317b	0.03910969
132	0x3d2c1b59	0.04201827
133	0xbc903bfb	-0.017606726
134	0x3c113950	0.008863762
135	0xbc992d50	-0.018698364
136	0x3d31cca9	0.04340807
137	0x3ca172fa	0.019708145
138	0x3c4d253c	0.012521084
139	0x3c629f48	0.013831921
140	0xbcebcc17	-0.028783841
141	0x3a4b3e80	0.00077531487
142	0xbd272075	-0.040802438
143	0xbc9692a9	-0.01838048
144	0x3cb307e6	0.021854352
145	0xbd07c6a6	-0.03314843
146	0xbccd3dbe	-0.025053855
147	0xbd2883ac	-0.041141197
148	0x399b4e80	0.0002962239
149	0x3cea0b9e	0.028569993
150	0x3a80b820	0.0009820499
151	0xbd359116	-0.044327818
152	0xbcebee47	-0.028800143
153	0x3c90cc7c	0.01767563
154	0xbd1b6d39	-0.03794596
155	0x3cfdd47e	0.030985113
156	0x3c97dbbe	0.018537398
157	0xbb44a9e0	-0.003000848
158	0x3ce38d4a	0.027777333
159	0x3ce6a366	0.028154086
160	0xbaa06700	-0.0012237728
161	0x37ad7800	2.0679086e-05
162	0x3d28ff1d	0.04125892
163	0xbbd44728	-0.006478209
164	0xbca5580b	-0.020183584
165	0xbc8bf32a	-0.017083723
166	0xbcc21289	-0.023690479
167	0xbcf701b1	-0.030152174
168	0xbc88591a	-0.01664405
169	0xbc18c6b4	-0.009324718
170	0x3d0d27b7	0.034461703
171	0x3cdc63f2	0.026903126
172	0x3c0c46bc	0.008561786
173	0xbc1b3d98	-0.009475134
174	0xbbf8e980	-0.0075961947
175	0x3c94d64e	0.018168595
176	0xbcac0e03	-0.021002775
177	0x3c9ac672	0.018893454
178	0x3b907ea8	0.00440963
179	0x3d209321	0.039202813
180	0xbc9ae517	-0.018908067
181	0x3bb4b238	0.0055144094
182	0x3cad2186	0.02113415
183	0xbb1f8800	-0.0024342537
184	0xbce7b0b9	-0.02828251
185	0x3635c000	2.708286e-06
186	0xbd044846	-0.032295488
187	0xbd0edafe	-0.034876816
188	0xbd113c8d	-0.035458136
189	0x3c1ea49c	0.009682801
190	0x3cf0d4ce	0.029398348
191	0xbb363fa0	-0.002780892
192	0x3c33c4dc	0.010972228
193	0x3c5b99f4	0.0134034045
194	0xbb702490	-0.0036642887
195	0x3d0e41b9	0.034730647
196	0x3c8b3344	0.016992219
197	0x3c580f78	0.013187282
198	0xbbdc2630	-0.0067184195
199	0xbd0b8748	-0.03406456
200	0x3c9ca7ca	0.019122977
201	0xbc5c86b0	-0.013459846
202	0x3c374ef4	0.0111882575
203	0x3c011a68	0.007879831
204	0xbcbd89f6	-0.023137074
205	0x3d1b7055	0.037948925
206	0xbd1ac350	-0.03778392
207	0xbc5608cc	-0.013063621
208	0x3d077001	0.0330658
209	0x3cf9eb02	0.030507568
210	0xbcfca5be	-0.03084075
211	0x3cb8395a	0.022488285
212	0x3c98f412	0.01867107
213	0x3cd6387a	0.026149977
214	0x3c0ed408	0.008717544
215	0xbd2dfc5d	-0.042477
216	0xbd19f762	-0.03758944
217	0xba67c440	-0.0008841194
218	0xbbe63618	-0.0070254914
219	0xbd24a3f3	-0.040195417
220	0x3cc2ddc2	0.023787383
221	0xbcdd46dc	-0.027011327
222	0xbcf6b269	-0.03011437
223	0x3cd49b52	0.025952969
224	0xbcbb8ada	-0.022893358
225	0xbc7dadf2	-0.015483366
226	0xbcc7b40d	-0.024377847
227	0xbc876ffb	-0.016532889
228	0xbc8cc105	-0.017181883
229	0xbc77a070	-0.015113935
230	0xbc9bf63c	-0.019038312
231	0x3cd017f2	0.025402043
232	0xbd293745	-0.041312475
233	0xbbd42308	-0.0064739026
234	0xbd32f355	-0.04368909
235	0x3c841ee6	0.016128015
236	0x3ce37ec2	0.027770404
237	0x3ced72ea	0.02898546
238	0x3bc65fc0	0.0060538948
239	0xbc3a5e5c	-0.011375036
240	0xbcea24e1	-0.028582038
241	0xbcf5484a	-0.029941697
242	0xbcd14e68	-0.025550082
243	0xbd2947e8	-0.04132834
244	0x3be51068	0.006990481
245	0xbd2c7f5c	-0.042113647
246	0x3ca2d846	0.019878518
247	0xbd184f88	-0.037185222
248	0xbd0d7533	-0.034535598
249	0xbd02bbab	-0.031917255
250	0x3d17f6cd	0.037100602
251	0xbd294978	-0.04132983
252	0xbc550468	-0.013001539
253	0xbc79ef02	-0.015254738
254	0xbd1f6fc0	-0.038924932
255	0xbc386054	-0.011253435

encoder.0.bias f4 [128]
0	0xbd19208c	-0.037384555
1	0xbd354eb4	-0.04426451
2	0x3c400439	0.011719757
3	0xbc2c2038	-0.010505728
4	0xbcd286af	-0.025698988
5	0xbccfe8f0	-0.025379628
6	0xbb002917	-0.0019555741
7	0x3d2016c5	0.039084215
8	0xbcdaf3c1	-0.026727559
9	0xbbe69278	-0.0070365034
10	0x3d59b5f6	0.053152047
11	0xbcb05da3	-0.021529024
12	0xbcd4f0bc	-0.025993697
13	0x3d433e12	0.047666617
14	0xbcfddd1e	-0.030989226
15	0xbce765a3	-0.028246706
16	0x3cb62adb	0.022237232
17	0x3cb32e14	0.021872558
18	0x3ca61d8a	0.020277757
19	0x3d352327	0.044222977
20	0xbcff1db4	-0.031142093
21	0x3ccc2ed0	0.024924666
22	0xbd302190	-0.043000758
23	0x3c3b30e9	0.011425235
24	0xbcdb66d8	-0.026782438
25	0x3cb6cc8b	0.02231433
26	0x3d3b5623	0.045736443
27	0xbb103020	-0.002200134
28	0xbd1a0462	-0.037601836
29	0xbce2037b	-0.02758955
30	0x3d1af393	0.037829947
31	0xbc8e9e43	-0.01740945
32	0xbd0355a2	-0.032064088
33	0xbc6d80d0	-0.014496043
34	0xbbca5592	-0.0061747516
35	0x3cf420fb	0.029800883
36	0x3c646cb4	0.0139419325
37	0xbc80164b	-0.01563563
38	0xbd0987fb	-0.033576947
39	0xbbcbfea8	-0.0062254258
40	0xbbffb420	-0.007803455
41	0x3d37bcb5	0.0448577
42	0xbc66cbce	-0.014086677
43	0xbd146714	-0.036231115
44	0xbba50b38	-0.005036738
45	0xbd1ea134	-0.038727954
46	0xbae78144	-0.0017662426
47	0xbc55e600	-0.013055325
48	0xbc9a94d6	-0.018869799
49	0xbd2ec483	-0.042667877
50	0xbd0f32a4	-0.034960404
51	0x3cbfea42	0.023427133
52	0x3c1fce17	0.0097537255
53	0x3d309bea	0.04311744
54	0xbd0eca42	-0.034860857
55	0x3cd63168	0.026146606
56	0x3d222edc	0.03959547
57	0x3d133e2c	0.035947964
58	0x3d103655	0.035208065
59	0x3cdca50f	0.026934175
60	0xbd06054c	-0.032719895
61	0xbc0c5c78	-0.008566968
62	0xbc29731c	-0.010342386
63	0x3cad172b	0.021129211
64	0xbd171779	-0.03688762
65	0xbcec2fd1	-0.028831394
66	0x3d1a7a77	0.037714448
67	0xbcc0e5e6	-0.023547124
68	0x3d57de2d	0.052702118
69	0x3bfc4eb4	0.007699812
70	0xbd36b247	-0.044603612
71	0xbbeb731d	-0.0071853534
72	0xbcbe8997	-0.023258967
73	0xbbd0a465	-0.0063672536
74	0xbbb96a01	-0.0056583886
75	0xbc0da940	-0.008646309
76	0x3d13ab58	0.036052078
77	0xbd220df7	-0.0395641
78	0x3d411508	0.047139198
79	0xbc8cd070	-0.017189234
80	0xbc1a1438	-0.009404235
81	0xbd2bc87b	-0.04193924
82	0xbc83373e	-0.016017552
83	0x3d7ce01c	0.061737165
84	0x3d5a62dd	0.05331694
85	0x3d446a4e	0.047952943
86	0xbd06f82a	-0.03295151
87	0xbbb12d08	-0.0054069795
88	0xbc938906	-0.018009674
89	0xbbf215ef	-0.0073878686
90	0xbd0e3517	-0.0347186
91	0x3d067110	0.03282267
92	0xbc245a4c	-0.010031294
93	0x3bfa6fa8	0.007642705
94	0x3cc60770	0.024173468
95	0xbcadcd20	-0.021215975
96	0xbd01f0d2	-0.031723805
97	0xbc02fbc0	-0.007994592
98	0xbbc41a32	-0.005984568
99	0xbd062b60	-0.03275621
100	0xbbba5572	-0.0056864554
101	0xbd0b8eac	-0.03407161
102	0xbc0a94a8	-0.008458294
103	0xbcb6d8f7	-0.022320254
104	0xbcf07747	-0.02935375
105	0xbd2aed2e	-0.0417301
106	0xb912818e	-0.00013971908
107	0x3cee696c	0.029103003
108	0xbc25c380	-0.010117412
109	0xbc80c52b	-0.015719017
110	0xbbec7ed6	-0.0072172685
111	0xbbcf2528	-0.006321568
112	0xbb7a76d0	-0.003821779
113	0x3d1559a1	0.03646243
114	0xbd1ac55e	-0.03778588
115	0x3ca54428	0.020174101
116	0x3d3dc1b3	0.046327304
117	0x3c4e82f0	0.01260446
118	0xbcd423a4	-0.025895901
119	0xbc878290	-0.01654175
120	0xbb9973b0	-0.0046829805
121	0xbc17bd04	-0.009261373
122	0x3d8c365b	0.06846305
123	0xbd05f90c	-0.032708213
124	0x3e68ce3b	0.2273492
125	0xbc0676bd	-0.00820702
126	0xbc4cb038	-0.012493186
127	0x3d4b47bc	0.049628958

encoder.2.weight f4 [32, 128]
0	0xbd879390	-0.06619942
1	0x3d27b066	0.04093971
2	0xbd686fb1	-0.056747142
3	0x3d8ddfb3	0.06927433
4	0xbcde0f0e	-0.027106788
5	0xbdb3553c	-0.087564915
6	0x3b8ab1af	0.0042326073
7	0x3d694201	0.05694771
8	0x3ce1801c	0.027526908
9	0xbd251b79	-0.040309403
10	0x3ddd54b7	0.10807174
11	0xbcd98c4e	-0.02655616
12	0xbc6423f0	-0.013924584
13	0xbcb0954f	-0.02155557
14	0xbda9d5d3	-0.08292737
15	0xbce86374	-0.028367735
16	0x3da79333	0.08182373
17	0x3d0e1833	0.034691047
18	0x3b8e1b8a	0.004336779
19	0x3dda483f	0.10658311
20	0x3d80798b	0.062731825
21	0x3cafb11a	0.021446753
22	0x3a8d4980	0.0010779351
23	0xbc955e35	-0.018233398
24	0x3d49a5f6	0.04923054
25	0x3d376edc	0.044783458
26	0x3d282d3f	0.041058775
27	0xbd93161e	-0.07181953
28	0x3c874808	0.01651384
29	0x3ca127b0	0.019672245
30	0x3d400cbb	0.04688714
31	0x3d6468be	0.055763952
32	0xbd334006	-0.04376223
33	0x3d930a17	0.07179659
34	0xbc8d7aef	-0.017270533
35	0x3d87fa95	0.066395916
36	0x3d506cb6	0.050884925
37	0x3cc56bcc	0.024099253
38	0xbc171be8	-0.009222962
39	0xbd47b92e	-0.048760585
40	0xbd807882	-0.06272985
41	0xbcd4ee59	-0.02599256
42	0xbd943722	-0.07237078
43	0xbd48cac9	-0.049021516
44	0x3d2fd8b6	0.04293128
45	0x3d8bfa2f	0.06834828
46	0xbd3aab44	-0.045573488
47	0x3d75803e	0.059936754
48	0x3d17070e	0.036871962
49	0x3d1c7506	0.03819754
50	0xbb73a420	-0.0037176684
51	0x3c94ad1d	0.018148953
52	0xbd997447	-0.07492881
53	0x3c16cd90	0.009204283
54	0x3ca5e6e8	0.020251706
55	0xbd66e720	-0.05637276
56	0xbd19f832	-0.037590213
57	0xbd68f218	-0.056871504
58	0xbab3d7bc	-0.001372091
59	0x3d0c3331	0.034228507
60	0x3d4d542a	0.050129093
61	0x3bb1a3d0	0.0054211393
62	0x3c8064bc	0.015673034
63	0xbcfd8061	-0.030945005
64	0x3d94ab81	0.07259274
65	0xbcf55484	-0.029947527
66	0x3d4e9157	0.050431576
67	0x3dad3ed3	0.084592484
68	0x3caf7f92	0.021423135
69	0x3dd664b9	0.1046843
70	0xbd981cca	-0.07427366
71	0x3cde3da0	0.027128994
72	0x3d1bfcf2	0.038083024
73	0xbbe38459	-0.0069432673
74	0x3d860b72	0.06545152
75	0x3d805b63	0.06267431
76	0x3d4a2ae7	0.04935732
77	0xbc253008	-0.010082252
78	0x3cd1b559	0.025599169
79	0x3d8618c1	0.0654769
80	0xbd34010e	-0.04394632
81	0xbcb55348	-0.022134438
82	0xbcd78e36	-0.026312929
83	0x3da30c24	0.079613
84	0x3da39eb1	0.07989252
85	0xbda022bd	-0.07819126
86	0x3daa6ded	0.08321748
87	0x3d231e62	0.039823897
88	0xbd8d5909	-0.06901748
89	0xbdc53747	-0.09629684
90	0x3d84c99d	0.06483767
91	0x3cae9c11	0.021314653
92	0x3d9e700d	0.07736216
93	0xbd29512a	-0.04133717
94	0x3d819c16	0.06328599
95	0x3d9e6173	0.07733431
96	0xbcc37de8	-0.023863748
97	0x3d9e13c1	0.077186115
98	0xbc77f7b1	-0.015134738
99	0x3c6eb7e0	0.014570206
100	0xbd96a4b7	-0.073556356
101	0x3cfbf830	0.030757993
102	0x3ccf6e13	0.025321042
103	0xbd98d191	-0.074618466
104	0xbd93725c	-0.07199547
105	0x3d4854ca	0.048908986
106	0xbda9d711	-0.08292974
107	0xbd77d18a	-0.060502566
108	0xbd7e4fe5	-0.062087912
109	0xbcab2d38	-0.020895585
110	0xbd86cb4b	-0.06581744
111	0x3d4e3b82	0.05034972
112	0xbdb0d292	-0.08633913
113	0xbd4ef660	-0.05052793
114	0xba8c2640	-0.0010692552
115	0x3d7c54a3	0.061604153
116	0xbd5f414b	-0.054505628
117	0xbc14ab24	-0.009074006
118	0xbb9e7bb0	-0.004836522
119	0xbd1e8051	-0.03869659
120	0xbd97504e	-0.07388364
121	0x3da8feb7	0.08251708
122	0x3da529b8	0.08064598
123	0xbc06ca60	-0.008226961
124	0x3d3e4698	0.046454042
125	0xbc8e5e66	-0.017378997
126	0xbd52d0f7	-0.051468816
127	0xbaeea65b	-0.0018207537
128	0xbc7a0738	-0.01526051
129	0x3da2f95f	0.0795772
130	0xbc116869	-0.008874991
131	0xbc6e8900	-0.0145590305
132	0x3c844034	0.016143896
133	0xbda1e15e	-0.079043135
134	0xbcf5dc04	-0.030012138
135	0x3d56840d	0.052372027
136	0xbd945fc0	-0.07244825
137	0x3d95c9eb	0.073139034
138	0xbdd6a2ab	-0.10480245
139	0x3dafe8eb	0.085893475
140	0x3c8b909c	0.017036729
141	0xbdd8ad64	-0.10579947
142	0x3cf4f350	0.029901177
143	0xbcd40f88	-0.025886312
144	0xbc241ca9	-0.010016599
145	0xbd59c9b6	-0.053170882
146	0x3cac1ddc	0.021010332
147	0xbd6a6d41	-0.0572331
148	0xbdab56ef	-0.08366191
149	0x3ce0f222	0.027459208
150	0xbc7db500	-0.015485048
151	0x3d560873	0.05225415
152	0xbd478485	-0.048710365
153	0x3d4a527d	0.049395073
154	0xbd77d0ec	-0.060501978
155	0x3d2cee92	0.042219706
156	0x3d86ab59	0.06575651
157	0xbd9fa795	-0.077956356
158	0xbd1435b5	-0.03618403
159	0x3dae8d39	0.0852303
160	0xbc8fd844	-0.017559178
161	0x3d7f8af6	0.062388383
162	0xbd17d861	-0.03707159
163	0x3d51c8c9	0.051216874
164	0xbd20815d	-0.03918587
165	0xbd27c273	-0.040956926
166	0x3d32f59e	0.04369127
167	0x3d586292	0.05282838
168	0xbd8c16be	-0.06840275
169	0xbd9369c0	-0.071979046
170	0xbd477c66	-0.04870262
171	0xbcaa4808	-0.0207863
172	0xbd85c383	-0.065314315
173	0x3bf2c740	0.0074090064
174	0xbd76731d	-0.060168374
175	0xbd983db3	-0.07433643
176	0x3935c800	0.00017336011
177	0xbd9da59a	-0.076976016
178	0xbc4bc308	-0.012436636
179	0xbc8085da	-0.015688825
180	0xbde96108	-0.1139546
181	0xbd23541e	-0.039875142
182	0x3d4f753a	0.050648905
183	0xbd88eeb1	-0.06686152
184	0x3d2f7b6e	0.04284232
185	0xbcd9aaf3	-0.026570773
186	0xbd0905ce	-0.0334528
187	0xbc896648	-0.016772404
188	0xbcde7b76	-0.02715848
189	0x3d9d2e09	0.07674796
190	0x3d1baae2	0.038004763
191	0xbd3dd607	-0.04634669
192	0xbd0ca1db	-0.034334045
193	0x3d61779e	0.055045716
194	0x3d59a5cf	0.053136643
195	0xbd07b6d4	-0.033133343
196	0x3d1771f3	0.036973905
197	0xbb8b2eee	-0.004247538
198	0xbd519379	-0.05116603
199	0x3d03e60c	0.03220181
200	0x3d17576a	0.0369486
201	0x3c83df59	0.016097711
202	0xbd008532	-0.031377025
203	0xbdb2f114	-0.08737388
204	0xbdb65011	-0.0890199
205	0x3d21b4e6	0.03947916
206	0xbd659289	-0.05604795
207	0x3d88a9d1	0.06673015
208	0xbd0bfdd1	-0.034177605
209	0x3da77a27	0.081775956
210	0x3cc638e8	0.024197057
211	0xbdd3aa46	-0.103352115
212	0xbc5fb63b	-0.013654287
213	0x3d12491e	0.03571426
214	0xbc53e728	-0.01293353
215	0x3d50ac0e	0.050945334
216	0x3d3158ca	0.043297566
217	0xbc342c54	-0.010996897
218	0x3d5914ba	0.052998282
219	0x3cc283a6	0.023744415
220	0x3d27c92e	0.040963344
221	0xbd8990d1	-0.06717075
222	0xbd444e1f	-0.047926065
223	0x3d69193e	0.05690884
224	0x3b4351e0	0.002980344
225	0xbcedc1b6	-0.029023033
226	0x3bf6817b	0.0075227595
227	0xbd0ab59f	-0.033864614
228	0x3d446fec	0.0479583
229	0x3d2fed86	0.04295113
230	0x3da1fbb9	0.079093404
231	0xbca377ec	-0.019954644
232	0x3c525be0	0.0128392875
233	0x3dab1df3	0.08355322
234	0xbb8c0b2b	-0.0042737923
235	0xbd92adc2	-0.07162048
236	0xbd4df7de	-0.050285213
237	0x3d392cea	0.04520885
238	0xbd79991a	-0.060937025
239	0xbcb4ef44	-0.022086747
240	0xbc854be8	-0.016271546
241	0xbdbc28df	-0.09187483
242	0x3d91fe0f	0.07128536
243	0xbda83bc3	-0.08214524
244	0x3d50a4dc	0.050938472
245	0xbd6457ea	-0.055747904
246	0x3daa5e4d	0.08318768
247	0x3d7a5d7a	0.061124302
248	0x3daf248b	0.08551892
249	0x3d8b9bc3	0.068168186
250	0x3bd9553c	0.006632475
251	0xbd2222ac	-0.039583847
252	0xbdaaf77f	-0.083479874
253	0xbdb35305	-0.08756069
254	0xbd0fddde	-0.0351237
255	0xbdb23e1b	-0.08703252

encoder.2.bias f4 [32]
0	0xbd2663bd	-0.04062246
1	0x3d73338a	0.059375323
2	0x3b7b620f	0.0038358008
3	0xbc44591d	-0.011984137
4	0xbd808f7f	-0.0627737
5	0xbd0634d1	-0.032765213
6	0x3c8729eb	0.01649948
7	0x3d25c934	0.040475085
8	0xbcdfc752	-0.027316723
9	0xbb1f76b0	-0.0024332218
10	0xbd2c9149	-0.042130742
11	0xbb837bd4	-0.004012564
12	0x3c6e5ce9	0.014548519
13	0x3c949301	0.018136503
14	0x3aaa172c	0.0012976876
15	0x3d17e46d	0.03708308
16	0xbbc1cdf1	-0.0059144427
17	0x3d14a3c7	0.036289003
18	0xbd90d8d7	-0.07072609
19	0xbdba96f1	-0.09110821
20	0xbc860455	-0.016359488
21	0xbcd3a15b	-0.025833776
22	0xbd45b52a	-0.048268475
23	0x3b9cb812	0.004782685
24	0x3b1c61c1	0.0023861977
25	0x3d538cda	0.051648
26	0xbd7e6290	-0.062105715
27	0xbca62ff7	-0.020286543
28	0xbca3eb90	-0.020009786
29	0xbcb0c7a7	-0.021579577
30	0xbc9695b0	-0.018381923
31	0x3d0f10fe	0.034928314

decoder.0.weight f4 [128, 16]
0	0x3dcb9142	0.09939815
1	0xbc7f7453	-0.015591699
2	0x3da26fb5	0.07931463
3	0x3d7dd5a3	0.061971318
4	0xbdd937fb	-0.106063806
5	0xbd6b7bfd	-0.05749129
6	0xbd607e6a	-0.054808058
7	0xbd65e676	-0.056127988
8	0xbd391f8f	-0.045196112
9	0x3d9c2b43	0.07625439
10	0x3bf0edc4	0.0073525626
11	0x3d25fff9	0.040527318
12	0xbd56bf36	-0.052428447
13	0x3d90ea47	0.07075935
14	0xbdbbf365	-0.09177283
15	0xbe182664	-0.14858395
16	0xbcfd44c3	-0.030916577
17	0xbc34de8d	-0.011039388
18	0xbd699334	-0.05702515
19	0x3de0d9b8	0.109790266
20	0x3d702dc0	0.05863738
21	0xbd414b14	-0.04719074
22	0xbc08d96f	-0.008352621
23	0xbc0622d3	-0.008187014
24	0x3daa96a8	0.08329517
25	0xbcfd7722	-0.030940596
26	0x3d32341b	0.043506723
27	0x3d98fe00	0.07470322
28	0xbc9673e6	-0.018365812
29	0xbda6f9c4	-0.08153108
30	0x3d82ea65	0.063923635
31	0x3e0e44a4	0.13893372
32	0x3b962313	0.004581818
33	0xbdbea8be	-0.09309529
34	0xbd4cddfd	-0.050016392
35	0x3cee57ec	0.029094659
36	0xbb085df2	-0.002080795
37	0xbdd3b9a6	-0.10338144
38	0xbd8de503	-0.06928446
39	0xbdb80834	-0.089859396
40	0x3def5fda	0.11688204
41	0xbc779681	-0.0151115665
42	0xbdafd013	-0.08584609
43	0x3dc42ec9	0.09579236
44	0x3d166af1	0.03672308
45	0xbcec931f	-0.028878747
46	0xbc0ed0c5	-0.008716767
47	0x3ba14f19	0.0049227593
48	0x3d2e3ca0	0.042538285
49	0x3d083f47	0.03326347
50	0xbcc8bbf5	-0.024503687
51	0xbd2a1acf	-0.041529473
52	0xbcfd25bd	-0.030901784
53	0x3c5202d2	0.012818055
54	0xbccbdaf2	-0.024884675
55	0xbd193da3	-0.037412297
56	0x3da0d357	0.0785281
57	0x3dba4597	0.090953045
58	0xbc0af99e	-0.008482365
59	0x3d417df6	0.047239266
60	0x3d987b6b	0.07445415
61	0xbb4f5de5	-0.003164166
62	0x3d0e912f	0.034806427
63	0xbd2b7f29	-0.041869316
64	0x38fd2c0c	0.000120721845
65	0xbcbd13f2	-0.0230808
66	0x3d100106	0.035157226
67	0x3d0786fb	0.03308771
68	0xbc2f379b	-0.01069441
69	0xbd09e0d9	-0.033661697
70	0x3d023e6d	0.031797815
71	0xbb524ab5	-0.0032087986
72	0xbd8aeaa5	-0.06783036
73	0xbd068bc7	-0.032848146
74	0x3c4c9838	0.012487464
75	0x3bf29feb	0.0074043176
76	0xbcdb5b8b	-0.02677705
77	0x3d09c9f5	0.033639867
78	0xbd78c63a	-0.06073592
79	0xbd067b16	-0.032832228
80	0x3cda17ce	0.02662268
81	0x3cc42ae9	0.023946242
82	0x3d0e8f85	0.03480484
83	0x3b85a639	0.004078653
84	0x3cdbb6bd	0.026820535
85	0xbd3da586	-0.046300434
86	0xbc9dcc97	-0.019262595
87	0x3cbf1c45	0.02332891
88	0xbc83c4ba	-0.016085017
89	0xbcadf091	-0.021232875
90	0xbb03ef1d	-0.0020131536
91	0xbd20cab6	-0.03925582
92	0xbd3985ba	-0.045293547
93	0xbcc0c715	-0.02353243
94	0x3d065648	0.032797128
95	0x3c0c6eb6	0.008571317
96	0xbca1f02f	-0.019767849
97	0x3d6890dc	0.056778774
98	0x3d161b66	0.036647223
99	0xbd91d50a	-0.07120712
100	0xbb9b5fb8	-0.004741635
101	0x3da30f0b	0.079618536
102	0x3d0e10d9	0.034684036
103	0x3d73ec45	0.059551496
104	0xbd7de4b2	-0.06198568
105	0x3d409e78	0.047026128
106	0x3d3e18bc	0.046410307
107	0xbd4db258	-0.05021891
108	0x3cf0c60c	0.029391311
109	0x3c1844d1	0.009293751
110	0x3c14dac6	0.009085363
111	0xbb93d7b1	-0.0045117964
112	0x3c9ac1bd	0.01889121
113	0xbd894d40	-0.067041874
114	0x3d4e55e7	0.05037489
115	0xbda63932	-0.08116378
116	0xbd46806c	-0.048462316
117	0xbdce98c8	-0.100877345
118	0xbce7541a	-0.028238345
119	0xbd72d930	-0.059289157
120	0xbc63ffbb	-0.013915951
121	0xbd530d8d	-0.051526595
122	0xbd610197	-0.054933157
123	0xbcb709f9	-0.022343623
124	0x3d305db4	0.043058112
125	0xbc5a59a3	-0.013327035
126	0xbd99304b	-0.07479914
127	0xbdae0db8	-0.084987104
128	0xbd1b6e8a	-0.037947215
129	0xbcd277db	-0.025691917
130	0x3c6aac01	0.0143232355
131	0x3d6e4cd2	0.05817873
132	0x3ca82e61	0.020529928
133	0xbd8bf698	-0.068341434
134	0xbbabbeb1	-0.005241238
135	0xbc95233e	-0.018205281
136	0xbc640ce7	-0.013919092
137	0xbd4123b5	-0.047153194
138	0xbc2b6f15	-0.010463496
139	0x3d82eb2d	0.063925125
140	0xbd65bf01	-0.05609036
141	0x3d12e887	0.035866287
142	0xbd807f19	-0.06274242
143	0x3ce05cb6	0.027387958
144	0x3d4cec8a	0.05003027
145	0x3cc6954d	0.024241114
146	0xbcc9754e	-0.024592068
147	0x3dc08c14	0.09401718
148	0x3d6703c0	0.05640006
149	0xbd3b83f6	-0.045780145
150	0x3d255c8f	0.040371474
151	0xbc34ee18	-0.011043094
152	0xbd419d9e	-0.047269456
153	0xbd09e058	-0.033661216
154	0xbd82402e	-0.063598976
155	0xbd9b8db2	-0.075953856
156	0xbd6966e3	-0.056982886
157	0x3d871793	0.06596293
158	0xbda1c6b3	-0.07899227
159	0x3d3c5acd	0.045985032
160	0xbd8d6cdd	-0.0690553
161	0x3d43ac3c	0.047771677
162	0x3d94334f	0.07236349
163	0xbc2ce086	-0.010551577
164	0x3d11f368	0.03563252
165	0x3d31603d	0.04330467
166	0x3d850304	0.06494716
167	0x3d3d45f7	0.0462093
168	0xbdd9af9b	-0.10629197
169	0xbdbdf0e8	-0.09274465
170	0xbc890372	-0.016725276
171	0xbdc7e5ec	-0.09760651
172	0x3b2bbc24	0.002620467
173	0x3d154175	0.036439378
174	0x3cd73859	0.026271986
175	0x3d930ca7	0.071801476
176	0xbbe16029	-0.0068779183
177	0x3c07655c	0.008263912
178	0x3c79e9fa	0.015253538
179	0x3bbe315e	0.005804225
180	0x3d880e8a	0.06643398
181	0x3bab9387	0.0052360925
182	0xbc6ed66a	-0.0145774875
183	0xbd48390f	-0.04888254
184	0x3c7f6f93	0.015590566
185	0xbbc8d42c	-0.0061288085
186	0xba90a0e5	-0.0011034278
187	0x3d3e025a	0.04638896
188	0xbd402f94	-0.046920374
189	0x3c4df6f7	0.012571088
190	0xbd51f581	-0.05125952
191	0xbd2c0b23	-0.04200281
192	0x3d899595	0.06717984
193	0xbdeebbb6	-0.11656897
194	0x3d279f4a	0.040923394
195	0x3d162c13	0.036663126
196	0x3ce840b1	0.02835116
197	0xbdf40743	-0.119154476
198	0x3dabc6bc	0.08387515
199	0xbd966093	-0.07342639
200	0xbe249eb5	-0.16076167
201	0xbdcaeae3	-0.09908082
202	0x3d191fe2	0.03738392
203	0xbe26c3a5	-0.1628557
204	0xbd57a47f	-0.05264711
205	0xbd00096c	-0.031258985
206	0x3df7c288	0.12097651
207	0x3e1f8f4b	0.15582006
208	0x3dc3caf1	0.095601924
209	0xbc319a28	-0.010839976
210	0x3d8b2a85	0.06795219
211	0x3d757a6b	0.0599312
212	0xbdc60335	-0.096685804
213	0xbd756da3	-0.05991901
214	0xbd3b00ce	-0.045655064
215	0xbd5edf62	-0.054412253
216	0xbd21d1ef	-0.03950685
217	0x3d8afe08	0.06786734
218	0x3c34a2d8	0.011025153
219	0x3d2cae14	0.0421582
220	0xbd3430d2	-0.04399187
221	0x3d85994b	0.06523379
222	0xbda92946	-0.082598254
223	0xbe11ac8a	-0.14225975
224	0xbcb346b3	-0.021884298
225	0xbc030ef0	-0.007999167
226	0xbd25ae4e	-0.040449433
227	0x3d9f4b07	0.07777982
228	0x3d2a3e98	0.0415636
229	0xbd08c0f1	-0.03338713
230	0xbbbfc51f	-0.005852356
231	0xbbb98024	-0.0056610275
232	0x3d72104d	0.059097577
233	0xbcb24a29	-0.021763878
234	0x3cfb11aa	0.030648071
235	0x3d58fb4d	0.052974034
236	0xbc548795	-0.012971778
237	0xbd6d49d6	-0.057931744
238	0x3d38a9f8	0.04508397
239	0x3dc991f5	0.09842292
240	0xbddc8384	-0.10767272
241	0x3c6c4ecc	0.0144230835
242	0x3d91cfad	0.07119689
243	0x3d369ea3	0.04458488
244	0x3d5fcf5e	0.05464112
245	0xbcfd5531	-0.030924411
246	0xbac0d44a	-0.0014711705
247	0x3e01af6c	0.12664574
248	0xbd52c318	-0.051455587
249	0x3be39879	0.0069456664
250	0x3d840452	0.064461365
251	0xbc04ea5b	-0.008112515
252	0xbd99fb85	-0.07518677
253	0xbd856e96	-0.06515233
254	0x3cce6021	0.025192322
255	0x3df17f4e	0.117918596

decoder.0.bias f4 [128]
0	0xbd5559fd	-0.052087773
1	0x3d39d903	0.045372974
2	0x3dae5284	0.08511832
3	0xbdc1f676	-0.09470837
4	0xbd589579	-0.052876923
5	0x3c9e6a97	0.019337935
6	0xbdd1484d	-0.102188684
7	0xbda06b45	-0.0783296
8	0xbda0d85c	-0.07853767
9	0xbca010eb	-0.019539317
10	0xbe16bc65	-0.14720304
11	0xbe2fa1e2	-0.17151597
12	0xbe5141a6	-0.20435199
13	0xbceff3c2	-0.029291037
14	0x3d030dea	0.03199569
15	0xbd2f1366	-0.04274311
16	0x3e3861c2	0.18006042
17	0xbd000669	-0.031256113
18	0xbdf1b68f	-0.118023984
19	0x3e369f92	0.17834309
20	0xbe7fa74d	-0.24966164
21	0x3e4a4779	0.19753827
22	0xbdeeb3fe	-0.116554245
23	0x3d949759	0.0725543
24	0x3e57d48b	0.21077172
25	0x3d7d6bb0	0.061870277
26	0x3d8bcd9f	0.068263285
27	0x3d68cb2b	0.05683438
28	0x3d6d534f	0.057940777
29	0xbe8d1e26	-0.27562064
30	0xbcc23d56	-0.023710888
31	0x3de43854	0.11143556
32	0xbe79e543	-0.24403863
33	0xbe55b0c2	-0.20868209
34	0xbe23a88a	-0.15982261
35	0xbcda8989	-0.02667691
36	0x3ce505e7	0.027956916
37	0xbe9275cd	-0.286055
38	0x3e8f01b0	0.27930975
39	0xbd049aef	-0.03237432
40	0x3de90138	0.113771856
41	0xbd52b481	-0.051441673
42	0x3e2cd619	0.16878547
43	0xbe57faf8	-0.2109183
44	0x3e6813cd	0.22663803
45	0xbd821792	-0.06352152
46	0x3dcd5893	0.1002666
47	0xbe96d65f	-0.29460427
48	0x3e1af7e5	0.15133627
49	0x3deec47f	0.116585724
50	0x3e6891ee	0.22711918
51	0x3e0a7bbb	0.13523762
52	0xbdb90094	-0.090333134
53	0xbc6e0d47	-0.014529533
54	0xbe825ec2	-0.2546292
55	0xbd876376	-0.066107675
56	0xbd19121f	-0.037370797
57	0xbdc6967f	-0.096966736
58	0xbe92a13a	-0.2863863
59	0xbe4d072f	-0.20022272
60	0x3e33c9a4	0.17557389
61	0xbe0d712c	-0.13812703
62	0x3e3b7eed	0.18310137
63	0xbe7eb52b	-0.24873798
64	0x3dea96c4	0.114545375
65	0xbd4e350d	-0.050343562
66	0xbda0c3e1	-0.07849861
67	0x3e1859b9	0.14877976
68	0x3d41bd4b	0.047299664
69	0x3d81c1aa	0.063357666
70	0xbcd34fc1	-0.025794866
71	0x3e5cb47f	0.21553229
72	0xbe880d4e	-0.2657265
73	0xbd4a151f	-0.04933655
74	0xbe7faef1	-0.24969079
75	0x3d8b0907	0.06788831
76	0xbe63def7	-0.22253023
77	0xbe976a7d	-0.29573432
78	0x3e5c8f30	0.21538997
79	0x3d911477	0.070839815
80	0xbe6f44b1	-0.23366047
81	0xbdc02d6a	-0.09383662
82	0xbd801bd9	-0.062553115
83	0x3e3f9be9	0.18711819
84	0x3e35f2a2	0.17768338
85	0xbd8c4fa2	-0.06851126
86	0x3e4bdac5	0.19907673
87	0xbe9cc500	-0.3061905
88	0x3d92b31d	0.071630694
89	0xbe744640	-0.23854923
90	0xbd864a11	-0.06557096
91	0xbd9a423d	-0.07532165
92	0x3e4e29b9	0.20133103
93	0x3d9f6b33	0.077841185
94	0x3de8effd	0.11373899
95	0x3ced7057	0.028984232
96	0xbe10236c	-0.14076012
97	0xbeb5b4ef	-0.35489604
98	0x3dfaec6a	0.12252124
99	0x3d737903	0.059441578
100	0x3e32a985	0.17447479
101	0xbe0f9212	-0.14020565
102	0xbdc3e9d9	-0.09566087
103	0xbeab6568	-0.33475804
104	0xbd8cdfc8	-0.068786204
105	0xbce91241	-0.028451087
106	0xbe0239a4	-0.127173
107	0x3d26c048	0.040710717
108	0x3db8f005	0.09030155
109	0x3d89b1c9	0.06723363
110	0xbd5da119	-0.054108713
111	0xbe9ff8dc	-0.31244552
112	0xbe1b37c9	-0.15157999
113	0xbe9387ab	-0.28814444
114	0xbc7ae4c1	-0.015313328
115	0xbe02d696	-0.1277717
116	0x3e34abe1	0.17643692
117	0x3e54379f	0.20724343
118	0xbd7b5917	-0.06136426
119	0x3d9cace5	0.076501645
120	0xbea9ec19	-0.3318794
121	0xbe038b6d	-0.12846155
122	0xbd037891	-0.032097403
123	0xbd86daad	-0.06584678
124	0xbdc4f6d4	-0.09617391
125	0x3e16cb9f	0.14726113
126	0x3e5dd87e	0.21664616
127	0xbcc93d65	-0.024565408

decoder.2.weight f4 [500, 128]
0	0x3bbf34a5	0.005835133
1	0x3c6cd512	0.014455097
2	0x3ac2802e	0.0014839226
3	0xb6e3b1f6	-6.7858446e-06
4	0x3b80fe2a	0.0039365487
5	0xbbe0af12	-0.0068568075
6	0x399b3dbc	0.000296099
7	0x3c2bae5b	0.010478581
8	0x3baed4ae	0.005335412
9	0xbc1a5c0d	-0.009421361
10	0xbc141963	-0.009039256
11	0x3d16a3c5	0.036777277
12	0xbbb14677	-0.0054100114
13	0x3cf947ee	0.030429807
14	0xbca7fe8e	-0.020507123
15	0x38952fd7	7.1137845e-05
16	0x3c2cdaab	0.010550181
17	0x3afc5b7e	0.0019253341
18	0x3c42635f	0.011864512
19	0xbc2b8f2a	-0.010471145
20	0xbccfa408	-0.02534677
21	0x3bd572ab	0.0065139136
22	0xb9207367	-0.0001530178
23	0xbb8f936e	-0.0043815887
24	0x3b87233d	0.004124074
25	0xbbd4d185	-0.0064947032
26	0x3bfb0a0d	0.0076611103
27	0x3b94e95f	0.0045444216
28	0x3c1ed976	0.009695401
29	0xbb269297	-0.0025416964
30	0x3bd7d158	0.006586235
31	0xbd323bec	-0.043514177
32	0x3c408898	0.0117513165
33	0xbcbe1702	-0.02320433
34	0xbbf2bc6c	-0.0074077155
35	0xbd56508c	-0.05232291
36	0xb857cdeb	-5.145177e-05
37	0xbc29a437	-0.010354093
38	0x3d34f0ec	0.044175074
39	0xb8f96f73	-0.00011894004
40	0x3ab2f977	0.0013654669
41	0x3977d3d8	0.00023634674
42	0x3c144e1c	0.009051826
43	0x395b6af5	0.00020925312
44	0xbd25ad3c	-0.040448412
45	0x38ae3ad2	8.307923e-05
46	0xbc0b02fb	-0.008484597
47	0xb8d36cf1	-0.00010081556
48	0x393e26aa	0.00018134215
49	0x3c98db17	0.018659158
50	0xbb993330	-0.0046752915
51	0x3cb856a0	0.022502244
52	0xbc823d17	-0.01589827
53	0xbc289123	-0.01028851
54	0x389eb341	7.567416e-05
55	0xbb4c3b29	-0.0031163192
56	0xbc97058e	-0.018435266
57	0xbbe8b00e	-0.0071010655
58	0x3bc2f4e3	0.005949603
59	0x3cc1c621	0.023654046
60	0xba8a2713	-0.001054021
61	0xbc41cbcf	-0.011828377
62	0xbcfeeef7	-0.031119807
63	0xbc8cf834	-0.017208196
64	0x3d16f3d2	0.03685362
65	0x3c6e4b30	0.014544293
66	0xbc2a6893	-0.010400909
67	0x3d1e4b5d	0.03864609
68	0x3bc2a4c9	0.005940054
69	0x3c30a989	0.010782608
70	0xb9dc8920	-0.00042063836
71	0xbc9fa264	-0.019486614
72	0x38991965	7.3003386e-05
73	0x3c21be06	0.009871965
74	0xb9ae2708	-0.00033216947
75	0xb7a9d11f	-2.024375e-05
76	0x3badc008	0.005302433
77	0x39171943	0.00014409893
78	0xbac0c738	-0.0014707809
79	0xbb3a9431	-0.0028469677
80	0xb8ac4eb3	-8.216258e-05
81	0x379415d9	1.7653148e-05
82	0x3c58d535	0.013234426
83	0x3c8e2980	0.017353773
84	0xbc8d379b	-0.017238429
85	0x3967d40d	0.00022108872
86	0x3c114941	0.008867563
87	0xbad9bfe0	-0.0016612969
88	0x3b1def8f	0.0024099087
89	0x39fe3a0e	0.0004848991
90	0x3923d684	0.00015624805
91	0xbc9418e0	-0.018078268
92	0x3c872063	0.016494935
93	0xbaa981f9	-0.0012932412
94	0xbbbd3bc9	-0.005774949
95	0xbc0eb9c2	-0.00871128
96	0xbb43e128	-0.0029888842
97	0xbd4526af	-0.048132595
98	0x3bac6f93	0.005262324
99	0x3be3bbf5	0.0069498965
100	0xbc282778	-0.010263316
101	0x3a6204e7	0.00086219463
102	0x3c7cbab1	0.01542537
103	0xbbca4a65	-0.0061734193
104	0x3ca3c3d3	0.019990837
105	0xbc91705d	-0.017753774
106	0x3bd54978	0.0065090023
107	0xb9ef4291	-0.00045635228
108	0xbb465d6b	-0.0030268084
109	0x38a533bb	7.877449e-05
110	0xbae4c536	-0.0017453793
111	0xbc157ef7	-0.009124509
112	0x3c16079f	0.00915709
113	0x39115ea7	0.00013863538
114	0xb9ab204e	-0.0003263973
115	0xb8a497da	-7.848414e-05
116	0xb8996ef2	-7.316274e-05
117	0xbc9b0b63	-0.018926328
118	0xbb3ce18e	-0.0028820965
119	0x3ba856a8	0.0051372834
120	0x394921f8	0.00019181508
121	0xbc3c93cc	-0.011509847
122	0x3bbdcb0d	0.005792028
123	0x3cb476d5	0.02202932
124	0xbc6bf375	-0.014401306
125	0xbbb81588	-0.005617801
126	0x3c1923ca	0.009346912
127	0x3c87fc6e	0.01659986
128	0x3a86c924	0.0010283333
129	0x3a503641	0.0007942655
130	0x3b4428a1	0.0029931443
131	0x3934c9b9	0.00017241285
132	0x3bdb7a0b	0.0066978983
133	0x39676d01	0.00022070484
134	0x3a69d4fc	0.0008919982
135	0xbc681252	-0.014164524
136	0x3d129669	0.035787974
137	0x3cb4fcb6	0.022093158
138	0x3c285546	0.010274237
139	0xbcdffe3e	-0.027342912
140	0xbcc1a96e	-0.02364036
141	0x3b1ddc34	0.002408755
142	0xba6ecada	-0.0009109207
143	0x3a2f7b59	0.00066941004
144	0xbc2412c5	-0.010014241
145	0x3c2a308c	0.010387551
146	0xbcbb715a	-0.022881199
147	0x3c2783a1	0.010224254
148	0x3c99fef8	0.018798336
149	0xbb62d1cb	-0.003460991
150	0xb864a4d6	-5.451295e-05
151	0xbada2b20	-0.0016644932
152	0xbba5fbdb	-0.005065424
153	0x3cd90554	0.026491798
154	0x3a82a990	0.0009968746
155	0xbd049a66	-0.03237381
156	0xbc084386	-0.00831688
157	0xba67e94c	-0.00088467146
158	0xbc00886f	-0.007845028
159	0xbd82f388	-0.06394106
160	0x3c72b654	0.014813978
161	0x3c695f9b	0.0142439855
162	0xbc3341a4	-0.010940943
163	0xbc80cd20	-0.015722811
164	0xb90e831e	-0.0001359102
165	0xbbb8ca12	-0.005639323
166	0x3bcfcb9a	0.00634141
167	0xb9b1804c	-0.0003385566
168	0xbbb3d149	-0.005487595
169	0x3946a7a1	0.00018945198
170	0x3d263af3	0.040583562
171	0x39bd1224	0.00036062405
172	0xbcd89a0a	-0.026440639
173	0xb805b799	-3.188066e-05
174	0x3c56ca85	0.013109808
175	0x390ee7d3	0.00013628537
176	0xb9165ab6	-0.00014338907
177	0xbcb1d49e	-0.02170783
178	0x3bf5cfb4	0.007501567
179	0xbc15acda	-0.009135449
180	0x3d0e41b3	0.034730624
181	0x3c4b2178	0.012398116
182	0xb910c658	-0.00013806799
183	0xbbadef5b	-0.0053080744
184	0x3c50e164	0.01274905
185	0x39a9f236	0.00032414653
186	0xbae79459	-0.0017668112
187	0xbc71a0bb	-0.014747794
188	0xbc142601	-0.009042264
189	0xbca72a3b	-0.02040588
190	0x3c946db8	0.018118724
191	0x3c1149a9	0.00886766
192	0xbbf6007c	-0.007507382
193	0xb90f3fc1	-0.00013661293
194	0xbbe99788	-0.0071286596
195	0xbcb54c75	-0.022131184
196	0x3b974fa2	0.0046176473
197	0xbbb065da	-0.0053832354
198	0xba254a34	-0.00063053076
199	0x3b87bacb	0.0041421405
200	0xb884ea5a	-6.337902e-05
201	0xbc0c4031	-0.008560226
202	0x3a5c1683	0.00083956885
203	0x380d4722	3.3683267e-05
204	0x3cb0a928	0.021565035
205	0x37abadda	2.0465744e-05
206	0xbc3c2aee	-0.011484845
207	0xbc4bdf8f	-0.012443437
208	0xb6ade2f4	-5.1822226e-06
209	0x38cb39bb	9.6905474e-05
210	0x3c1c95c9	0.009557196
211	0x3cc38745	0.023868212
212	0x3be10314	0.006866822
213	0x39519a94	0.00019989378
214	0xbc0c0d12	-0.008548038
215	0xba329ddb	-0.00068136834
216	0xbbbf9a63	-0.0058472618
217	0x398a74a3	0.00026408312
218	0x37a0581f	1.9114521e-05
219	0x3c0b2e91	0.008494989
220	0x3aa27702	0.0012395086
221	0xbb36d529	-0.002789805
222	0xbcf9eb83	-0.030507809
223	0x3c54935e	0.012974588
224	0xbca29d6f	-0.01985046
225	0xbab205a7	-0.0013582007
226	0x3cb9f46e	0.022699561
227	0xbb8df6e8	-0.004332412
228	0x3cdef508	0.02721645
229	0x3bdaf1a8	0.0066816397
230	0x3c7c907b	0.015415306
231	0xbb6ccbd3	-0.003613223
232	0xbc187793	-0.009305852
233	0xbcd05926	-0.025433134
234	0x3cfe7464	0.031061359
235	0xb77a65c6	-1.4924857e-05
236	0x3d258cc0	0.040417433
237	0x3903f594	0.00012584619
238	0x3be1b9c6	0.006888601
239	0xbd3df0dc	-0.04637228
240	0xbc0e1fcb	-0.008674572
241	0x39d82a50	0.00041230256
242	0xbaa4fcef	-0.0012587587
243	0x38c8bff6	9.572499e-05
244	0xb860a21c	-5.3556738e-05
245	0xbc9c365a	-0.019068886
246	0xbca3d5bc	-0.019999377
247	0xbc7ca21f	-0.015419512
248	0x39a4f480	0.00031462684
249	0xbc40d0e7	-0.011768556
250	0xbc59f5ad	-0.013303203
251	0xbd434cdd	-0.047680724
252	0x3ceabb80	0.02865386
253	0x3be34655	0.0069358745
254	0xbce684b6	-0.028139453
255	0x3c2cacfc	0.01053929

decoder.2.bias f4 [500]
0	0xbbe57407	-0.007002357
1	0x3c4e3e3d	0.012588081
2	0x3c01ea75	0.007929434
3	0x3c5c53b5	0.013447692
4	0xba8ddac0	-0.0010822639
5	0x3c9d6ba1	0.01921636
6	0xbb3043c0	-0.002689585
7	0xbcb2d423	-0.02182967
8	0x3c523230	0.012829348
9	0x3c405c0c	0.011740696
10	0x3c08c6d6	0.008348187
11	0x3b5b5f89	0.0033473691
12	0x3c09e6d6	0.008416852
13	0xb8d6d377	-0.000102437036
14	0xbc281557	-0.010258994
15	0xbd01513f	-0.031571623
16	0xbc4833fb	-0.012219424
17	0xbbd387b2	-0.006455385
18	0x39f65ca5	0.00046989802
19	0xbcda991b	-0.026684335
20	0xbcd331f3	-0.025780654
21	0xbcdeab05	-0.027181158
22	0xbbe396b6	-0.0069454564
23	0x3b8e6274	0.0043452326
24	0xbaa824ab	-0.0012828311
25	0xbbb8bffd	-0.005638121
26	0xbbdcd97d	-0.006739794
27	0x3a015774	0.0004933991
28	0xbba9f55a	-0.005186719
29	0xbc3dcabd	-0.011583981
30	0x3cda98e3	0.02668423
31	0xbd0d242b	-0.03445832
32	0x3c761789	0.01502026
33	0x3c5f8296	0.013641974
34	0x3b700329	0.0036622977
35	0x3c89e3d2	0.016832266
36	0xbc7b5ab8	-0.015341453
37	0x3c56c34b	0.013108085
38	0x3b840f8f	0.004030175
39	0xbc8a57cb	-0.016887566
40	0xbb73651e	-0.0037139128
41	0x3bee7cfd	0.0072780834
42	0x3addf128	0.0016932832
43	0xbc655202	-0.013996603
44	0xbc8a9377	-0.01691602
45	0xbb0a9aa3	-0.00211493
46	0xbc6a20d7	-0.014290056
47	0xbb82d069	-0.0039921296
48	0x3bb67a08	0.0055687465
49	0xbc0d7a90	-0.008635178
50	0xbb90a007	-0.004413608
51	0x3c72eaa1	0.014826448
52	0x3c4d9c57	0.012549481
53	0x3a4772ed	0.0007608373
54	0xbc2b4e8c	-0.010455739
55	0xb9c0229c	-0.0003664688
56	0x3c82ecda	0.01598208
57	0xbd163f9e	-0.036681764
58	0xbc2c882c	-0.010530513
59	0xbcb4bd22	-0.022062842
60	0x3cd7b320	0.02633053
61	0xbcbcc9a3	-0.023045367
62	0x3c0b7d1f	0.008513718
63	0xbc0d6937	-0.008631042
64	0x3c848a65	0.016179273
65	0xbc5ad0f9	-0.013355487
66	0x3c113128	0.008861817
67	0x3b5ec3c3	0.0033991195
68	0x3c214a48	0.00984437
69	0x3c30bfe2	0.010787936
70	0xbb362503	-0.0027793057
71	0x3c809664	0.015696712
72	0xbbcc64b9	-0.006237593
73	0xba47b14c	-0.0007617667
74	0xbc4eb9ad	-0.012617511
75	0x38a37835	7.794836e-05
76	0x3a44be91	0.0007505203
77	0x3c5106f2	0.012758004
78	0x3bd0cd76	0.006372149
79	0xbca083a9	-0.01959403
80	0x3c795fe4	0.015220616
81	0xbbbc4410	-0.0057454184
82	0xbc3ca780	-0.0115145445
83	0xbc6b3fe0	-0.014358491
84	0x3bd641f4	0.006538624
85	0xbc23616f	-0.00997196
86	0x3ad55f70	0.0016279053
87	0x3c73360b	0.014844428
88	0x3ad9e975	0.0016625362
89	0x3bc1a9b6	0.0059101237
90	0xbd14652c	-0.036229298
91	0xbc216d09	-0.009852656
92	0xbc48e24f	-0.012260987
93	0x3b059216	0.0020381263
94	0xba83850b	-0.0010034157
95	0xbc993bf5	-0.018705348
96	0xbc9c4bfa	-0.019079197
97	0x3c906e67	0.017630769
98	0x3c2b5bd4	0.010458905
99	0xbc96f6a4	-0.018428154
100	0x3aed856c	0.0018121428
101	0x3b83d54b	0.0040232292
102	0x3cda1d37	0.026625259
103	0xbbba8e6f	-0.005693249
104	0x3c407521	0.011746676
105	0x3bd2e9c5	0.006436559
106	0xbc02296c	-0.007944446
107	0x3b1e1334	0.0024120333
108	0xb949d35e	-0.00019247594
109	0xbc6c8580	-0.014436126
110	0x3c00a118	0.007850908
111	0xbb9ab011	-0.004720696
112	0x3b89b740	0.0042027533
113	0xbc2c6671	-0.010522471
114	0x3c01e855	0.007928927
115	0xbb4c1971	-0.0031143094
116	0xbc2b3ecd	-0.010451985
117	0x3c8b4c40	0.017004132
118	0x3c722162	0.014778467
119	0x39ea181d	0.00044649924
120	0x393a143c	0.0001774588
121	0xbc2e067b	-0.010621662
122	0xbc9b0a6c	-0.018925868
123	0xbb6cd16a	-0.0036135563
124	0x3c95c4d8	0.018282339
125	0xbc0e19b4	-0.00867312
126	0xbc402c06	-0.011729246
127	0xbc52a65a	-0.012857044
128	0x3c61e7ee	0.0137882065
129	0xbcb24a0e	-0.021763828
130	0x3cc01450	0.023447186
131	0x3c4b8962	0.012422891
132	0xbba099a4	-0.004901128
133	0x3cfb5d11	0.030684026
134	0xbb6476b1	-0.0034860785
135	0x3b7a8eac	0.0038232012
136	0x398fd7b1	0.00027435788
137	0x3c4d7782	0.0125407
138	0x3b977e7f	0.004623234
139	0xbb3920b8	-0.0028248262
140	0xbcc2dd89	-0.023787277
141	0xbb57a34d	-0.0032903731
142	0xbc0bb6f3	-0.008527505
143	0xbcd19758	-0.025584862
144	0xbc9b43e9	-0.01895328
145	0xbd225d35	-0.03963967
146	0x3b58c23f	0.0033074764
147	0x3cb74c2f	0.022375194
148	0xbaf9ba97	-0.00190528
149	0x3bf4795d	0.0074607567
150	0x3c90f8a1	0.01769668
151	0x3c563474	0.013074029
152	0x3a216d76	0.00061579735
153	0x3c1940cb	0.009353827
154	0xbaf13407	-0.0018402346
155	0x3cca0cb1	0.024664255
156	0xbc15018b	-0.009094606
157	0x3b895697	0.0041912305
158	0x3cb80555	0.02246348
159	0x392c3360	0.00016422337
160	0xbcd8e86f	-0.02647802
161	0xbd29e3f3	-0.041477155
162	0xbd0be25c	-0.03415142
163	0xbca58069	-0.020202832
164	0x3ca0ba29	0.019620018
165	0xbccf96c7	-0.02534045
166	0xbc428867	-0.011873341
167	0xbb0b2b8c	-0.0021235673
168	0x3b927336	0.0044693006
169	0xbbb783a3	-0.005600409
170	0x3b6af265	0.0035850045
171	0xbbcb64ca	-0.0062070834
172	0x3c4f0fda	0.012638057
173	0xbbc170c4	-0.0059033353
174	0xbd0d2953	-0.034463238
175	0x3d1a9b85	0.03774597
176	0x3caf005d	0.021362478
177	0xbc28c26d	-0.010300261
178	0xbcb10cd5	-0.021612564
179	0x3ca44418	0.020052
180	0xbcbcea14	-0.023060836
181	0xbc6504f6	-0.013978234
182	0xbc11ab9e	-0.008891014
183	0x3b12490c	0.0022321371
184	0xbc49bf03	-0.012313607
185	0x3c994958	0.01871173
186	0x3bbceca2	0.0057655135
187	0x3c9777de	0.018489774
188	0xbcc5141b	-0.024057439
189	0xbc116de9	-0.008876302
190	0x3bef34b2	0.007299983
191	0xbc77b0fa	-0.015117878
192	0x3c1b3866	0.009473896
193	0x3b034614	0.0020030783
194	0x3b7ec40f	0.0038874184
195	0xbc9a95a8	-0.01887019
196	0x3c3df7ec	0.011594754
197	0xbaf33a63	-0.0018556829
198	0x3d1db4a1	0.03850234
199	0x3c0f9ce6	0.008765435
200	0x3d0bf4cf	0.034169015
201	0xbc9b4928	-0.018955782
202	0x3c02f367	0.007992602
203	0x3a91793c	0.0011098753
204	0x3bae8f42	0.0053271363
205	0x3c55b72d	0.013044161
206	0xbc52f078	-0.012874715
207	0x3c027f0b	0.00796486
208	0x3ca110ea	0.019661386
209	0x3c9e0eff	0.01929426
210	0x3c8cb999	0.017178344
211	0xbceffcc3	-0.02929533
212	0x3c24f907	0.010069138
213	0x3c2f12c5	0.010685627
214	0x3cbbba46	0.02291597
215	0xba921ddb	-0.0011147814
216	0xbc6fd31c	-0.014637735
217	0xbc6a9a3e	-0.014319001
218	0xbba2ef0b	-0.004972344
219	0x3c92012e	0.017822828
220	0x3ca732bd	0.020409936
221	0xbb6ab5f7	-0.0035814026
222	0xbbddca8f	-0.0067685316
223	0xbd0d93e3	-0.034564864
224	0xbcd19160	-0.025582016
225	0x3b1fb850	0.0024371333
226	0xbaa96ea6	-0.0012926653
227	0x3ce5ce50	0.028052479
228	0x3c8d362a	0.017237742
229	0xbc7d02e4	-0.015442584
230	0x3cb9ceea	0.022681672
231	0xba038228	-0.0005016648
232	0xbb5d9163	-0.003380858
233	0x3d0ce976	0.034402333
234	0xbbf740fe	-0.0075455895
235	0xbc10209f	-0.00879684
236	0x3cc856db	0.024455478
237	0x3c05de85	0.008170729
238	0x3b7a56f3	0.0038198798
239	0x3c5a1dc9	0.013312765
240	0x3bbb9c8f	0.0057254503
241	0x3cc9d639	0.024638282
242	0x3c09e191	0.008415596
243	0x3c8c73b3	0.017145013
244	0xbae3e41d	-0.0017386709
245	0x3ac67684	0.0015141522
246	0xbbf97397	-0.0076126563
247	0xbc9434fc	-0.018091671
248	0xbbecc058	-0.0072250776
249	0xbbf8eaab	-0.007596334
250	0xbc7bcbe6	-0.015368437
251	0xbc916437	-0.017747981
252	0x3c907bab	0.017637094
253	0xbab1aa2a	-0.0013554741
254	0x3ba671fe	0.005079507
255	0x3c046bcf	0.008082344
